{"modelTopology":{"node":[{"input":[],"attr":{"value":{"tensor":{"floatVal":[],"doubleVal":[],"intVal":[],"stringVal":[],"scomplexVal":[],"int64Val":[],"boolVal":[],"uint32Val":[],"uint64Val":[],"dtype":1,"tensorShape":{"dim":[{"size":"64"}]}}},"dtype":{"type":1}},"name":"generator_hayao/in13_1/beta","op":"Const"},{"input":[],"attr":{"dtype":{"type":3},"value":{"tensor":{"floatVal":[],"doubleVal":[],"intVal":[],"stringVal":[],"scomplexVal":[],"int64Val":[],"boolVal":[],"uint32Val":[],"uint64Val":[],"dtype":3,"tensorShape":{"dim":[]}}}},"name":"generator_hayao/deconv02_1/conv2d_transpose/output_shape/3","op":"Const"},{"input":[],"attr":{"value":{"tensor":{"floatVal":[],"doubleVal":[],"intVal":[],"stringVal":[],"scomplexVal":[],"int64Val":[],"boolVal":[],"uint32Val":[],"uint64Val":[],"dtype":1,"tensorShape":{"dim":[{"size":"3"},{"size":"3"},{"size":"64"},{"size":"128"}]}}},"dtype":{"type":1}},"name":"generator_hayao/deconv02_1/kernel","op":"Const"},{"input":[],"attr":{"value":{"tensor":{"floatVal":[],"doubleVal":[],"intVal":[],"stringVal":[],"scomplexVal":[],"int64Val":[],"boolVal":[],"uint32Val":[],"uint64Val":[],"dtype":1,"tensorShape":{"dim":[{"size":"128"}]}}},"dtype":{"type":1}},"name":"generator_hayao/in12_1/beta","op":"Const"},{"input":[],"attr":{"dtype":{"type":3},"value":{"tensor":{"floatVal":[],"doubleVal":[],"intVal":[],"stringVal":[],"scomplexVal":[],"int64Val":[],"boolVal":[],"uint32Val":[],"uint64Val":[],"dtype":3,"tensorShape":{"dim":[{"size":"1"}]}}}},"name":"generator_hayao/deconv02_1/strided_slice/stack","op":"Const"},{"input":[],"attr":{"value":{"tensor":{"floatVal":[],"doubleVal":[],"intVal":[],"stringVal":[],"scomplexVal":[],"int64Val":[],"boolVal":[],"uint32Val":[],"uint64Val":[],"dtype":3,"tensorShape":{"dim":[{"size":"1"}]}}},"dtype":{"type":3}},"name":"generator_hayao/deconv02_1/strided_slice_1/stack_1","op":"Const"},{"input":[],"attr":{"value":{"tensor":{"floatVal":[],"doubleVal":[],"intVal":[],"stringVal":[],"scomplexVal":[],"int64Val":[],"boolVal":[],"uint32Val":[],"uint64Val":[],"dtype":3,"tensorShape":{"dim":[{"size":"1"}]}}},"dtype":{"type":3}},"name":"generator_hayao/deconv02_1/strided_slice_2/stack_1","op":"Const"},{"input":[],"attr":{"value":{"tensor":{"floatVal":[],"doubleVal":[],"intVal":[],"stringVal":[],"scomplexVal":[],"int64Val":[],"boolVal":[],"uint32Val":[],"uint64Val":[],"dtype":3,"tensorShape":{"dim":[{"size":"1"}]}}},"dtype":{"type":3}},"name":"generator_hayao/deconv02_1/strided_slice/stack_1","op":"Const"},{"input":[],"attr":{"value":{"tensor":{"floatVal":[],"doubleVal":[],"intVal":[],"stringVal":[],"scomplexVal":[],"int64Val":[],"boolVal":[],"uint32Val":[],"uint64Val":[],"dtype":3,"tensorShape":{"dim":[]}}},"dtype":{"type":3}},"name":"generator_hayao/deconv02_1/mul/y","op":"Const"},{"input":[],"attr":{"value":{"tensor":{"floatVal":[],"doubleVal":[],"intVal":[],"stringVal":[],"scomplexVal":[],"int64Val":[],"boolVal":[],"uint32Val":[],"uint64Val":[],"dtype":3,"tensorShape":{"dim":[]}}},"dtype":{"type":3}},"name":"generator_hayao/deconv02_1/add/y","op":"Const"},{"input":[],"attr":{"value":{"tensor":{"floatVal":[],"doubleVal":[],"intVal":[],"stringVal":[],"scomplexVal":[],"int64Val":[],"boolVal":[],"uint32Val":[],"uint64Val":[],"dtype":3,"tensorShape":{"dim":[]}}},"dtype":{"type":3}},"name":"generator_hayao/deconv01_1/conv2d_transpose/output_shape/3","op":"Const"},{"input":[],"attr":{"dtype":{"type":1},"value":{"tensor":{"floatVal":[],"doubleVal":[],"intVal":[],"stringVal":[],"scomplexVal":[],"int64Val":[],"boolVal":[],"uint32Val":[],"uint64Val":[],"dtype":1,"tensorShape":{"dim":[{"size":"3"},{"size":"3"},{"size":"128"},{"size":"256"}]}}}},"name":"generator_hayao/deconv01_1/kernel","op":"Const"},{"input":[],"attr":{"value":{"tensor":{"floatVal":[],"doubleVal":[],"intVal":[],"stringVal":[],"scomplexVal":[],"int64Val":[],"boolVal":[],"uint32Val":[],"uint64Val":[],"dtype":1,"tensorShape":{"dim":[{"size":"256"}]}}},"dtype":{"type":1}},"name":"generator_hayao/in11_2/beta","op":"Const"},{"input":[],"attr":{"value":{"tensor":{"floatVal":[],"doubleVal":[],"intVal":[],"stringVal":[],"scomplexVal":[],"int64Val":[],"boolVal":[],"uint32Val":[],"uint64Val":[],"dtype":1,"tensorShape":{"dim":[{"size":"256"}]}}},"dtype":{"type":1}},"name":"generator_hayao/in11_1/beta","op":"Const"},{"input":[],"attr":{"value":{"tensor":{"floatVal":[],"doubleVal":[],"intVal":[],"stringVal":[],"scomplexVal":[],"int64Val":[],"boolVal":[],"uint32Val":[],"uint64Val":[],"dtype":1,"tensorShape":{"dim":[{"size":"3"},{"size":"3"},{"size":"256"},{"size":"256"}]}}},"dtype":{"type":1}},"name":"generator_hayao/conv11_1/kernel","op":"Const"},{"input":[],"attr":{"value":{"tensor":{"floatVal":[],"doubleVal":[],"intVal":[],"stringVal":[],"scomplexVal":[],"int64Val":[],"boolVal":[],"uint32Val":[],"uint64Val":[],"dtype":1,"tensorShape":{"dim":[{"size":"256"}]}}},"dtype":{"type":1}},"name":"generator_hayao/conv11_1/bias","op":"Const"},{"input":[],"attr":{"value":{"tensor":{"floatVal":[],"doubleVal":[],"intVal":[],"stringVal":[],"scomplexVal":[],"int64Val":[],"boolVal":[],"uint32Val":[],"uint64Val":[],"dtype":1,"tensorShape":{"dim":[{"size":"256"}]}}},"dtype":{"type":1}},"name":"generator_hayao/in11_1/gamma","op":"Const"},{"input":[],"attr":{"dtype":{"type":1},"value":{"tensor":{"floatVal":[],"doubleVal":[],"intVal":[],"stringVal":[],"scomplexVal":[],"int64Val":[],"boolVal":[],"uint32Val":[],"uint64Val":[],"dtype":1,"tensorShape":{"dim":[{"size":"3"},{"size":"3"},{"size":"256"},{"size":"256"}]}}}},"name":"generator_hayao/conv11_2/kernel","op":"Const"},{"input":[],"attr":{"value":{"tensor":{"floatVal":[],"doubleVal":[],"intVal":[],"stringVal":[],"scomplexVal":[],"int64Val":[],"boolVal":[],"uint32Val":[],"uint64Val":[],"dtype":1,"tensorShape":{"dim":[{"size":"256"}]}}},"dtype":{"type":1}},"name":"generator_hayao/conv11_2/bias","op":"Const"},{"input":[],"attr":{"dtype":{"type":1},"value":{"tensor":{"floatVal":[],"doubleVal":[],"intVal":[],"stringVal":[],"scomplexVal":[],"int64Val":[],"boolVal":[],"uint32Val":[],"uint64Val":[],"dtype":1,"tensorShape":{"dim":[{"size":"256"}]}}}},"name":"generator_hayao/in11_2/gamma","op":"Const"},{"input":[],"attr":{"value":{"tensor":{"floatVal":[],"doubleVal":[],"intVal":[],"stringVal":[],"scomplexVal":[],"int64Val":[],"boolVal":[],"uint32Val":[],"uint64Val":[],"dtype":1,"tensorShape":{"dim":[{"size":"256"}]}}},"dtype":{"type":1}},"name":"generator_hayao/in10_2/beta","op":"Const"},{"input":[],"attr":{"value":{"tensor":{"floatVal":[],"doubleVal":[],"intVal":[],"stringVal":[],"scomplexVal":[],"int64Val":[],"boolVal":[],"uint32Val":[],"uint64Val":[],"dtype":1,"tensorShape":{"dim":[{"size":"256"}]}}},"dtype":{"type":1}},"name":"generator_hayao/in10_1/beta","op":"Const"},{"input":[],"attr":{"dtype":{"type":1},"value":{"tensor":{"floatVal":[],"doubleVal":[],"intVal":[],"stringVal":[],"scomplexVal":[],"int64Val":[],"boolVal":[],"uint32Val":[],"uint64Val":[],"dtype":1,"tensorShape":{"dim":[{"size":"3"},{"size":"3"},{"size":"256"},{"size":"256"}]}}}},"name":"generator_hayao/conv10_1/kernel","op":"Const"},{"input":[],"attr":{"value":{"tensor":{"floatVal":[],"doubleVal":[],"intVal":[],"stringVal":[],"scomplexVal":[],"int64Val":[],"boolVal":[],"uint32Val":[],"uint64Val":[],"dtype":1,"tensorShape":{"dim":[{"size":"256"}]}}},"dtype":{"type":1}},"name":"generator_hayao/conv10_1/bias","op":"Const"},{"input":[],"attr":{"value":{"tensor":{"floatVal":[],"doubleVal":[],"intVal":[],"stringVal":[],"scomplexVal":[],"int64Val":[],"boolVal":[],"uint32Val":[],"uint64Val":[],"dtype":1,"tensorShape":{"dim":[{"size":"256"}]}}},"dtype":{"type":1}},"name":"generator_hayao/in10_1/gamma","op":"Const"},{"input":[],"attr":{"value":{"tensor":{"floatVal":[],"doubleVal":[],"intVal":[],"stringVal":[],"scomplexVal":[],"int64Val":[],"boolVal":[],"uint32Val":[],"uint64Val":[],"dtype":1,"tensorShape":{"dim":[{"size":"3"},{"size":"3"},{"size":"256"},{"size":"256"}]}}},"dtype":{"type":1}},"name":"generator_hayao/conv10_2/kernel","op":"Const"},{"input":[],"attr":{"value":{"tensor":{"floatVal":[],"doubleVal":[],"intVal":[],"stringVal":[],"scomplexVal":[],"int64Val":[],"boolVal":[],"uint32Val":[],"uint64Val":[],"dtype":1,"tensorShape":{"dim":[{"size":"256"}]}}},"dtype":{"type":1}},"name":"generator_hayao/conv10_2/bias","op":"Const"},{"input":[],"attr":{"value":{"tensor":{"floatVal":[],"doubleVal":[],"intVal":[],"stringVal":[],"scomplexVal":[],"int64Val":[],"boolVal":[],"uint32Val":[],"uint64Val":[],"dtype":1,"tensorShape":{"dim":[{"size":"256"}]}}},"dtype":{"type":1}},"name":"generator_hayao/in10_2/gamma","op":"Const"},{"input":[],"attr":{"value":{"tensor":{"floatVal":[],"doubleVal":[],"intVal":[],"stringVal":[],"scomplexVal":[],"int64Val":[],"boolVal":[],"uint32Val":[],"uint64Val":[],"dtype":1,"tensorShape":{"dim":[{"size":"256"}]}}},"dtype":{"type":1}},"name":"generator_hayao/in09_2/beta","op":"Const"},{"input":[],"attr":{"value":{"tensor":{"floatVal":[],"doubleVal":[],"intVal":[],"stringVal":[],"scomplexVal":[],"int64Val":[],"boolVal":[],"uint32Val":[],"uint64Val":[],"dtype":1,"tensorShape":{"dim":[{"size":"256"}]}}},"dtype":{"type":1}},"name":"generator_hayao/in09_1/beta","op":"Const"},{"input":[],"attr":{"value":{"tensor":{"floatVal":[],"doubleVal":[],"intVal":[],"stringVal":[],"scomplexVal":[],"int64Val":[],"boolVal":[],"uint32Val":[],"uint64Val":[],"dtype":1,"tensorShape":{"dim":[{"size":"3"},{"size":"3"},{"size":"256"},{"size":"256"}]}}},"dtype":{"type":1}},"name":"generator_hayao/conv09_1/kernel","op":"Const"},{"input":[],"attr":{"value":{"tensor":{"floatVal":[],"doubleVal":[],"intVal":[],"stringVal":[],"scomplexVal":[],"int64Val":[],"boolVal":[],"uint32Val":[],"uint64Val":[],"dtype":1,"tensorShape":{"dim":[{"size":"256"}]}}},"dtype":{"type":1}},"name":"generator_hayao/conv09_1/bias","op":"Const"},{"input":[],"attr":{"value":{"tensor":{"floatVal":[],"doubleVal":[],"intVal":[],"stringVal":[],"scomplexVal":[],"int64Val":[],"boolVal":[],"uint32Val":[],"uint64Val":[],"dtype":1,"tensorShape":{"dim":[{"size":"256"}]}}},"dtype":{"type":1}},"name":"generator_hayao/in09_1/gamma","op":"Const"},{"input":[],"attr":{"value":{"tensor":{"floatVal":[],"doubleVal":[],"intVal":[],"stringVal":[],"scomplexVal":[],"int64Val":[],"boolVal":[],"uint32Val":[],"uint64Val":[],"dtype":1,"tensorShape":{"dim":[{"size":"3"},{"size":"3"},{"size":"256"},{"size":"256"}]}}},"dtype":{"type":1}},"name":"generator_hayao/conv09_2/kernel","op":"Const"},{"input":[],"attr":{"value":{"tensor":{"floatVal":[],"doubleVal":[],"intVal":[],"stringVal":[],"scomplexVal":[],"int64Val":[],"boolVal":[],"uint32Val":[],"uint64Val":[],"dtype":1,"tensorShape":{"dim":[{"size":"256"}]}}},"dtype":{"type":1}},"name":"generator_hayao/conv09_2/bias","op":"Const"},{"input":[],"attr":{"value":{"tensor":{"floatVal":[],"doubleVal":[],"intVal":[],"stringVal":[],"scomplexVal":[],"int64Val":[],"boolVal":[],"uint32Val":[],"uint64Val":[],"dtype":1,"tensorShape":{"dim":[{"size":"256"}]}}},"dtype":{"type":1}},"name":"generator_hayao/in09_2/gamma","op":"Const"},{"input":[],"attr":{"value":{"tensor":{"floatVal":[],"doubleVal":[],"intVal":[],"stringVal":[],"scomplexVal":[],"int64Val":[],"boolVal":[],"uint32Val":[],"uint64Val":[],"dtype":1,"tensorShape":{"dim":[{"size":"256"}]}}},"dtype":{"type":1}},"name":"generator_hayao/in08_2/beta","op":"Const"},{"input":[],"attr":{"value":{"tensor":{"floatVal":[],"doubleVal":[],"intVal":[],"stringVal":[],"scomplexVal":[],"int64Val":[],"boolVal":[],"uint32Val":[],"uint64Val":[],"dtype":1,"tensorShape":{"dim":[{"size":"256"}]}}},"dtype":{"type":1}},"name":"generator_hayao/in08_1/beta","op":"Const"},{"input":[],"attr":{"value":{"tensor":{"floatVal":[],"doubleVal":[],"intVal":[],"stringVal":[],"scomplexVal":[],"int64Val":[],"boolVal":[],"uint32Val":[],"uint64Val":[],"dtype":1,"tensorShape":{"dim":[{"size":"3"},{"size":"3"},{"size":"256"},{"size":"256"}]}}},"dtype":{"type":1}},"name":"generator_hayao/conv08_1/kernel","op":"Const"},{"input":[],"attr":{"dtype":{"type":1},"value":{"tensor":{"floatVal":[],"doubleVal":[],"intVal":[],"stringVal":[],"scomplexVal":[],"int64Val":[],"boolVal":[],"uint32Val":[],"uint64Val":[],"dtype":1,"tensorShape":{"dim":[{"size":"256"}]}}}},"name":"generator_hayao/conv08_1/bias","op":"Const"},{"input":[],"attr":{"dtype":{"type":1},"value":{"tensor":{"floatVal":[],"doubleVal":[],"intVal":[],"stringVal":[],"scomplexVal":[],"int64Val":[],"boolVal":[],"uint32Val":[],"uint64Val":[],"dtype":1,"tensorShape":{"dim":[{"size":"256"}]}}}},"name":"generator_hayao/in08_1/gamma","op":"Const"},{"input":[],"attr":{"value":{"tensor":{"floatVal":[],"doubleVal":[],"intVal":[],"stringVal":[],"scomplexVal":[],"int64Val":[],"boolVal":[],"uint32Val":[],"uint64Val":[],"dtype":1,"tensorShape":{"dim":[{"size":"3"},{"size":"3"},{"size":"256"},{"size":"256"}]}}},"dtype":{"type":1}},"name":"generator_hayao/conv08_2/kernel","op":"Const"},{"input":[],"attr":{"dtype":{"type":1},"value":{"tensor":{"floatVal":[],"doubleVal":[],"intVal":[],"stringVal":[],"scomplexVal":[],"int64Val":[],"boolVal":[],"uint32Val":[],"uint64Val":[],"dtype":1,"tensorShape":{"dim":[{"size":"256"}]}}}},"name":"generator_hayao/conv08_2/bias","op":"Const"},{"input":[],"attr":{"value":{"tensor":{"floatVal":[],"doubleVal":[],"intVal":[],"stringVal":[],"scomplexVal":[],"int64Val":[],"boolVal":[],"uint32Val":[],"uint64Val":[],"dtype":1,"tensorShape":{"dim":[{"size":"256"}]}}},"dtype":{"type":1}},"name":"generator_hayao/in08_2/gamma","op":"Const"},{"input":[],"attr":{"value":{"tensor":{"floatVal":[],"doubleVal":[],"intVal":[],"stringVal":[],"scomplexVal":[],"int64Val":[],"boolVal":[],"uint32Val":[],"uint64Val":[],"dtype":1,"tensorShape":{"dim":[{"size":"256"}]}}},"dtype":{"type":1}},"name":"generator_hayao/in07_2/beta","op":"Const"},{"input":[],"attr":{"value":{"tensor":{"floatVal":[],"doubleVal":[],"intVal":[],"stringVal":[],"scomplexVal":[],"int64Val":[],"boolVal":[],"uint32Val":[],"uint64Val":[],"dtype":1,"tensorShape":{"dim":[{"size":"256"}]}}},"dtype":{"type":1}},"name":"generator_hayao/in07_1/beta","op":"Const"},{"input":[],"attr":{"value":{"tensor":{"floatVal":[],"doubleVal":[],"intVal":[],"stringVal":[],"scomplexVal":[],"int64Val":[],"boolVal":[],"uint32Val":[],"uint64Val":[],"dtype":1,"tensorShape":{"dim":[{"size":"3"},{"size":"3"},{"size":"256"},{"size":"256"}]}}},"dtype":{"type":1}},"name":"generator_hayao/conv07_1/kernel","op":"Const"},{"input":[],"attr":{"value":{"tensor":{"floatVal":[],"doubleVal":[],"intVal":[],"stringVal":[],"scomplexVal":[],"int64Val":[],"boolVal":[],"uint32Val":[],"uint64Val":[],"dtype":1,"tensorShape":{"dim":[{"size":"256"}]}}},"dtype":{"type":1}},"name":"generator_hayao/conv07_1/bias","op":"Const"},{"input":[],"attr":{"value":{"tensor":{"floatVal":[],"doubleVal":[],"intVal":[],"stringVal":[],"scomplexVal":[],"int64Val":[],"boolVal":[],"uint32Val":[],"uint64Val":[],"dtype":1,"tensorShape":{"dim":[{"size":"256"}]}}},"dtype":{"type":1}},"name":"generator_hayao/in07_1/gamma","op":"Const"},{"input":[],"attr":{"value":{"tensor":{"floatVal":[],"doubleVal":[],"intVal":[],"stringVal":[],"scomplexVal":[],"int64Val":[],"boolVal":[],"uint32Val":[],"uint64Val":[],"dtype":1,"tensorShape":{"dim":[{"size":"3"},{"size":"3"},{"size":"256"},{"size":"256"}]}}},"dtype":{"type":1}},"name":"generator_hayao/conv07_2/kernel","op":"Const"},{"input":[],"attr":{"value":{"tensor":{"floatVal":[],"doubleVal":[],"intVal":[],"stringVal":[],"scomplexVal":[],"int64Val":[],"boolVal":[],"uint32Val":[],"uint64Val":[],"dtype":1,"tensorShape":{"dim":[{"size":"256"}]}}},"dtype":{"type":1}},"name":"generator_hayao/conv07_2/bias","op":"Const"},{"input":[],"attr":{"value":{"tensor":{"floatVal":[],"doubleVal":[],"intVal":[],"stringVal":[],"scomplexVal":[],"int64Val":[],"boolVal":[],"uint32Val":[],"uint64Val":[],"dtype":1,"tensorShape":{"dim":[{"size":"256"}]}}},"dtype":{"type":1}},"name":"generator_hayao/in07_2/gamma","op":"Const"},{"input":[],"attr":{"value":{"tensor":{"floatVal":[],"doubleVal":[],"intVal":[],"stringVal":[],"scomplexVal":[],"int64Val":[],"boolVal":[],"uint32Val":[],"uint64Val":[],"dtype":1,"tensorShape":{"dim":[{"size":"256"}]}}},"dtype":{"type":1}},"name":"generator_hayao/in06_2/beta","op":"Const"},{"input":[],"attr":{"value":{"tensor":{"floatVal":[],"doubleVal":[],"intVal":[],"stringVal":[],"scomplexVal":[],"int64Val":[],"boolVal":[],"uint32Val":[],"uint64Val":[],"dtype":1,"tensorShape":{"dim":[{"size":"256"}]}}},"dtype":{"type":1}},"name":"generator_hayao/in06_1/beta","op":"Const"},{"input":[],"attr":{"value":{"tensor":{"floatVal":[],"doubleVal":[],"intVal":[],"stringVal":[],"scomplexVal":[],"int64Val":[],"boolVal":[],"uint32Val":[],"uint64Val":[],"dtype":1,"tensorShape":{"dim":[{"size":"3"},{"size":"3"},{"size":"256"},{"size":"256"}]}}},"dtype":{"type":1}},"name":"generator_hayao/conv06_1/kernel","op":"Const"},{"input":[],"attr":{"value":{"tensor":{"floatVal":[],"doubleVal":[],"intVal":[],"stringVal":[],"scomplexVal":[],"int64Val":[],"boolVal":[],"uint32Val":[],"uint64Val":[],"dtype":1,"tensorShape":{"dim":[{"size":"256"}]}}},"dtype":{"type":1}},"name":"generator_hayao/conv06_1/bias","op":"Const"},{"input":[],"attr":{"value":{"tensor":{"floatVal":[],"doubleVal":[],"intVal":[],"stringVal":[],"scomplexVal":[],"int64Val":[],"boolVal":[],"uint32Val":[],"uint64Val":[],"dtype":1,"tensorShape":{"dim":[{"size":"256"}]}}},"dtype":{"type":1}},"name":"generator_hayao/in06_1/gamma","op":"Const"},{"input":[],"attr":{"value":{"tensor":{"floatVal":[],"doubleVal":[],"intVal":[],"stringVal":[],"scomplexVal":[],"int64Val":[],"boolVal":[],"uint32Val":[],"uint64Val":[],"dtype":1,"tensorShape":{"dim":[{"size":"3"},{"size":"3"},{"size":"256"},{"size":"256"}]}}},"dtype":{"type":1}},"name":"generator_hayao/conv06_2/kernel","op":"Const"},{"input":[],"attr":{"value":{"tensor":{"floatVal":[],"doubleVal":[],"intVal":[],"stringVal":[],"scomplexVal":[],"int64Val":[],"boolVal":[],"uint32Val":[],"uint64Val":[],"dtype":1,"tensorShape":{"dim":[{"size":"256"}]}}},"dtype":{"type":1}},"name":"generator_hayao/conv06_2/bias","op":"Const"},{"input":[],"attr":{"value":{"tensor":{"floatVal":[],"doubleVal":[],"intVal":[],"stringVal":[],"scomplexVal":[],"int64Val":[],"boolVal":[],"uint32Val":[],"uint64Val":[],"dtype":1,"tensorShape":{"dim":[{"size":"256"}]}}},"dtype":{"type":1}},"name":"generator_hayao/in06_2/gamma","op":"Const"},{"input":[],"attr":{"value":{"tensor":{"floatVal":[],"doubleVal":[],"intVal":[],"stringVal":[],"scomplexVal":[],"int64Val":[],"boolVal":[],"uint32Val":[],"uint64Val":[],"dtype":1,"tensorShape":{"dim":[{"size":"256"}]}}},"dtype":{"type":1}},"name":"generator_hayao/in05_2/beta","op":"Const"},{"input":[],"attr":{"value":{"tensor":{"floatVal":[],"doubleVal":[],"intVal":[],"stringVal":[],"scomplexVal":[],"int64Val":[],"boolVal":[],"uint32Val":[],"uint64Val":[],"dtype":1,"tensorShape":{"dim":[{"size":"256"}]}}},"dtype":{"type":1}},"name":"generator_hayao/in05_1/beta","op":"Const"},{"input":[],"attr":{"value":{"tensor":{"floatVal":[],"doubleVal":[],"intVal":[],"stringVal":[],"scomplexVal":[],"int64Val":[],"boolVal":[],"uint32Val":[],"uint64Val":[],"dtype":1,"tensorShape":{"dim":[{"size":"3"},{"size":"3"},{"size":"256"},{"size":"256"}]}}},"dtype":{"type":1}},"name":"generator_hayao/conv05_1/kernel","op":"Const"},{"input":[],"attr":{"value":{"tensor":{"floatVal":[],"doubleVal":[],"intVal":[],"stringVal":[],"scomplexVal":[],"int64Val":[],"boolVal":[],"uint32Val":[],"uint64Val":[],"dtype":1,"tensorShape":{"dim":[{"size":"256"}]}}},"dtype":{"type":1}},"name":"generator_hayao/conv05_1/bias","op":"Const"},{"input":[],"attr":{"value":{"tensor":{"floatVal":[],"doubleVal":[],"intVal":[],"stringVal":[],"scomplexVal":[],"int64Val":[],"boolVal":[],"uint32Val":[],"uint64Val":[],"dtype":1,"tensorShape":{"dim":[{"size":"256"}]}}},"dtype":{"type":1}},"name":"generator_hayao/in05_1/gamma","op":"Const"},{"input":[],"attr":{"value":{"tensor":{"floatVal":[],"doubleVal":[],"intVal":[],"stringVal":[],"scomplexVal":[],"int64Val":[],"boolVal":[],"uint32Val":[],"uint64Val":[],"dtype":1,"tensorShape":{"dim":[{"size":"3"},{"size":"3"},{"size":"256"},{"size":"256"}]}}},"dtype":{"type":1}},"name":"generator_hayao/conv05_2/kernel","op":"Const"},{"input":[],"attr":{"value":{"tensor":{"floatVal":[],"doubleVal":[],"intVal":[],"stringVal":[],"scomplexVal":[],"int64Val":[],"boolVal":[],"uint32Val":[],"uint64Val":[],"dtype":1,"tensorShape":{"dim":[{"size":"256"}]}}},"dtype":{"type":1}},"name":"generator_hayao/conv05_2/bias","op":"Const"},{"input":[],"attr":{"value":{"tensor":{"floatVal":[],"doubleVal":[],"intVal":[],"stringVal":[],"scomplexVal":[],"int64Val":[],"boolVal":[],"uint32Val":[],"uint64Val":[],"dtype":1,"tensorShape":{"dim":[{"size":"256"}]}}},"dtype":{"type":1}},"name":"generator_hayao/in05_2/gamma","op":"Const"},{"input":[],"attr":{"value":{"tensor":{"floatVal":[],"doubleVal":[],"intVal":[],"stringVal":[],"scomplexVal":[],"int64Val":[],"boolVal":[],"uint32Val":[],"uint64Val":[],"dtype":1,"tensorShape":{"dim":[{"size":"256"}]}}},"dtype":{"type":1}},"name":"generator_hayao/in04_2/beta","op":"Const"},{"input":[],"attr":{"value":{"tensor":{"floatVal":[],"doubleVal":[],"intVal":[],"stringVal":[],"scomplexVal":[],"int64Val":[],"boolVal":[],"uint32Val":[],"uint64Val":[],"dtype":1,"tensorShape":{"dim":[{"size":"256"}]}}},"dtype":{"type":1}},"name":"generator_hayao/in04_1/beta","op":"Const"},{"input":[],"attr":{"dtype":{"type":1},"value":{"tensor":{"floatVal":[],"doubleVal":[],"intVal":[],"stringVal":[],"scomplexVal":[],"int64Val":[],"boolVal":[],"uint32Val":[],"uint64Val":[],"dtype":1,"tensorShape":{"dim":[{"size":"3"},{"size":"3"},{"size":"256"},{"size":"256"}]}}}},"name":"generator_hayao/conv04_1/kernel","op":"Const"},{"input":[],"attr":{"value":{"tensor":{"floatVal":[],"doubleVal":[],"intVal":[],"stringVal":[],"scomplexVal":[],"int64Val":[],"boolVal":[],"uint32Val":[],"uint64Val":[],"dtype":1,"tensorShape":{"dim":[{"size":"256"}]}}},"dtype":{"type":1}},"name":"generator_hayao/conv04_1/bias","op":"Const"},{"input":[],"attr":{"value":{"tensor":{"floatVal":[],"doubleVal":[],"intVal":[],"stringVal":[],"scomplexVal":[],"int64Val":[],"boolVal":[],"uint32Val":[],"uint64Val":[],"dtype":1,"tensorShape":{"dim":[{"size":"256"}]}}},"dtype":{"type":1}},"name":"generator_hayao/in04_1/gamma","op":"Const"},{"input":[],"attr":{"value":{"tensor":{"floatVal":[],"doubleVal":[],"intVal":[],"stringVal":[],"scomplexVal":[],"int64Val":[],"boolVal":[],"uint32Val":[],"uint64Val":[],"dtype":1,"tensorShape":{"dim":[{"size":"3"},{"size":"3"},{"size":"256"},{"size":"256"}]}}},"dtype":{"type":1}},"name":"generator_hayao/conv04_2/kernel","op":"Const"},{"input":[],"attr":{"value":{"tensor":{"floatVal":[],"doubleVal":[],"intVal":[],"stringVal":[],"scomplexVal":[],"int64Val":[],"boolVal":[],"uint32Val":[],"uint64Val":[],"dtype":1,"tensorShape":{"dim":[{"size":"256"}]}}},"dtype":{"type":1}},"name":"generator_hayao/conv04_2/bias","op":"Const"},{"input":[],"attr":{"value":{"tensor":{"floatVal":[],"doubleVal":[],"intVal":[],"stringVal":[],"scomplexVal":[],"int64Val":[],"boolVal":[],"uint32Val":[],"uint64Val":[],"dtype":1,"tensorShape":{"dim":[{"size":"256"}]}}},"dtype":{"type":1}},"name":"generator_hayao/in04_2/gamma","op":"Const"},{"input":[],"attr":{"value":{"tensor":{"floatVal":[],"doubleVal":[],"intVal":[],"stringVal":[],"scomplexVal":[],"int64Val":[],"boolVal":[],"uint32Val":[],"uint64Val":[],"dtype":1,"tensorShape":{"dim":[{"size":"256"}]}}},"dtype":{"type":1}},"name":"generator_hayao/in03_1/beta","op":"Const"},{"input":[],"attr":{"value":{"tensor":{"floatVal":[],"doubleVal":[],"intVal":[],"stringVal":[],"scomplexVal":[],"int64Val":[],"boolVal":[],"uint32Val":[],"uint64Val":[],"dtype":1,"tensorShape":{"dim":[{"size":"128"}]}}},"dtype":{"type":1}},"name":"generator_hayao/in02_1/beta","op":"Const"},{"input":[],"attr":{"value":{"tensor":{"floatVal":[],"doubleVal":[],"intVal":[],"stringVal":[],"scomplexVal":[],"int64Val":[],"boolVal":[],"uint32Val":[],"uint64Val":[],"dtype":1,"tensorShape":{"dim":[{"size":"64"}]}}},"dtype":{"type":1}},"name":"generator_hayao/in01_1/beta","op":"Const"},{"input":[],"attr":{"value":{"tensor":{"floatVal":[],"doubleVal":[],"intVal":[],"stringVal":[],"scomplexVal":[],"int64Val":[],"boolVal":[],"uint32Val":[],"uint64Val":[],"dtype":1,"tensorShape":{"dim":[{"size":"7"},{"size":"7"},{"size":"3"},{"size":"64"}]}}},"dtype":{"type":1}},"name":"generator_hayao/conv01_1/kernel","op":"Const"},{"input":[],"attr":{"value":{"tensor":{"floatVal":[],"doubleVal":[],"intVal":[],"stringVal":[],"scomplexVal":[],"int64Val":[],"boolVal":[],"uint32Val":[],"uint64Val":[],"dtype":1,"tensorShape":{"dim":[{"size":"64"}]}}},"dtype":{"type":1}},"name":"generator_hayao/conv01_1/bias","op":"Const"},{"input":[],"attr":{"value":{"tensor":{"floatVal":[],"doubleVal":[],"intVal":[],"stringVal":[],"scomplexVal":[],"int64Val":[],"boolVal":[],"uint32Val":[],"uint64Val":[],"dtype":1,"tensorShape":{"dim":[{"size":"64"}]}}},"dtype":{"type":1}},"name":"generator_hayao/in01_1/gamma","op":"Const"},{"input":[],"attr":{"value":{"tensor":{"floatVal":[],"doubleVal":[],"intVal":[],"stringVal":[],"scomplexVal":[],"int64Val":[],"boolVal":[],"uint32Val":[],"uint64Val":[],"dtype":1,"tensorShape":{"dim":[{"size":"3"},{"size":"3"},{"size":"64"},{"size":"128"}]}}},"dtype":{"type":1}},"name":"generator_hayao/conv02_1/kernel","op":"Const"},{"input":[],"attr":{"value":{"tensor":{"floatVal":[],"doubleVal":[],"intVal":[],"stringVal":[],"scomplexVal":[],"int64Val":[],"boolVal":[],"uint32Val":[],"uint64Val":[],"dtype":1,"tensorShape":{"dim":[{"size":"128"}]}}},"dtype":{"type":1}},"name":"generator_hayao/conv02_1/bias","op":"Const"},{"input":[],"attr":{"value":{"tensor":{"floatVal":[],"doubleVal":[],"intVal":[],"stringVal":[],"scomplexVal":[],"int64Val":[],"boolVal":[],"uint32Val":[],"uint64Val":[],"dtype":1,"tensorShape":{"dim":[{"size":"3"},{"size":"3"},{"size":"128"},{"size":"128"}]}}},"dtype":{"type":1}},"name":"generator_hayao/conv02_2/kernel","op":"Const"},{"input":[],"attr":{"dtype":{"type":1},"value":{"tensor":{"floatVal":[],"doubleVal":[],"intVal":[],"stringVal":[],"scomplexVal":[],"int64Val":[],"boolVal":[],"uint32Val":[],"uint64Val":[],"dtype":1,"tensorShape":{"dim":[{"size":"128"}]}}}},"name":"generator_hayao/conv02_2/bias","op":"Const"},{"input":[],"attr":{"value":{"tensor":{"floatVal":[],"doubleVal":[],"intVal":[],"stringVal":[],"scomplexVal":[],"int64Val":[],"boolVal":[],"uint32Val":[],"uint64Val":[],"dtype":1,"tensorShape":{"dim":[{"size":"128"}]}}},"dtype":{"type":1}},"name":"generator_hayao/in02_1/gamma","op":"Const"},{"input":[],"attr":{"value":{"tensor":{"floatVal":[],"doubleVal":[],"intVal":[],"stringVal":[],"scomplexVal":[],"int64Val":[],"boolVal":[],"uint32Val":[],"uint64Val":[],"dtype":1,"tensorShape":{"dim":[{"size":"3"},{"size":"3"},{"size":"128"},{"size":"256"}]}}},"dtype":{"type":1}},"name":"generator_hayao/conv03_1/kernel","op":"Const"},{"input":[],"attr":{"value":{"tensor":{"floatVal":[],"doubleVal":[],"intVal":[],"stringVal":[],"scomplexVal":[],"int64Val":[],"boolVal":[],"uint32Val":[],"uint64Val":[],"dtype":1,"tensorShape":{"dim":[{"size":"256"}]}}},"dtype":{"type":1}},"name":"generator_hayao/conv03_1/bias","op":"Const"},{"input":[],"attr":{"value":{"tensor":{"floatVal":[],"doubleVal":[],"intVal":[],"stringVal":[],"scomplexVal":[],"int64Val":[],"boolVal":[],"uint32Val":[],"uint64Val":[],"dtype":1,"tensorShape":{"dim":[{"size":"3"},{"size":"3"},{"size":"256"},{"size":"256"}]}}},"dtype":{"type":1}},"name":"generator_hayao/conv03_2/kernel","op":"Const"},{"input":[],"attr":{"value":{"tensor":{"floatVal":[],"doubleVal":[],"intVal":[],"stringVal":[],"scomplexVal":[],"int64Val":[],"boolVal":[],"uint32Val":[],"uint64Val":[],"dtype":1,"tensorShape":{"dim":[{"size":"256"}]}}},"dtype":{"type":1}},"name":"generator_hayao/conv03_2/bias","op":"Const"},{"input":[],"attr":{"value":{"tensor":{"floatVal":[],"doubleVal":[],"intVal":[],"stringVal":[],"scomplexVal":[],"int64Val":[],"boolVal":[],"uint32Val":[],"uint64Val":[],"dtype":1,"tensorShape":{"dim":[{"size":"256"}]}}},"dtype":{"type":1}},"name":"generator_hayao/in03_1/gamma","op":"Const"},{"input":[],"attr":{"value":{"tensor":{"floatVal":[],"doubleVal":[],"intVal":[],"stringVal":[],"scomplexVal":[],"int64Val":[],"boolVal":[],"uint32Val":[],"uint64Val":[],"dtype":1,"tensorShape":{"dim":[{"size":"128"}]}}},"dtype":{"type":1}},"name":"generator_hayao/deconv01_1/bias","op":"Const"},{"input":[],"attr":{"value":{"tensor":{"floatVal":[],"doubleVal":[],"intVal":[],"stringVal":[],"scomplexVal":[],"int64Val":[],"boolVal":[],"uint32Val":[],"uint64Val":[],"dtype":1,"tensorShape":{"dim":[{"size":"3"},{"size":"3"},{"size":"128"},{"size":"128"}]}}},"dtype":{"type":1}},"name":"generator_hayao/deconv01_2/kernel","op":"Const"},{"input":[],"attr":{"dtype":{"type":1},"value":{"tensor":{"floatVal":[],"doubleVal":[],"intVal":[],"stringVal":[],"scomplexVal":[],"int64Val":[],"boolVal":[],"uint32Val":[],"uint64Val":[],"dtype":1,"tensorShape":{"dim":[{"size":"128"}]}}}},"name":"generator_hayao/deconv01_2/bias","op":"Const"},{"input":[],"attr":{"value":{"tensor":{"floatVal":[],"doubleVal":[],"intVal":[],"stringVal":[],"scomplexVal":[],"int64Val":[],"boolVal":[],"uint32Val":[],"uint64Val":[],"dtype":1,"tensorShape":{"dim":[{"size":"128"}]}}},"dtype":{"type":1}},"name":"generator_hayao/in12_1/gamma","op":"Const"},{"input":[],"attr":{"value":{"tensor":{"floatVal":[],"doubleVal":[],"intVal":[],"stringVal":[],"scomplexVal":[],"int64Val":[],"boolVal":[],"uint32Val":[],"uint64Val":[],"dtype":3,"tensorShape":{"dim":[{"size":"3"}]}}},"dtype":{"type":3}},"name":"generator_hayao/deconv01_1/strided_slice_3/stack","op":"Const"},{"input":[],"attr":{"dtype":{"type":3},"value":{"tensor":{"floatVal":[],"doubleVal":[],"intVal":[],"stringVal":[],"scomplexVal":[],"int64Val":[],"boolVal":[],"uint32Val":[],"uint64Val":[],"dtype":3,"tensorShape":{"dim":[{"size":"3"}]}}}},"name":"generator_hayao/deconv01_1/strided_slice_3/stack_1","op":"Const"},{"input":[],"attr":{"value":{"tensor":{"floatVal":[],"doubleVal":[],"intVal":[],"stringVal":[],"scomplexVal":[],"int64Val":[],"boolVal":[],"uint32Val":[],"uint64Val":[],"dtype":3,"tensorShape":{"dim":[{"size":"3"}]}}},"dtype":{"type":3}},"name":"generator_hayao/deconv01_1/strided_slice_3/stack_2","op":"Const"},{"input":[],"attr":{"value":{"tensor":{"floatVal":[],"doubleVal":[],"intVal":[],"stringVal":[],"scomplexVal":[],"int64Val":[],"boolVal":[],"uint32Val":[],"uint64Val":[],"dtype":1,"tensorShape":{"dim":[{"size":"64"}]}}},"dtype":{"type":1}},"name":"generator_hayao/deconv02_1/bias","op":"Const"},{"input":[],"attr":{"value":{"tensor":{"floatVal":[],"doubleVal":[],"intVal":[],"stringVal":[],"scomplexVal":[],"int64Val":[],"boolVal":[],"uint32Val":[],"uint64Val":[],"dtype":3,"tensorShape":{"dim":[{"size":"4"},{"size":"2"}]}}},"dtype":{"type":3}},"name":"generator_hayao/Pad_15/paddings","op":"Const"},{"input":[],"attr":{"value":{"tensor":{"floatVal":[],"doubleVal":[],"intVal":[],"stringVal":[],"scomplexVal":[],"int64Val":[],"boolVal":[],"uint32Val":[],"uint64Val":[],"dtype":1,"tensorShape":{"dim":[{"size":"3"},{"size":"3"},{"size":"64"},{"size":"64"}]}}},"dtype":{"type":1}},"name":"generator_hayao/deconv02_2/kernel","op":"Const"},{"input":[],"attr":{"value":{"tensor":{"floatVal":[],"doubleVal":[],"intVal":[],"stringVal":[],"scomplexVal":[],"int64Val":[],"boolVal":[],"uint32Val":[],"uint64Val":[],"dtype":1,"tensorShape":{"dim":[{"size":"64"}]}}},"dtype":{"type":1}},"name":"generator_hayao/deconv02_2/bias","op":"Const"},{"input":[],"attr":{"value":{"tensor":{"floatVal":[],"doubleVal":[],"intVal":[],"stringVal":[],"scomplexVal":[],"int64Val":[],"boolVal":[],"uint32Val":[],"uint64Val":[],"dtype":3,"tensorShape":{"dim":[{"size":"2"}]}}},"dtype":{"type":3}},"name":"generator_hayao/in11_1/moments/mean/reduction_indices","op":"Const"},{"input":[],"attr":{"dtype":{"type":1},"value":{"tensor":{"floatVal":[],"doubleVal":[],"intVal":[],"stringVal":[],"scomplexVal":[],"int64Val":[],"boolVal":[],"uint32Val":[],"uint64Val":[],"dtype":1,"tensorShape":{"dim":[]}}}},"name":"generator_hayao/in11_1/instancenorm/add/y","op":"Const"},{"input":[],"attr":{"value":{"tensor":{"floatVal":[],"doubleVal":[],"intVal":[],"stringVal":[],"scomplexVal":[],"int64Val":[],"boolVal":[],"uint32Val":[],"uint64Val":[],"dtype":1,"tensorShape":{"dim":[{"size":"64"}]}}},"dtype":{"type":1}},"name":"generator_hayao/in13_1/gamma","op":"Const"},{"input":[],"attr":{"value":{"tensor":{"floatVal":[],"doubleVal":[],"intVal":[],"stringVal":[],"scomplexVal":[],"int64Val":[],"boolVal":[],"uint32Val":[],"uint64Val":[],"dtype":3,"tensorShape":{"dim":[{"size":"4"},{"size":"2"}]}}},"dtype":{"type":3}},"name":"generator_hayao/Pad/paddings","op":"Const"},{"input":[],"attr":{"value":{"tensor":{"floatVal":[],"doubleVal":[],"intVal":[],"stringVal":[],"scomplexVal":[],"int64Val":[],"boolVal":[],"uint32Val":[],"uint64Val":[],"dtype":1,"tensorShape":{"dim":[{"size":"7"},{"size":"7"},{"size":"64"},{"size":"3"}]}}},"dtype":{"type":1}},"name":"generator_hayao/deconv03_1/kernel","op":"Const"},{"input":[],"attr":{"value":{"tensor":{"floatVal":[],"doubleVal":[],"intVal":[],"stringVal":[],"scomplexVal":[],"int64Val":[],"boolVal":[],"uint32Val":[],"uint64Val":[],"dtype":1,"tensorShape":{"dim":[{"size":"3"}]}}},"dtype":{"type":1}},"name":"generator_hayao/deconv03_1/bias","op":"Const"},{"input":[],"attr":{"shape":{"shape":{"dim":[{"size":"-1"},{"size":"-1"},{"size":"-1"},{"size":"3"}]}},"dtype":{"type":1}},"name":"generator_hayao/input","op":"Placeholder"},{"input":["generator_hayao/input","generator_hayao/Pad/paddings"],"attr":{"T":{"type":1},"Tpaddings":{"type":3}},"name":"generator_hayao/Pad","op":"Pad"},{"input":["generator_hayao/Pad","generator_hayao/conv01_1/kernel"],"attr":{"padding":{"s":[86,65,76,73,68]},"dilations":{"list":{"s":[],"i":["1","1","1","1"],"f":[],"b":[],"type":[],"shape":[],"tensor":[],"func":[]}},"T":{"type":1},"strides":{"list":{"s":[],"i":["1","1","1","1"],"f":[],"b":[],"type":[],"shape":[],"tensor":[],"func":[]}},"data_format":{"s":[78,72,87,67]},"use_cudnn_on_gpu":{"b":true}},"name":"generator_hayao/conv01_1/Conv2D","op":"Conv2D"},{"input":["generator_hayao/conv01_1/Conv2D","generator_hayao/conv01_1/bias"],"attr":{"data_format":{"s":[78,72,87,67]},"T":{"type":1}},"name":"generator_hayao/conv01_1/BiasAdd","op":"BiasAdd"},{"input":["generator_hayao/conv01_1/BiasAdd","generator_hayao/in11_1/moments/mean/reduction_indices"],"attr":{"Tidx":{"type":3},"keep_dims":{"b":true},"T":{"type":1}},"name":"generator_hayao/in01_1/moments/mean","op":"Mean"},{"input":["generator_hayao/conv01_1/BiasAdd","generator_hayao/in01_1/moments/mean"],"attr":{"T":{"type":1}},"name":"generator_hayao/in01_1/moments/SquaredDifference","op":"SquaredDifference"},{"input":["generator_hayao/in01_1/moments/SquaredDifference","generator_hayao/in11_1/moments/mean/reduction_indices"],"attr":{"Tidx":{"type":3},"keep_dims":{"b":true},"T":{"type":1}},"name":"generator_hayao/in01_1/moments/variance","op":"Mean"},{"input":["generator_hayao/in01_1/moments/variance","generator_hayao/in11_1/instancenorm/add/y"],"attr":{"T":{"type":1}},"name":"generator_hayao/in01_1/instancenorm/add","op":"Add"},{"input":["generator_hayao/in01_1/instancenorm/add"],"attr":{"T":{"type":1}},"name":"generator_hayao/in01_1/instancenorm/Rsqrt","op":"Rsqrt"},{"input":["generator_hayao/in01_1/instancenorm/Rsqrt","generator_hayao/in01_1/gamma"],"attr":{"T":{"type":1}},"name":"generator_hayao/in01_1/instancenorm/mul","op":"Mul"},{"input":["generator_hayao/conv01_1/BiasAdd","generator_hayao/in01_1/instancenorm/mul"],"attr":{"T":{"type":1}},"name":"generator_hayao/in01_1/instancenorm/mul_1","op":"Mul"},{"input":["generator_hayao/in01_1/moments/mean","generator_hayao/in01_1/instancenorm/mul"],"attr":{"T":{"type":1}},"name":"generator_hayao/in01_1/instancenorm/mul_2","op":"Mul"},{"input":["generator_hayao/in01_1/beta","generator_hayao/in01_1/instancenorm/mul_2"],"attr":{"T":{"type":1}},"name":"generator_hayao/in01_1/instancenorm/sub","op":"Sub"},{"input":["generator_hayao/in01_1/instancenorm/mul_1","generator_hayao/in01_1/instancenorm/sub"],"attr":{"T":{"type":1}},"name":"generator_hayao/in01_1/instancenorm/add_1","op":"Add"},{"input":["generator_hayao/in01_1/instancenorm/add_1"],"attr":{"T":{"type":1}},"name":"generator_hayao/Relu","op":"Relu"},{"input":["generator_hayao/Relu","generator_hayao/Pad_15/paddings"],"attr":{"T":{"type":1},"Tpaddings":{"type":3}},"name":"generator_hayao/conv02_1/Pad","op":"Pad"},{"input":["generator_hayao/conv02_1/Pad","generator_hayao/conv02_1/kernel"],"attr":{"dilations":{"list":{"s":[],"i":["1","1","1","1"],"f":[],"b":[],"type":[],"shape":[],"tensor":[],"func":[]}},"T":{"type":1},"data_format":{"s":[78,72,87,67]},"strides":{"list":{"s":[],"i":["1","2","2","1"],"f":[],"b":[],"type":[],"shape":[],"tensor":[],"func":[]}},"use_cudnn_on_gpu":{"b":true},"padding":{"s":[86,65,76,73,68]}},"name":"generator_hayao/conv02_1/Conv2D","op":"Conv2D"},{"input":["generator_hayao/conv02_1/Conv2D","generator_hayao/conv02_1/bias"],"attr":{"data_format":{"s":[78,72,87,67]},"T":{"type":1}},"name":"generator_hayao/conv02_1/BiasAdd","op":"BiasAdd"},{"input":["generator_hayao/conv02_1/BiasAdd","generator_hayao/Pad_15/paddings"],"attr":{"T":{"type":1},"Tpaddings":{"type":3}},"name":"generator_hayao/conv02_2/Pad","op":"Pad"},{"input":["generator_hayao/conv02_2/Pad","generator_hayao/conv02_2/kernel"],"attr":{"strides":{"list":{"s":[],"i":["1","1","1","1"],"f":[],"b":[],"type":[],"shape":[],"tensor":[],"func":[]}},"data_format":{"s":[78,72,87,67]},"use_cudnn_on_gpu":{"b":true},"padding":{"s":[86,65,76,73,68]},"dilations":{"list":{"s":[],"i":["1","1","1","1"],"f":[],"b":[],"type":[],"shape":[],"tensor":[],"func":[]}},"T":{"type":1}},"name":"generator_hayao/conv02_2/Conv2D","op":"Conv2D"},{"input":["generator_hayao/conv02_2/Conv2D","generator_hayao/conv02_2/bias"],"attr":{"data_format":{"s":[78,72,87,67]},"T":{"type":1}},"name":"generator_hayao/conv02_2/BiasAdd","op":"BiasAdd"},{"input":["generator_hayao/conv02_2/BiasAdd","generator_hayao/in11_1/moments/mean/reduction_indices"],"attr":{"Tidx":{"type":3},"keep_dims":{"b":true},"T":{"type":1}},"name":"generator_hayao/in02_1/moments/mean","op":"Mean"},{"input":["generator_hayao/conv02_2/BiasAdd","generator_hayao/in02_1/moments/mean"],"attr":{"T":{"type":1}},"name":"generator_hayao/in02_1/moments/SquaredDifference","op":"SquaredDifference"},{"input":["generator_hayao/in02_1/moments/SquaredDifference","generator_hayao/in11_1/moments/mean/reduction_indices"],"attr":{"Tidx":{"type":3},"keep_dims":{"b":true},"T":{"type":1}},"name":"generator_hayao/in02_1/moments/variance","op":"Mean"},{"input":["generator_hayao/in02_1/moments/variance","generator_hayao/in11_1/instancenorm/add/y"],"attr":{"T":{"type":1}},"name":"generator_hayao/in02_1/instancenorm/add","op":"Add"},{"input":["generator_hayao/in02_1/instancenorm/add"],"attr":{"T":{"type":1}},"name":"generator_hayao/in02_1/instancenorm/Rsqrt","op":"Rsqrt"},{"input":["generator_hayao/in02_1/instancenorm/Rsqrt","generator_hayao/in02_1/gamma"],"attr":{"T":{"type":1}},"name":"generator_hayao/in02_1/instancenorm/mul","op":"Mul"},{"input":["generator_hayao/conv02_2/BiasAdd","generator_hayao/in02_1/instancenorm/mul"],"attr":{"T":{"type":1}},"name":"generator_hayao/in02_1/instancenorm/mul_1","op":"Mul"},{"input":["generator_hayao/in02_1/moments/mean","generator_hayao/in02_1/instancenorm/mul"],"attr":{"T":{"type":1}},"name":"generator_hayao/in02_1/instancenorm/mul_2","op":"Mul"},{"input":["generator_hayao/in02_1/beta","generator_hayao/in02_1/instancenorm/mul_2"],"attr":{"T":{"type":1}},"name":"generator_hayao/in02_1/instancenorm/sub","op":"Sub"},{"input":["generator_hayao/in02_1/instancenorm/mul_1","generator_hayao/in02_1/instancenorm/sub"],"attr":{"T":{"type":1}},"name":"generator_hayao/in02_1/instancenorm/add_1","op":"Add"},{"input":["generator_hayao/in02_1/instancenorm/add_1"],"attr":{"T":{"type":1}},"name":"generator_hayao/Relu_1","op":"Relu"},{"input":["generator_hayao/Relu_1","generator_hayao/Pad_15/paddings"],"attr":{"Tpaddings":{"type":3},"T":{"type":1}},"name":"generator_hayao/conv03_1/Pad","op":"Pad"},{"input":["generator_hayao/conv03_1/Pad","generator_hayao/conv03_1/kernel"],"attr":{"padding":{"s":[86,65,76,73,68]},"dilations":{"list":{"s":[],"i":["1","1","1","1"],"f":[],"b":[],"type":[],"shape":[],"tensor":[],"func":[]}},"T":{"type":1},"data_format":{"s":[78,72,87,67]},"strides":{"list":{"s":[],"i":["1","2","2","1"],"f":[],"b":[],"type":[],"shape":[],"tensor":[],"func":[]}},"use_cudnn_on_gpu":{"b":true}},"name":"generator_hayao/conv03_1/Conv2D","op":"Conv2D"},{"input":["generator_hayao/conv03_1/Conv2D","generator_hayao/conv03_1/bias"],"attr":{"data_format":{"s":[78,72,87,67]},"T":{"type":1}},"name":"generator_hayao/conv03_1/BiasAdd","op":"BiasAdd"},{"input":["generator_hayao/conv03_1/BiasAdd","generator_hayao/Pad_15/paddings"],"attr":{"T":{"type":1},"Tpaddings":{"type":3}},"name":"generator_hayao/conv03_2/Pad","op":"Pad"},{"input":["generator_hayao/conv03_2/Pad","generator_hayao/conv03_2/kernel"],"attr":{"dilations":{"list":{"s":[],"i":["1","1","1","1"],"f":[],"b":[],"type":[],"shape":[],"tensor":[],"func":[]}},"T":{"type":1},"strides":{"list":{"s":[],"i":["1","1","1","1"],"f":[],"b":[],"type":[],"shape":[],"tensor":[],"func":[]}},"data_format":{"s":[78,72,87,67]},"use_cudnn_on_gpu":{"b":true},"padding":{"s":[86,65,76,73,68]}},"name":"generator_hayao/conv03_2/Conv2D","op":"Conv2D"},{"input":["generator_hayao/conv03_2/Conv2D","generator_hayao/conv03_2/bias"],"attr":{"T":{"type":1},"data_format":{"s":[78,72,87,67]}},"name":"generator_hayao/conv03_2/BiasAdd","op":"BiasAdd"},{"input":["generator_hayao/conv03_2/BiasAdd","generator_hayao/in11_1/moments/mean/reduction_indices"],"attr":{"Tidx":{"type":3},"keep_dims":{"b":true},"T":{"type":1}},"name":"generator_hayao/in03_1/moments/mean","op":"Mean"},{"input":["generator_hayao/conv03_2/BiasAdd","generator_hayao/in03_1/moments/mean"],"attr":{"T":{"type":1}},"name":"generator_hayao/in03_1/moments/SquaredDifference","op":"SquaredDifference"},{"input":["generator_hayao/in03_1/moments/SquaredDifference","generator_hayao/in11_1/moments/mean/reduction_indices"],"attr":{"Tidx":{"type":3},"keep_dims":{"b":true},"T":{"type":1}},"name":"generator_hayao/in03_1/moments/variance","op":"Mean"},{"input":["generator_hayao/in03_1/moments/variance","generator_hayao/in11_1/instancenorm/add/y"],"attr":{"T":{"type":1}},"name":"generator_hayao/in03_1/instancenorm/add","op":"Add"},{"input":["generator_hayao/in03_1/instancenorm/add"],"attr":{"T":{"type":1}},"name":"generator_hayao/in03_1/instancenorm/Rsqrt","op":"Rsqrt"},{"input":["generator_hayao/in03_1/instancenorm/Rsqrt","generator_hayao/in03_1/gamma"],"attr":{"T":{"type":1}},"name":"generator_hayao/in03_1/instancenorm/mul","op":"Mul"},{"input":["generator_hayao/conv03_2/BiasAdd","generator_hayao/in03_1/instancenorm/mul"],"attr":{"T":{"type":1}},"name":"generator_hayao/in03_1/instancenorm/mul_1","op":"Mul"},{"input":["generator_hayao/in03_1/moments/mean","generator_hayao/in03_1/instancenorm/mul"],"attr":{"T":{"type":1}},"name":"generator_hayao/in03_1/instancenorm/mul_2","op":"Mul"},{"input":["generator_hayao/in03_1/beta","generator_hayao/in03_1/instancenorm/mul_2"],"attr":{"T":{"type":1}},"name":"generator_hayao/in03_1/instancenorm/sub","op":"Sub"},{"input":["generator_hayao/in03_1/instancenorm/mul_1","generator_hayao/in03_1/instancenorm/sub"],"attr":{"T":{"type":1}},"name":"generator_hayao/in03_1/instancenorm/add_1","op":"Add"},{"input":["generator_hayao/in03_1/instancenorm/add_1"],"attr":{"T":{"type":1}},"name":"generator_hayao/Relu_2","op":"Relu"},{"input":["generator_hayao/Relu_2","generator_hayao/Pad_15/paddings"],"attr":{"T":{"type":1},"Tpaddings":{"type":3}},"name":"generator_hayao/Pad_1","op":"Pad"},{"input":["generator_hayao/Pad_1","generator_hayao/conv04_1/kernel"],"attr":{"padding":{"s":[86,65,76,73,68]},"dilations":{"list":{"s":[],"i":["1","1","1","1"],"f":[],"b":[],"type":[],"shape":[],"tensor":[],"func":[]}},"T":{"type":1},"strides":{"list":{"s":[],"i":["1","1","1","1"],"f":[],"b":[],"type":[],"shape":[],"tensor":[],"func":[]}},"data_format":{"s":[78,72,87,67]},"use_cudnn_on_gpu":{"b":true}},"name":"generator_hayao/conv04_1/Conv2D","op":"Conv2D"},{"input":["generator_hayao/conv04_1/Conv2D","generator_hayao/conv04_1/bias"],"attr":{"T":{"type":1},"data_format":{"s":[78,72,87,67]}},"name":"generator_hayao/conv04_1/BiasAdd","op":"BiasAdd"},{"input":["generator_hayao/conv04_1/BiasAdd","generator_hayao/in11_1/moments/mean/reduction_indices"],"attr":{"T":{"type":1},"Tidx":{"type":3},"keep_dims":{"b":true}},"name":"generator_hayao/in04_1/moments/mean","op":"Mean"},{"input":["generator_hayao/conv04_1/BiasAdd","generator_hayao/in04_1/moments/mean"],"attr":{"T":{"type":1}},"name":"generator_hayao/in04_1/moments/SquaredDifference","op":"SquaredDifference"},{"input":["generator_hayao/in04_1/moments/SquaredDifference","generator_hayao/in11_1/moments/mean/reduction_indices"],"attr":{"Tidx":{"type":3},"keep_dims":{"b":true},"T":{"type":1}},"name":"generator_hayao/in04_1/moments/variance","op":"Mean"},{"input":["generator_hayao/in04_1/moments/variance","generator_hayao/in11_1/instancenorm/add/y"],"attr":{"T":{"type":1}},"name":"generator_hayao/in04_1/instancenorm/add","op":"Add"},{"input":["generator_hayao/in04_1/instancenorm/add"],"attr":{"T":{"type":1}},"name":"generator_hayao/in04_1/instancenorm/Rsqrt","op":"Rsqrt"},{"input":["generator_hayao/in04_1/instancenorm/Rsqrt","generator_hayao/in04_1/gamma"],"attr":{"T":{"type":1}},"name":"generator_hayao/in04_1/instancenorm/mul","op":"Mul"},{"input":["generator_hayao/conv04_1/BiasAdd","generator_hayao/in04_1/instancenorm/mul"],"attr":{"T":{"type":1}},"name":"generator_hayao/in04_1/instancenorm/mul_1","op":"Mul"},{"input":["generator_hayao/in04_1/moments/mean","generator_hayao/in04_1/instancenorm/mul"],"attr":{"T":{"type":1}},"name":"generator_hayao/in04_1/instancenorm/mul_2","op":"Mul"},{"input":["generator_hayao/in04_1/beta","generator_hayao/in04_1/instancenorm/mul_2"],"attr":{"T":{"type":1}},"name":"generator_hayao/in04_1/instancenorm/sub","op":"Sub"},{"input":["generator_hayao/in04_1/instancenorm/mul_1","generator_hayao/in04_1/instancenorm/sub"],"attr":{"T":{"type":1}},"name":"generator_hayao/in04_1/instancenorm/add_1","op":"Add"},{"input":["generator_hayao/in04_1/instancenorm/add_1"],"attr":{"T":{"type":1}},"name":"generator_hayao/Relu_3","op":"Relu"},{"input":["generator_hayao/Relu_3","generator_hayao/Pad_15/paddings"],"attr":{"Tpaddings":{"type":3},"T":{"type":1}},"name":"generator_hayao/Pad_2","op":"Pad"},{"input":["generator_hayao/Pad_2","generator_hayao/conv04_2/kernel"],"attr":{"dilations":{"list":{"s":[],"i":["1","1","1","1"],"f":[],"b":[],"type":[],"shape":[],"tensor":[],"func":[]}},"T":{"type":1},"data_format":{"s":[78,72,87,67]},"strides":{"list":{"s":[],"i":["1","1","1","1"],"f":[],"b":[],"type":[],"shape":[],"tensor":[],"func":[]}},"use_cudnn_on_gpu":{"b":true},"padding":{"s":[86,65,76,73,68]}},"name":"generator_hayao/conv04_2/Conv2D","op":"Conv2D"},{"input":["generator_hayao/conv04_2/Conv2D","generator_hayao/conv04_2/bias"],"attr":{"T":{"type":1},"data_format":{"s":[78,72,87,67]}},"name":"generator_hayao/conv04_2/BiasAdd","op":"BiasAdd"},{"input":["generator_hayao/conv04_2/BiasAdd","generator_hayao/in11_1/moments/mean/reduction_indices"],"attr":{"T":{"type":1},"Tidx":{"type":3},"keep_dims":{"b":true}},"name":"generator_hayao/in04_2/moments/mean","op":"Mean"},{"input":["generator_hayao/conv04_2/BiasAdd","generator_hayao/in04_2/moments/mean"],"attr":{"T":{"type":1}},"name":"generator_hayao/in04_2/moments/SquaredDifference","op":"SquaredDifference"},{"input":["generator_hayao/in04_2/moments/SquaredDifference","generator_hayao/in11_1/moments/mean/reduction_indices"],"attr":{"Tidx":{"type":3},"keep_dims":{"b":true},"T":{"type":1}},"name":"generator_hayao/in04_2/moments/variance","op":"Mean"},{"input":["generator_hayao/in04_2/moments/variance","generator_hayao/in11_1/instancenorm/add/y"],"attr":{"T":{"type":1}},"name":"generator_hayao/in04_2/instancenorm/add","op":"Add"},{"input":["generator_hayao/in04_2/instancenorm/add"],"attr":{"T":{"type":1}},"name":"generator_hayao/in04_2/instancenorm/Rsqrt","op":"Rsqrt"},{"input":["generator_hayao/in04_2/instancenorm/Rsqrt","generator_hayao/in04_2/gamma"],"attr":{"T":{"type":1}},"name":"generator_hayao/in04_2/instancenorm/mul","op":"Mul"},{"input":["generator_hayao/conv04_2/BiasAdd","generator_hayao/in04_2/instancenorm/mul"],"attr":{"T":{"type":1}},"name":"generator_hayao/in04_2/instancenorm/mul_1","op":"Mul"},{"input":["generator_hayao/in04_2/moments/mean","generator_hayao/in04_2/instancenorm/mul"],"attr":{"T":{"type":1}},"name":"generator_hayao/in04_2/instancenorm/mul_2","op":"Mul"},{"input":["generator_hayao/in04_2/beta","generator_hayao/in04_2/instancenorm/mul_2"],"attr":{"T":{"type":1}},"name":"generator_hayao/in04_2/instancenorm/sub","op":"Sub"},{"input":["generator_hayao/in04_2/instancenorm/mul_1","generator_hayao/in04_2/instancenorm/sub"],"attr":{"T":{"type":1}},"name":"generator_hayao/in04_2/instancenorm/add_1","op":"Add"},{"input":["generator_hayao/in04_2/instancenorm/add_1","generator_hayao/Relu_2"],"attr":{"T":{"type":1}},"name":"generator_hayao/add","op":"Add"},{"input":["generator_hayao/add","generator_hayao/Pad_15/paddings"],"attr":{"T":{"type":1},"Tpaddings":{"type":3}},"name":"generator_hayao/Pad_3","op":"Pad"},{"input":["generator_hayao/Pad_3","generator_hayao/conv05_1/kernel"],"attr":{"padding":{"s":[86,65,76,73,68]},"dilations":{"list":{"s":[],"i":["1","1","1","1"],"f":[],"b":[],"type":[],"shape":[],"tensor":[],"func":[]}},"T":{"type":1},"strides":{"list":{"s":[],"i":["1","1","1","1"],"f":[],"b":[],"type":[],"shape":[],"tensor":[],"func":[]}},"data_format":{"s":[78,72,87,67]},"use_cudnn_on_gpu":{"b":true}},"name":"generator_hayao/conv05_1/Conv2D","op":"Conv2D"},{"input":["generator_hayao/conv05_1/Conv2D","generator_hayao/conv05_1/bias"],"attr":{"T":{"type":1},"data_format":{"s":[78,72,87,67]}},"name":"generator_hayao/conv05_1/BiasAdd","op":"BiasAdd"},{"input":["generator_hayao/conv05_1/BiasAdd","generator_hayao/in11_1/moments/mean/reduction_indices"],"attr":{"Tidx":{"type":3},"keep_dims":{"b":true},"T":{"type":1}},"name":"generator_hayao/in05_1/moments/mean","op":"Mean"},{"input":["generator_hayao/conv05_1/BiasAdd","generator_hayao/in05_1/moments/mean"],"attr":{"T":{"type":1}},"name":"generator_hayao/in05_1/moments/SquaredDifference","op":"SquaredDifference"},{"input":["generator_hayao/in05_1/moments/SquaredDifference","generator_hayao/in11_1/moments/mean/reduction_indices"],"attr":{"Tidx":{"type":3},"keep_dims":{"b":true},"T":{"type":1}},"name":"generator_hayao/in05_1/moments/variance","op":"Mean"},{"input":["generator_hayao/in05_1/moments/variance","generator_hayao/in11_1/instancenorm/add/y"],"attr":{"T":{"type":1}},"name":"generator_hayao/in05_1/instancenorm/add","op":"Add"},{"input":["generator_hayao/in05_1/instancenorm/add"],"attr":{"T":{"type":1}},"name":"generator_hayao/in05_1/instancenorm/Rsqrt","op":"Rsqrt"},{"input":["generator_hayao/in05_1/instancenorm/Rsqrt","generator_hayao/in05_1/gamma"],"attr":{"T":{"type":1}},"name":"generator_hayao/in05_1/instancenorm/mul","op":"Mul"},{"input":["generator_hayao/conv05_1/BiasAdd","generator_hayao/in05_1/instancenorm/mul"],"attr":{"T":{"type":1}},"name":"generator_hayao/in05_1/instancenorm/mul_1","op":"Mul"},{"input":["generator_hayao/in05_1/moments/mean","generator_hayao/in05_1/instancenorm/mul"],"attr":{"T":{"type":1}},"name":"generator_hayao/in05_1/instancenorm/mul_2","op":"Mul"},{"input":["generator_hayao/in05_1/beta","generator_hayao/in05_1/instancenorm/mul_2"],"attr":{"T":{"type":1}},"name":"generator_hayao/in05_1/instancenorm/sub","op":"Sub"},{"input":["generator_hayao/in05_1/instancenorm/mul_1","generator_hayao/in05_1/instancenorm/sub"],"attr":{"T":{"type":1}},"name":"generator_hayao/in05_1/instancenorm/add_1","op":"Add"},{"input":["generator_hayao/in05_1/instancenorm/add_1"],"attr":{"T":{"type":1}},"name":"generator_hayao/Relu_4","op":"Relu"},{"input":["generator_hayao/Relu_4","generator_hayao/Pad_15/paddings"],"attr":{"Tpaddings":{"type":3},"T":{"type":1}},"name":"generator_hayao/Pad_4","op":"Pad"},{"input":["generator_hayao/Pad_4","generator_hayao/conv05_2/kernel"],"attr":{"dilations":{"list":{"s":[],"i":["1","1","1","1"],"f":[],"b":[],"type":[],"shape":[],"tensor":[],"func":[]}},"T":{"type":1},"data_format":{"s":[78,72,87,67]},"strides":{"list":{"s":[],"i":["1","1","1","1"],"f":[],"b":[],"type":[],"shape":[],"tensor":[],"func":[]}},"use_cudnn_on_gpu":{"b":true},"padding":{"s":[86,65,76,73,68]}},"name":"generator_hayao/conv05_2/Conv2D","op":"Conv2D"},{"input":["generator_hayao/conv05_2/Conv2D","generator_hayao/conv05_2/bias"],"attr":{"T":{"type":1},"data_format":{"s":[78,72,87,67]}},"name":"generator_hayao/conv05_2/BiasAdd","op":"BiasAdd"},{"input":["generator_hayao/conv05_2/BiasAdd","generator_hayao/in11_1/moments/mean/reduction_indices"],"attr":{"Tidx":{"type":3},"keep_dims":{"b":true},"T":{"type":1}},"name":"generator_hayao/in05_2/moments/mean","op":"Mean"},{"input":["generator_hayao/conv05_2/BiasAdd","generator_hayao/in05_2/moments/mean"],"attr":{"T":{"type":1}},"name":"generator_hayao/in05_2/moments/SquaredDifference","op":"SquaredDifference"},{"input":["generator_hayao/in05_2/moments/SquaredDifference","generator_hayao/in11_1/moments/mean/reduction_indices"],"attr":{"Tidx":{"type":3},"keep_dims":{"b":true},"T":{"type":1}},"name":"generator_hayao/in05_2/moments/variance","op":"Mean"},{"input":["generator_hayao/in05_2/moments/variance","generator_hayao/in11_1/instancenorm/add/y"],"attr":{"T":{"type":1}},"name":"generator_hayao/in05_2/instancenorm/add","op":"Add"},{"input":["generator_hayao/in05_2/instancenorm/add"],"attr":{"T":{"type":1}},"name":"generator_hayao/in05_2/instancenorm/Rsqrt","op":"Rsqrt"},{"input":["generator_hayao/in05_2/instancenorm/Rsqrt","generator_hayao/in05_2/gamma"],"attr":{"T":{"type":1}},"name":"generator_hayao/in05_2/instancenorm/mul","op":"Mul"},{"input":["generator_hayao/conv05_2/BiasAdd","generator_hayao/in05_2/instancenorm/mul"],"attr":{"T":{"type":1}},"name":"generator_hayao/in05_2/instancenorm/mul_1","op":"Mul"},{"input":["generator_hayao/in05_2/moments/mean","generator_hayao/in05_2/instancenorm/mul"],"attr":{"T":{"type":1}},"name":"generator_hayao/in05_2/instancenorm/mul_2","op":"Mul"},{"input":["generator_hayao/in05_2/beta","generator_hayao/in05_2/instancenorm/mul_2"],"attr":{"T":{"type":1}},"name":"generator_hayao/in05_2/instancenorm/sub","op":"Sub"},{"input":["generator_hayao/in05_2/instancenorm/mul_1","generator_hayao/in05_2/instancenorm/sub"],"attr":{"T":{"type":1}},"name":"generator_hayao/in05_2/instancenorm/add_1","op":"Add"},{"input":["generator_hayao/in05_2/instancenorm/add_1","generator_hayao/add"],"attr":{"T":{"type":1}},"name":"generator_hayao/add_1","op":"Add"},{"input":["generator_hayao/add_1","generator_hayao/Pad_15/paddings"],"attr":{"T":{"type":1},"Tpaddings":{"type":3}},"name":"generator_hayao/Pad_5","op":"Pad"},{"input":["generator_hayao/Pad_5","generator_hayao/conv06_1/kernel"],"attr":{"data_format":{"s":[78,72,87,67]},"strides":{"list":{"s":[],"i":["1","1","1","1"],"f":[],"b":[],"type":[],"shape":[],"tensor":[],"func":[]}},"use_cudnn_on_gpu":{"b":true},"padding":{"s":[86,65,76,73,68]},"dilations":{"list":{"s":[],"i":["1","1","1","1"],"f":[],"b":[],"type":[],"shape":[],"tensor":[],"func":[]}},"T":{"type":1}},"name":"generator_hayao/conv06_1/Conv2D","op":"Conv2D"},{"input":["generator_hayao/conv06_1/Conv2D","generator_hayao/conv06_1/bias"],"attr":{"T":{"type":1},"data_format":{"s":[78,72,87,67]}},"name":"generator_hayao/conv06_1/BiasAdd","op":"BiasAdd"},{"input":["generator_hayao/conv06_1/BiasAdd","generator_hayao/in11_1/moments/mean/reduction_indices"],"attr":{"Tidx":{"type":3},"keep_dims":{"b":true},"T":{"type":1}},"name":"generator_hayao/in06_1/moments/mean","op":"Mean"},{"input":["generator_hayao/conv06_1/BiasAdd","generator_hayao/in06_1/moments/mean"],"attr":{"T":{"type":1}},"name":"generator_hayao/in06_1/moments/SquaredDifference","op":"SquaredDifference"},{"input":["generator_hayao/in06_1/moments/SquaredDifference","generator_hayao/in11_1/moments/mean/reduction_indices"],"attr":{"T":{"type":1},"Tidx":{"type":3},"keep_dims":{"b":true}},"name":"generator_hayao/in06_1/moments/variance","op":"Mean"},{"input":["generator_hayao/in06_1/moments/variance","generator_hayao/in11_1/instancenorm/add/y"],"attr":{"T":{"type":1}},"name":"generator_hayao/in06_1/instancenorm/add","op":"Add"},{"input":["generator_hayao/in06_1/instancenorm/add"],"attr":{"T":{"type":1}},"name":"generator_hayao/in06_1/instancenorm/Rsqrt","op":"Rsqrt"},{"input":["generator_hayao/in06_1/instancenorm/Rsqrt","generator_hayao/in06_1/gamma"],"attr":{"T":{"type":1}},"name":"generator_hayao/in06_1/instancenorm/mul","op":"Mul"},{"input":["generator_hayao/conv06_1/BiasAdd","generator_hayao/in06_1/instancenorm/mul"],"attr":{"T":{"type":1}},"name":"generator_hayao/in06_1/instancenorm/mul_1","op":"Mul"},{"input":["generator_hayao/in06_1/moments/mean","generator_hayao/in06_1/instancenorm/mul"],"attr":{"T":{"type":1}},"name":"generator_hayao/in06_1/instancenorm/mul_2","op":"Mul"},{"input":["generator_hayao/in06_1/beta","generator_hayao/in06_1/instancenorm/mul_2"],"attr":{"T":{"type":1}},"name":"generator_hayao/in06_1/instancenorm/sub","op":"Sub"},{"input":["generator_hayao/in06_1/instancenorm/mul_1","generator_hayao/in06_1/instancenorm/sub"],"attr":{"T":{"type":1}},"name":"generator_hayao/in06_1/instancenorm/add_1","op":"Add"},{"input":["generator_hayao/in06_1/instancenorm/add_1"],"attr":{"T":{"type":1}},"name":"generator_hayao/Relu_5","op":"Relu"},{"input":["generator_hayao/Relu_5","generator_hayao/Pad_15/paddings"],"attr":{"T":{"type":1},"Tpaddings":{"type":3}},"name":"generator_hayao/Pad_6","op":"Pad"},{"input":["generator_hayao/Pad_6","generator_hayao/conv06_2/kernel"],"attr":{"dilations":{"list":{"s":[],"i":["1","1","1","1"],"f":[],"b":[],"type":[],"shape":[],"tensor":[],"func":[]}},"T":{"type":1},"data_format":{"s":[78,72,87,67]},"strides":{"list":{"s":[],"i":["1","1","1","1"],"f":[],"b":[],"type":[],"shape":[],"tensor":[],"func":[]}},"use_cudnn_on_gpu":{"b":true},"padding":{"s":[86,65,76,73,68]}},"name":"generator_hayao/conv06_2/Conv2D","op":"Conv2D"},{"input":["generator_hayao/conv06_2/Conv2D","generator_hayao/conv06_2/bias"],"attr":{"T":{"type":1},"data_format":{"s":[78,72,87,67]}},"name":"generator_hayao/conv06_2/BiasAdd","op":"BiasAdd"},{"input":["generator_hayao/conv06_2/BiasAdd","generator_hayao/in11_1/moments/mean/reduction_indices"],"attr":{"T":{"type":1},"Tidx":{"type":3},"keep_dims":{"b":true}},"name":"generator_hayao/in06_2/moments/mean","op":"Mean"},{"input":["generator_hayao/conv06_2/BiasAdd","generator_hayao/in06_2/moments/mean"],"attr":{"T":{"type":1}},"name":"generator_hayao/in06_2/moments/SquaredDifference","op":"SquaredDifference"},{"input":["generator_hayao/in06_2/moments/SquaredDifference","generator_hayao/in11_1/moments/mean/reduction_indices"],"attr":{"Tidx":{"type":3},"keep_dims":{"b":true},"T":{"type":1}},"name":"generator_hayao/in06_2/moments/variance","op":"Mean"},{"input":["generator_hayao/in06_2/moments/variance","generator_hayao/in11_1/instancenorm/add/y"],"attr":{"T":{"type":1}},"name":"generator_hayao/in06_2/instancenorm/add","op":"Add"},{"input":["generator_hayao/in06_2/instancenorm/add"],"attr":{"T":{"type":1}},"name":"generator_hayao/in06_2/instancenorm/Rsqrt","op":"Rsqrt"},{"input":["generator_hayao/in06_2/instancenorm/Rsqrt","generator_hayao/in06_2/gamma"],"attr":{"T":{"type":1}},"name":"generator_hayao/in06_2/instancenorm/mul","op":"Mul"},{"input":["generator_hayao/conv06_2/BiasAdd","generator_hayao/in06_2/instancenorm/mul"],"attr":{"T":{"type":1}},"name":"generator_hayao/in06_2/instancenorm/mul_1","op":"Mul"},{"input":["generator_hayao/in06_2/moments/mean","generator_hayao/in06_2/instancenorm/mul"],"attr":{"T":{"type":1}},"name":"generator_hayao/in06_2/instancenorm/mul_2","op":"Mul"},{"input":["generator_hayao/in06_2/beta","generator_hayao/in06_2/instancenorm/mul_2"],"attr":{"T":{"type":1}},"name":"generator_hayao/in06_2/instancenorm/sub","op":"Sub"},{"input":["generator_hayao/in06_2/instancenorm/mul_1","generator_hayao/in06_2/instancenorm/sub"],"attr":{"T":{"type":1}},"name":"generator_hayao/in06_2/instancenorm/add_1","op":"Add"},{"input":["generator_hayao/in06_2/instancenorm/add_1","generator_hayao/add_1"],"attr":{"T":{"type":1}},"name":"generator_hayao/add_2","op":"Add"},{"input":["generator_hayao/add_2","generator_hayao/Pad_15/paddings"],"attr":{"T":{"type":1},"Tpaddings":{"type":3}},"name":"generator_hayao/Pad_7","op":"Pad"},{"input":["generator_hayao/Pad_7","generator_hayao/conv07_1/kernel"],"attr":{"dilations":{"list":{"s":[],"i":["1","1","1","1"],"f":[],"b":[],"type":[],"shape":[],"tensor":[],"func":[]}},"T":{"type":1},"data_format":{"s":[78,72,87,67]},"strides":{"list":{"s":[],"i":["1","1","1","1"],"f":[],"b":[],"type":[],"shape":[],"tensor":[],"func":[]}},"use_cudnn_on_gpu":{"b":true},"padding":{"s":[86,65,76,73,68]}},"name":"generator_hayao/conv07_1/Conv2D","op":"Conv2D"},{"input":["generator_hayao/conv07_1/Conv2D","generator_hayao/conv07_1/bias"],"attr":{"T":{"type":1},"data_format":{"s":[78,72,87,67]}},"name":"generator_hayao/conv07_1/BiasAdd","op":"BiasAdd"},{"input":["generator_hayao/conv07_1/BiasAdd","generator_hayao/in11_1/moments/mean/reduction_indices"],"attr":{"Tidx":{"type":3},"keep_dims":{"b":true},"T":{"type":1}},"name":"generator_hayao/in07_1/moments/mean","op":"Mean"},{"input":["generator_hayao/conv07_1/BiasAdd","generator_hayao/in07_1/moments/mean"],"attr":{"T":{"type":1}},"name":"generator_hayao/in07_1/moments/SquaredDifference","op":"SquaredDifference"},{"input":["generator_hayao/in07_1/moments/SquaredDifference","generator_hayao/in11_1/moments/mean/reduction_indices"],"attr":{"Tidx":{"type":3},"keep_dims":{"b":true},"T":{"type":1}},"name":"generator_hayao/in07_1/moments/variance","op":"Mean"},{"input":["generator_hayao/in07_1/moments/variance","generator_hayao/in11_1/instancenorm/add/y"],"attr":{"T":{"type":1}},"name":"generator_hayao/in07_1/instancenorm/add","op":"Add"},{"input":["generator_hayao/in07_1/instancenorm/add"],"attr":{"T":{"type":1}},"name":"generator_hayao/in07_1/instancenorm/Rsqrt","op":"Rsqrt"},{"input":["generator_hayao/in07_1/instancenorm/Rsqrt","generator_hayao/in07_1/gamma"],"attr":{"T":{"type":1}},"name":"generator_hayao/in07_1/instancenorm/mul","op":"Mul"},{"input":["generator_hayao/conv07_1/BiasAdd","generator_hayao/in07_1/instancenorm/mul"],"attr":{"T":{"type":1}},"name":"generator_hayao/in07_1/instancenorm/mul_1","op":"Mul"},{"input":["generator_hayao/in07_1/moments/mean","generator_hayao/in07_1/instancenorm/mul"],"attr":{"T":{"type":1}},"name":"generator_hayao/in07_1/instancenorm/mul_2","op":"Mul"},{"input":["generator_hayao/in07_1/beta","generator_hayao/in07_1/instancenorm/mul_2"],"attr":{"T":{"type":1}},"name":"generator_hayao/in07_1/instancenorm/sub","op":"Sub"},{"input":["generator_hayao/in07_1/instancenorm/mul_1","generator_hayao/in07_1/instancenorm/sub"],"attr":{"T":{"type":1}},"name":"generator_hayao/in07_1/instancenorm/add_1","op":"Add"},{"input":["generator_hayao/in07_1/instancenorm/add_1"],"attr":{"T":{"type":1}},"name":"generator_hayao/Relu_6","op":"Relu"},{"input":["generator_hayao/Relu_6","generator_hayao/Pad_15/paddings"],"attr":{"Tpaddings":{"type":3},"T":{"type":1}},"name":"generator_hayao/Pad_8","op":"Pad"},{"input":["generator_hayao/Pad_8","generator_hayao/conv07_2/kernel"],"attr":{"dilations":{"list":{"s":[],"i":["1","1","1","1"],"f":[],"b":[],"type":[],"shape":[],"tensor":[],"func":[]}},"T":{"type":1},"data_format":{"s":[78,72,87,67]},"strides":{"list":{"s":[],"i":["1","1","1","1"],"f":[],"b":[],"type":[],"shape":[],"tensor":[],"func":[]}},"use_cudnn_on_gpu":{"b":true},"padding":{"s":[86,65,76,73,68]}},"name":"generator_hayao/conv07_2/Conv2D","op":"Conv2D"},{"input":["generator_hayao/conv07_2/Conv2D","generator_hayao/conv07_2/bias"],"attr":{"data_format":{"s":[78,72,87,67]},"T":{"type":1}},"name":"generator_hayao/conv07_2/BiasAdd","op":"BiasAdd"},{"input":["generator_hayao/conv07_2/BiasAdd","generator_hayao/in11_1/moments/mean/reduction_indices"],"attr":{"Tidx":{"type":3},"keep_dims":{"b":true},"T":{"type":1}},"name":"generator_hayao/in07_2/moments/mean","op":"Mean"},{"input":["generator_hayao/conv07_2/BiasAdd","generator_hayao/in07_2/moments/mean"],"attr":{"T":{"type":1}},"name":"generator_hayao/in07_2/moments/SquaredDifference","op":"SquaredDifference"},{"input":["generator_hayao/in07_2/moments/SquaredDifference","generator_hayao/in11_1/moments/mean/reduction_indices"],"attr":{"Tidx":{"type":3},"keep_dims":{"b":true},"T":{"type":1}},"name":"generator_hayao/in07_2/moments/variance","op":"Mean"},{"input":["generator_hayao/in07_2/moments/variance","generator_hayao/in11_1/instancenorm/add/y"],"attr":{"T":{"type":1}},"name":"generator_hayao/in07_2/instancenorm/add","op":"Add"},{"input":["generator_hayao/in07_2/instancenorm/add"],"attr":{"T":{"type":1}},"name":"generator_hayao/in07_2/instancenorm/Rsqrt","op":"Rsqrt"},{"input":["generator_hayao/in07_2/instancenorm/Rsqrt","generator_hayao/in07_2/gamma"],"attr":{"T":{"type":1}},"name":"generator_hayao/in07_2/instancenorm/mul","op":"Mul"},{"input":["generator_hayao/conv07_2/BiasAdd","generator_hayao/in07_2/instancenorm/mul"],"attr":{"T":{"type":1}},"name":"generator_hayao/in07_2/instancenorm/mul_1","op":"Mul"},{"input":["generator_hayao/in07_2/moments/mean","generator_hayao/in07_2/instancenorm/mul"],"attr":{"T":{"type":1}},"name":"generator_hayao/in07_2/instancenorm/mul_2","op":"Mul"},{"input":["generator_hayao/in07_2/beta","generator_hayao/in07_2/instancenorm/mul_2"],"attr":{"T":{"type":1}},"name":"generator_hayao/in07_2/instancenorm/sub","op":"Sub"},{"input":["generator_hayao/in07_2/instancenorm/mul_1","generator_hayao/in07_2/instancenorm/sub"],"attr":{"T":{"type":1}},"name":"generator_hayao/in07_2/instancenorm/add_1","op":"Add"},{"input":["generator_hayao/in07_2/instancenorm/add_1","generator_hayao/add_2"],"attr":{"T":{"type":1}},"name":"generator_hayao/add_3","op":"Add"},{"input":["generator_hayao/add_3","generator_hayao/Pad_15/paddings"],"attr":{"Tpaddings":{"type":3},"T":{"type":1}},"name":"generator_hayao/Pad_9","op":"Pad"},{"input":["generator_hayao/Pad_9","generator_hayao/conv08_1/kernel"],"attr":{"dilations":{"list":{"s":[],"i":["1","1","1","1"],"f":[],"b":[],"type":[],"shape":[],"tensor":[],"func":[]}},"T":{"type":1},"strides":{"list":{"s":[],"i":["1","1","1","1"],"f":[],"b":[],"type":[],"shape":[],"tensor":[],"func":[]}},"data_format":{"s":[78,72,87,67]},"use_cudnn_on_gpu":{"b":true},"padding":{"s":[86,65,76,73,68]}},"name":"generator_hayao/conv08_1/Conv2D","op":"Conv2D"},{"input":["generator_hayao/conv08_1/Conv2D","generator_hayao/conv08_1/bias"],"attr":{"data_format":{"s":[78,72,87,67]},"T":{"type":1}},"name":"generator_hayao/conv08_1/BiasAdd","op":"BiasAdd"},{"input":["generator_hayao/conv08_1/BiasAdd","generator_hayao/in11_1/moments/mean/reduction_indices"],"attr":{"T":{"type":1},"Tidx":{"type":3},"keep_dims":{"b":true}},"name":"generator_hayao/in08_1/moments/mean","op":"Mean"},{"input":["generator_hayao/conv08_1/BiasAdd","generator_hayao/in08_1/moments/mean"],"attr":{"T":{"type":1}},"name":"generator_hayao/in08_1/moments/SquaredDifference","op":"SquaredDifference"},{"input":["generator_hayao/in08_1/moments/SquaredDifference","generator_hayao/in11_1/moments/mean/reduction_indices"],"attr":{"T":{"type":1},"Tidx":{"type":3},"keep_dims":{"b":true}},"name":"generator_hayao/in08_1/moments/variance","op":"Mean"},{"input":["generator_hayao/in08_1/moments/variance","generator_hayao/in11_1/instancenorm/add/y"],"attr":{"T":{"type":1}},"name":"generator_hayao/in08_1/instancenorm/add","op":"Add"},{"input":["generator_hayao/in08_1/instancenorm/add"],"attr":{"T":{"type":1}},"name":"generator_hayao/in08_1/instancenorm/Rsqrt","op":"Rsqrt"},{"input":["generator_hayao/in08_1/instancenorm/Rsqrt","generator_hayao/in08_1/gamma"],"attr":{"T":{"type":1}},"name":"generator_hayao/in08_1/instancenorm/mul","op":"Mul"},{"input":["generator_hayao/conv08_1/BiasAdd","generator_hayao/in08_1/instancenorm/mul"],"attr":{"T":{"type":1}},"name":"generator_hayao/in08_1/instancenorm/mul_1","op":"Mul"},{"input":["generator_hayao/in08_1/moments/mean","generator_hayao/in08_1/instancenorm/mul"],"attr":{"T":{"type":1}},"name":"generator_hayao/in08_1/instancenorm/mul_2","op":"Mul"},{"input":["generator_hayao/in08_1/beta","generator_hayao/in08_1/instancenorm/mul_2"],"attr":{"T":{"type":1}},"name":"generator_hayao/in08_1/instancenorm/sub","op":"Sub"},{"input":["generator_hayao/in08_1/instancenorm/mul_1","generator_hayao/in08_1/instancenorm/sub"],"attr":{"T":{"type":1}},"name":"generator_hayao/in08_1/instancenorm/add_1","op":"Add"},{"input":["generator_hayao/in08_1/instancenorm/add_1"],"attr":{"T":{"type":1}},"name":"generator_hayao/Relu_7","op":"Relu"},{"input":["generator_hayao/Relu_7","generator_hayao/Pad_15/paddings"],"attr":{"T":{"type":1},"Tpaddings":{"type":3}},"name":"generator_hayao/Pad_10","op":"Pad"},{"input":["generator_hayao/Pad_10","generator_hayao/conv08_2/kernel"],"attr":{"dilations":{"list":{"s":[],"i":["1","1","1","1"],"f":[],"b":[],"type":[],"shape":[],"tensor":[],"func":[]}},"T":{"type":1},"strides":{"list":{"s":[],"i":["1","1","1","1"],"f":[],"b":[],"type":[],"shape":[],"tensor":[],"func":[]}},"data_format":{"s":[78,72,87,67]},"use_cudnn_on_gpu":{"b":true},"padding":{"s":[86,65,76,73,68]}},"name":"generator_hayao/conv08_2/Conv2D","op":"Conv2D"},{"input":["generator_hayao/conv08_2/Conv2D","generator_hayao/conv08_2/bias"],"attr":{"T":{"type":1},"data_format":{"s":[78,72,87,67]}},"name":"generator_hayao/conv08_2/BiasAdd","op":"BiasAdd"},{"input":["generator_hayao/conv08_2/BiasAdd","generator_hayao/in11_1/moments/mean/reduction_indices"],"attr":{"Tidx":{"type":3},"keep_dims":{"b":true},"T":{"type":1}},"name":"generator_hayao/in08_2/moments/mean","op":"Mean"},{"input":["generator_hayao/conv08_2/BiasAdd","generator_hayao/in08_2/moments/mean"],"attr":{"T":{"type":1}},"name":"generator_hayao/in08_2/moments/SquaredDifference","op":"SquaredDifference"},{"input":["generator_hayao/in08_2/moments/SquaredDifference","generator_hayao/in11_1/moments/mean/reduction_indices"],"attr":{"T":{"type":1},"Tidx":{"type":3},"keep_dims":{"b":true}},"name":"generator_hayao/in08_2/moments/variance","op":"Mean"},{"input":["generator_hayao/in08_2/moments/variance","generator_hayao/in11_1/instancenorm/add/y"],"attr":{"T":{"type":1}},"name":"generator_hayao/in08_2/instancenorm/add","op":"Add"},{"input":["generator_hayao/in08_2/instancenorm/add"],"attr":{"T":{"type":1}},"name":"generator_hayao/in08_2/instancenorm/Rsqrt","op":"Rsqrt"},{"input":["generator_hayao/in08_2/instancenorm/Rsqrt","generator_hayao/in08_2/gamma"],"attr":{"T":{"type":1}},"name":"generator_hayao/in08_2/instancenorm/mul","op":"Mul"},{"input":["generator_hayao/conv08_2/BiasAdd","generator_hayao/in08_2/instancenorm/mul"],"attr":{"T":{"type":1}},"name":"generator_hayao/in08_2/instancenorm/mul_1","op":"Mul"},{"input":["generator_hayao/in08_2/moments/mean","generator_hayao/in08_2/instancenorm/mul"],"attr":{"T":{"type":1}},"name":"generator_hayao/in08_2/instancenorm/mul_2","op":"Mul"},{"input":["generator_hayao/in08_2/beta","generator_hayao/in08_2/instancenorm/mul_2"],"attr":{"T":{"type":1}},"name":"generator_hayao/in08_2/instancenorm/sub","op":"Sub"},{"input":["generator_hayao/in08_2/instancenorm/mul_1","generator_hayao/in08_2/instancenorm/sub"],"attr":{"T":{"type":1}},"name":"generator_hayao/in08_2/instancenorm/add_1","op":"Add"},{"input":["generator_hayao/in08_2/instancenorm/add_1","generator_hayao/add_3"],"attr":{"T":{"type":1}},"name":"generator_hayao/add_4","op":"Add"},{"input":["generator_hayao/add_4","generator_hayao/Pad_15/paddings"],"attr":{"T":{"type":1},"Tpaddings":{"type":3}},"name":"generator_hayao/Pad_11","op":"Pad"},{"input":["generator_hayao/Pad_11","generator_hayao/conv09_1/kernel"],"attr":{"padding":{"s":[86,65,76,73,68]},"dilations":{"list":{"s":[],"i":["1","1","1","1"],"f":[],"b":[],"type":[],"shape":[],"tensor":[],"func":[]}},"T":{"type":1},"data_format":{"s":[78,72,87,67]},"strides":{"list":{"s":[],"i":["1","1","1","1"],"f":[],"b":[],"type":[],"shape":[],"tensor":[],"func":[]}},"use_cudnn_on_gpu":{"b":true}},"name":"generator_hayao/conv09_1/Conv2D","op":"Conv2D"},{"input":["generator_hayao/conv09_1/Conv2D","generator_hayao/conv09_1/bias"],"attr":{"T":{"type":1},"data_format":{"s":[78,72,87,67]}},"name":"generator_hayao/conv09_1/BiasAdd","op":"BiasAdd"},{"input":["generator_hayao/conv09_1/BiasAdd","generator_hayao/in11_1/moments/mean/reduction_indices"],"attr":{"T":{"type":1},"Tidx":{"type":3},"keep_dims":{"b":true}},"name":"generator_hayao/in09_1/moments/mean","op":"Mean"},{"input":["generator_hayao/conv09_1/BiasAdd","generator_hayao/in09_1/moments/mean"],"attr":{"T":{"type":1}},"name":"generator_hayao/in09_1/moments/SquaredDifference","op":"SquaredDifference"},{"input":["generator_hayao/in09_1/moments/SquaredDifference","generator_hayao/in11_1/moments/mean/reduction_indices"],"attr":{"Tidx":{"type":3},"keep_dims":{"b":true},"T":{"type":1}},"name":"generator_hayao/in09_1/moments/variance","op":"Mean"},{"input":["generator_hayao/in09_1/moments/variance","generator_hayao/in11_1/instancenorm/add/y"],"attr":{"T":{"type":1}},"name":"generator_hayao/in09_1/instancenorm/add","op":"Add"},{"input":["generator_hayao/in09_1/instancenorm/add"],"attr":{"T":{"type":1}},"name":"generator_hayao/in09_1/instancenorm/Rsqrt","op":"Rsqrt"},{"input":["generator_hayao/in09_1/instancenorm/Rsqrt","generator_hayao/in09_1/gamma"],"attr":{"T":{"type":1}},"name":"generator_hayao/in09_1/instancenorm/mul","op":"Mul"},{"input":["generator_hayao/conv09_1/BiasAdd","generator_hayao/in09_1/instancenorm/mul"],"attr":{"T":{"type":1}},"name":"generator_hayao/in09_1/instancenorm/mul_1","op":"Mul"},{"input":["generator_hayao/in09_1/moments/mean","generator_hayao/in09_1/instancenorm/mul"],"attr":{"T":{"type":1}},"name":"generator_hayao/in09_1/instancenorm/mul_2","op":"Mul"},{"input":["generator_hayao/in09_1/beta","generator_hayao/in09_1/instancenorm/mul_2"],"attr":{"T":{"type":1}},"name":"generator_hayao/in09_1/instancenorm/sub","op":"Sub"},{"input":["generator_hayao/in09_1/instancenorm/mul_1","generator_hayao/in09_1/instancenorm/sub"],"attr":{"T":{"type":1}},"name":"generator_hayao/in09_1/instancenorm/add_1","op":"Add"},{"input":["generator_hayao/in09_1/instancenorm/add_1"],"attr":{"T":{"type":1}},"name":"generator_hayao/Relu_8","op":"Relu"},{"input":["generator_hayao/Relu_8","generator_hayao/Pad_15/paddings"],"attr":{"T":{"type":1},"Tpaddings":{"type":3}},"name":"generator_hayao/Pad_12","op":"Pad"},{"input":["generator_hayao/Pad_12","generator_hayao/conv09_2/kernel"],"attr":{"dilations":{"list":{"s":[],"i":["1","1","1","1"],"f":[],"b":[],"type":[],"shape":[],"tensor":[],"func":[]}},"T":{"type":1},"data_format":{"s":[78,72,87,67]},"strides":{"list":{"s":[],"i":["1","1","1","1"],"f":[],"b":[],"type":[],"shape":[],"tensor":[],"func":[]}},"use_cudnn_on_gpu":{"b":true},"padding":{"s":[86,65,76,73,68]}},"name":"generator_hayao/conv09_2/Conv2D","op":"Conv2D"},{"input":["generator_hayao/conv09_2/Conv2D","generator_hayao/conv09_2/bias"],"attr":{"T":{"type":1},"data_format":{"s":[78,72,87,67]}},"name":"generator_hayao/conv09_2/BiasAdd","op":"BiasAdd"},{"input":["generator_hayao/conv09_2/BiasAdd","generator_hayao/in11_1/moments/mean/reduction_indices"],"attr":{"Tidx":{"type":3},"keep_dims":{"b":true},"T":{"type":1}},"name":"generator_hayao/in09_2/moments/mean","op":"Mean"},{"input":["generator_hayao/conv09_2/BiasAdd","generator_hayao/in09_2/moments/mean"],"attr":{"T":{"type":1}},"name":"generator_hayao/in09_2/moments/SquaredDifference","op":"SquaredDifference"},{"input":["generator_hayao/in09_2/moments/SquaredDifference","generator_hayao/in11_1/moments/mean/reduction_indices"],"attr":{"T":{"type":1},"Tidx":{"type":3},"keep_dims":{"b":true}},"name":"generator_hayao/in09_2/moments/variance","op":"Mean"},{"input":["generator_hayao/in09_2/moments/variance","generator_hayao/in11_1/instancenorm/add/y"],"attr":{"T":{"type":1}},"name":"generator_hayao/in09_2/instancenorm/add","op":"Add"},{"input":["generator_hayao/in09_2/instancenorm/add"],"attr":{"T":{"type":1}},"name":"generator_hayao/in09_2/instancenorm/Rsqrt","op":"Rsqrt"},{"input":["generator_hayao/in09_2/instancenorm/Rsqrt","generator_hayao/in09_2/gamma"],"attr":{"T":{"type":1}},"name":"generator_hayao/in09_2/instancenorm/mul","op":"Mul"},{"input":["generator_hayao/conv09_2/BiasAdd","generator_hayao/in09_2/instancenorm/mul"],"attr":{"T":{"type":1}},"name":"generator_hayao/in09_2/instancenorm/mul_1","op":"Mul"},{"input":["generator_hayao/in09_2/moments/mean","generator_hayao/in09_2/instancenorm/mul"],"attr":{"T":{"type":1}},"name":"generator_hayao/in09_2/instancenorm/mul_2","op":"Mul"},{"input":["generator_hayao/in09_2/beta","generator_hayao/in09_2/instancenorm/mul_2"],"attr":{"T":{"type":1}},"name":"generator_hayao/in09_2/instancenorm/sub","op":"Sub"},{"input":["generator_hayao/in09_2/instancenorm/mul_1","generator_hayao/in09_2/instancenorm/sub"],"attr":{"T":{"type":1}},"name":"generator_hayao/in09_2/instancenorm/add_1","op":"Add"},{"input":["generator_hayao/in09_2/instancenorm/add_1","generator_hayao/add_4"],"attr":{"T":{"type":1}},"name":"generator_hayao/add_5","op":"Add"},{"input":["generator_hayao/add_5","generator_hayao/Pad_15/paddings"],"attr":{"Tpaddings":{"type":3},"T":{"type":1}},"name":"generator_hayao/Pad_13","op":"Pad"},{"input":["generator_hayao/Pad_13","generator_hayao/conv10_1/kernel"],"attr":{"dilations":{"list":{"s":[],"i":["1","1","1","1"],"f":[],"b":[],"type":[],"shape":[],"tensor":[],"func":[]}},"T":{"type":1},"strides":{"list":{"s":[],"i":["1","1","1","1"],"f":[],"b":[],"type":[],"shape":[],"tensor":[],"func":[]}},"data_format":{"s":[78,72,87,67]},"use_cudnn_on_gpu":{"b":true},"padding":{"s":[86,65,76,73,68]}},"name":"generator_hayao/conv10_1/Conv2D","op":"Conv2D"},{"input":["generator_hayao/conv10_1/Conv2D","generator_hayao/conv10_1/bias"],"attr":{"T":{"type":1},"data_format":{"s":[78,72,87,67]}},"name":"generator_hayao/conv10_1/BiasAdd","op":"BiasAdd"},{"input":["generator_hayao/conv10_1/BiasAdd","generator_hayao/in11_1/moments/mean/reduction_indices"],"attr":{"T":{"type":1},"Tidx":{"type":3},"keep_dims":{"b":true}},"name":"generator_hayao/in10_1/moments/mean","op":"Mean"},{"input":["generator_hayao/conv10_1/BiasAdd","generator_hayao/in10_1/moments/mean"],"attr":{"T":{"type":1}},"name":"generator_hayao/in10_1/moments/SquaredDifference","op":"SquaredDifference"},{"input":["generator_hayao/in10_1/moments/SquaredDifference","generator_hayao/in11_1/moments/mean/reduction_indices"],"attr":{"Tidx":{"type":3},"keep_dims":{"b":true},"T":{"type":1}},"name":"generator_hayao/in10_1/moments/variance","op":"Mean"},{"input":["generator_hayao/in10_1/moments/variance","generator_hayao/in11_1/instancenorm/add/y"],"attr":{"T":{"type":1}},"name":"generator_hayao/in10_1/instancenorm/add","op":"Add"},{"input":["generator_hayao/in10_1/instancenorm/add"],"attr":{"T":{"type":1}},"name":"generator_hayao/in10_1/instancenorm/Rsqrt","op":"Rsqrt"},{"input":["generator_hayao/in10_1/instancenorm/Rsqrt","generator_hayao/in10_1/gamma"],"attr":{"T":{"type":1}},"name":"generator_hayao/in10_1/instancenorm/mul","op":"Mul"},{"input":["generator_hayao/conv10_1/BiasAdd","generator_hayao/in10_1/instancenorm/mul"],"attr":{"T":{"type":1}},"name":"generator_hayao/in10_1/instancenorm/mul_1","op":"Mul"},{"input":["generator_hayao/in10_1/moments/mean","generator_hayao/in10_1/instancenorm/mul"],"attr":{"T":{"type":1}},"name":"generator_hayao/in10_1/instancenorm/mul_2","op":"Mul"},{"input":["generator_hayao/in10_1/beta","generator_hayao/in10_1/instancenorm/mul_2"],"attr":{"T":{"type":1}},"name":"generator_hayao/in10_1/instancenorm/sub","op":"Sub"},{"input":["generator_hayao/in10_1/instancenorm/mul_1","generator_hayao/in10_1/instancenorm/sub"],"attr":{"T":{"type":1}},"name":"generator_hayao/in10_1/instancenorm/add_1","op":"Add"},{"input":["generator_hayao/in10_1/instancenorm/add_1"],"attr":{"T":{"type":1}},"name":"generator_hayao/Relu_9","op":"Relu"},{"input":["generator_hayao/Relu_9","generator_hayao/Pad_15/paddings"],"attr":{"T":{"type":1},"Tpaddings":{"type":3}},"name":"generator_hayao/Pad_14","op":"Pad"},{"input":["generator_hayao/Pad_14","generator_hayao/conv10_2/kernel"],"attr":{"padding":{"s":[86,65,76,73,68]},"dilations":{"list":{"s":[],"i":["1","1","1","1"],"f":[],"b":[],"type":[],"shape":[],"tensor":[],"func":[]}},"T":{"type":1},"data_format":{"s":[78,72,87,67]},"strides":{"list":{"s":[],"i":["1","1","1","1"],"f":[],"b":[],"type":[],"shape":[],"tensor":[],"func":[]}},"use_cudnn_on_gpu":{"b":true}},"name":"generator_hayao/conv10_2/Conv2D","op":"Conv2D"},{"input":["generator_hayao/conv10_2/Conv2D","generator_hayao/conv10_2/bias"],"attr":{"T":{"type":1},"data_format":{"s":[78,72,87,67]}},"name":"generator_hayao/conv10_2/BiasAdd","op":"BiasAdd"},{"input":["generator_hayao/conv10_2/BiasAdd","generator_hayao/in11_1/moments/mean/reduction_indices"],"attr":{"Tidx":{"type":3},"keep_dims":{"b":true},"T":{"type":1}},"name":"generator_hayao/in10_2/moments/mean","op":"Mean"},{"input":["generator_hayao/conv10_2/BiasAdd","generator_hayao/in10_2/moments/mean"],"attr":{"T":{"type":1}},"name":"generator_hayao/in10_2/moments/SquaredDifference","op":"SquaredDifference"},{"input":["generator_hayao/in10_2/moments/SquaredDifference","generator_hayao/in11_1/moments/mean/reduction_indices"],"attr":{"T":{"type":1},"Tidx":{"type":3},"keep_dims":{"b":true}},"name":"generator_hayao/in10_2/moments/variance","op":"Mean"},{"input":["generator_hayao/in10_2/moments/variance","generator_hayao/in11_1/instancenorm/add/y"],"attr":{"T":{"type":1}},"name":"generator_hayao/in10_2/instancenorm/add","op":"Add"},{"input":["generator_hayao/in10_2/instancenorm/add"],"attr":{"T":{"type":1}},"name":"generator_hayao/in10_2/instancenorm/Rsqrt","op":"Rsqrt"},{"input":["generator_hayao/in10_2/instancenorm/Rsqrt","generator_hayao/in10_2/gamma"],"attr":{"T":{"type":1}},"name":"generator_hayao/in10_2/instancenorm/mul","op":"Mul"},{"input":["generator_hayao/conv10_2/BiasAdd","generator_hayao/in10_2/instancenorm/mul"],"attr":{"T":{"type":1}},"name":"generator_hayao/in10_2/instancenorm/mul_1","op":"Mul"},{"input":["generator_hayao/in10_2/moments/mean","generator_hayao/in10_2/instancenorm/mul"],"attr":{"T":{"type":1}},"name":"generator_hayao/in10_2/instancenorm/mul_2","op":"Mul"},{"input":["generator_hayao/in10_2/beta","generator_hayao/in10_2/instancenorm/mul_2"],"attr":{"T":{"type":1}},"name":"generator_hayao/in10_2/instancenorm/sub","op":"Sub"},{"input":["generator_hayao/in10_2/instancenorm/mul_1","generator_hayao/in10_2/instancenorm/sub"],"attr":{"T":{"type":1}},"name":"generator_hayao/in10_2/instancenorm/add_1","op":"Add"},{"input":["generator_hayao/in10_2/instancenorm/add_1","generator_hayao/add_5"],"attr":{"T":{"type":1}},"name":"generator_hayao/add_6","op":"Add"},{"input":["generator_hayao/add_6","generator_hayao/Pad_15/paddings"],"attr":{"T":{"type":1},"Tpaddings":{"type":3}},"name":"generator_hayao/Pad_15","op":"Pad"},{"input":["generator_hayao/Pad_15","generator_hayao/conv11_1/kernel"],"attr":{"dilations":{"list":{"s":[],"i":["1","1","1","1"],"f":[],"b":[],"type":[],"shape":[],"tensor":[],"func":[]}},"T":{"type":1},"data_format":{"s":[78,72,87,67]},"strides":{"list":{"s":[],"i":["1","1","1","1"],"f":[],"b":[],"type":[],"shape":[],"tensor":[],"func":[]}},"use_cudnn_on_gpu":{"b":true},"padding":{"s":[86,65,76,73,68]}},"name":"generator_hayao/conv11_1/Conv2D","op":"Conv2D"},{"input":["generator_hayao/conv11_1/Conv2D","generator_hayao/conv11_1/bias"],"attr":{"T":{"type":1},"data_format":{"s":[78,72,87,67]}},"name":"generator_hayao/conv11_1/BiasAdd","op":"BiasAdd"},{"input":["generator_hayao/conv11_1/BiasAdd","generator_hayao/in11_1/moments/mean/reduction_indices"],"attr":{"Tidx":{"type":3},"keep_dims":{"b":true},"T":{"type":1}},"name":"generator_hayao/in11_1/moments/mean","op":"Mean"},{"input":["generator_hayao/conv11_1/BiasAdd","generator_hayao/in11_1/moments/mean"],"attr":{"T":{"type":1}},"name":"generator_hayao/in11_1/moments/SquaredDifference","op":"SquaredDifference"},{"input":["generator_hayao/in11_1/moments/SquaredDifference","generator_hayao/in11_1/moments/mean/reduction_indices"],"attr":{"Tidx":{"type":3},"keep_dims":{"b":true},"T":{"type":1}},"name":"generator_hayao/in11_1/moments/variance","op":"Mean"},{"input":["generator_hayao/in11_1/moments/variance","generator_hayao/in11_1/instancenorm/add/y"],"attr":{"T":{"type":1}},"name":"generator_hayao/in11_1/instancenorm/add","op":"Add"},{"input":["generator_hayao/in11_1/instancenorm/add"],"attr":{"T":{"type":1}},"name":"generator_hayao/in11_1/instancenorm/Rsqrt","op":"Rsqrt"},{"input":["generator_hayao/in11_1/instancenorm/Rsqrt","generator_hayao/in11_1/gamma"],"attr":{"T":{"type":1}},"name":"generator_hayao/in11_1/instancenorm/mul","op":"Mul"},{"input":["generator_hayao/conv11_1/BiasAdd","generator_hayao/in11_1/instancenorm/mul"],"attr":{"T":{"type":1}},"name":"generator_hayao/in11_1/instancenorm/mul_1","op":"Mul"},{"input":["generator_hayao/in11_1/moments/mean","generator_hayao/in11_1/instancenorm/mul"],"attr":{"T":{"type":1}},"name":"generator_hayao/in11_1/instancenorm/mul_2","op":"Mul"},{"input":["generator_hayao/in11_1/beta","generator_hayao/in11_1/instancenorm/mul_2"],"attr":{"T":{"type":1}},"name":"generator_hayao/in11_1/instancenorm/sub","op":"Sub"},{"input":["generator_hayao/in11_1/instancenorm/mul_1","generator_hayao/in11_1/instancenorm/sub"],"attr":{"T":{"type":1}},"name":"generator_hayao/in11_1/instancenorm/add_1","op":"Add"},{"input":["generator_hayao/in11_1/instancenorm/add_1"],"attr":{"T":{"type":1}},"name":"generator_hayao/Relu_10","op":"Relu"},{"input":["generator_hayao/Relu_10","generator_hayao/Pad_15/paddings"],"attr":{"Tpaddings":{"type":3},"T":{"type":1}},"name":"generator_hayao/Pad_16","op":"Pad"},{"input":["generator_hayao/Pad_16","generator_hayao/conv11_2/kernel"],"attr":{"strides":{"list":{"s":[],"i":["1","1","1","1"],"f":[],"b":[],"type":[],"shape":[],"tensor":[],"func":[]}},"data_format":{"s":[78,72,87,67]},"use_cudnn_on_gpu":{"b":true},"padding":{"s":[86,65,76,73,68]},"dilations":{"list":{"s":[],"i":["1","1","1","1"],"f":[],"b":[],"type":[],"shape":[],"tensor":[],"func":[]}},"T":{"type":1}},"name":"generator_hayao/conv11_2/Conv2D","op":"Conv2D"},{"input":["generator_hayao/conv11_2/Conv2D","generator_hayao/conv11_2/bias"],"attr":{"T":{"type":1},"data_format":{"s":[78,72,87,67]}},"name":"generator_hayao/conv11_2/BiasAdd","op":"BiasAdd"},{"input":["generator_hayao/conv11_2/BiasAdd","generator_hayao/in11_1/moments/mean/reduction_indices"],"attr":{"Tidx":{"type":3},"keep_dims":{"b":true},"T":{"type":1}},"name":"generator_hayao/in11_2/moments/mean","op":"Mean"},{"input":["generator_hayao/conv11_2/BiasAdd","generator_hayao/in11_2/moments/mean"],"attr":{"T":{"type":1}},"name":"generator_hayao/in11_2/moments/SquaredDifference","op":"SquaredDifference"},{"input":["generator_hayao/in11_2/moments/SquaredDifference","generator_hayao/in11_1/moments/mean/reduction_indices"],"attr":{"Tidx":{"type":3},"keep_dims":{"b":true},"T":{"type":1}},"name":"generator_hayao/in11_2/moments/variance","op":"Mean"},{"input":["generator_hayao/in11_2/moments/variance","generator_hayao/in11_1/instancenorm/add/y"],"attr":{"T":{"type":1}},"name":"generator_hayao/in11_2/instancenorm/add","op":"Add"},{"input":["generator_hayao/in11_2/instancenorm/add"],"attr":{"T":{"type":1}},"name":"generator_hayao/in11_2/instancenorm/Rsqrt","op":"Rsqrt"},{"input":["generator_hayao/in11_2/instancenorm/Rsqrt","generator_hayao/in11_2/gamma"],"attr":{"T":{"type":1}},"name":"generator_hayao/in11_2/instancenorm/mul","op":"Mul"},{"input":["generator_hayao/conv11_2/BiasAdd","generator_hayao/in11_2/instancenorm/mul"],"attr":{"T":{"type":1}},"name":"generator_hayao/in11_2/instancenorm/mul_1","op":"Mul"},{"input":["generator_hayao/in11_2/moments/mean","generator_hayao/in11_2/instancenorm/mul"],"attr":{"T":{"type":1}},"name":"generator_hayao/in11_2/instancenorm/mul_2","op":"Mul"},{"input":["generator_hayao/in11_2/beta","generator_hayao/in11_2/instancenorm/mul_2"],"attr":{"T":{"type":1}},"name":"generator_hayao/in11_2/instancenorm/sub","op":"Sub"},{"input":["generator_hayao/in11_2/instancenorm/mul_1","generator_hayao/in11_2/instancenorm/sub"],"attr":{"T":{"type":1}},"name":"generator_hayao/in11_2/instancenorm/add_1","op":"Add"},{"input":["generator_hayao/in11_2/instancenorm/add_1","generator_hayao/add_6"],"attr":{"T":{"type":1}},"name":"generator_hayao/add_7","op":"Add"},{"input":["generator_hayao/add_7"],"attr":{"T":{"type":1},"out_type":{"type":3}},"name":"generator_hayao/deconv01_1/Shape","op":"Shape"},{"input":["generator_hayao/deconv01_1/Shape","generator_hayao/deconv02_1/strided_slice/stack","generator_hayao/deconv02_1/strided_slice/stack_1","generator_hayao/deconv02_1/strided_slice/stack_1"],"attr":{"shrink_axis_mask":{"i":"1"},"begin_mask":{"i":"0"},"ellipsis_mask":{"i":"0"},"new_axis_mask":{"i":"0"},"end_mask":{"i":"0"},"Index":{"type":3},"T":{"type":3}},"name":"generator_hayao/deconv01_1/strided_slice","op":"StridedSlice"},{"input":["generator_hayao/deconv01_1/Shape","generator_hayao/deconv02_1/strided_slice/stack_1","generator_hayao/deconv02_1/strided_slice_1/stack_1","generator_hayao/deconv02_1/strided_slice/stack_1"],"attr":{"shrink_axis_mask":{"i":"1"},"begin_mask":{"i":"0"},"ellipsis_mask":{"i":"0"},"new_axis_mask":{"i":"0"},"end_mask":{"i":"0"},"Index":{"type":3},"T":{"type":3}},"name":"generator_hayao/deconv01_1/strided_slice_1","op":"StridedSlice"},{"input":["generator_hayao/deconv01_1/Shape","generator_hayao/deconv02_1/strided_slice_1/stack_1","generator_hayao/deconv02_1/strided_slice_2/stack_1","generator_hayao/deconv02_1/strided_slice/stack_1"],"attr":{"shrink_axis_mask":{"i":"1"},"ellipsis_mask":{"i":"0"},"begin_mask":{"i":"0"},"new_axis_mask":{"i":"0"},"end_mask":{"i":"0"},"T":{"type":3},"Index":{"type":3}},"name":"generator_hayao/deconv01_1/strided_slice_2","op":"StridedSlice"},{"input":["generator_hayao/deconv01_1/strided_slice_1","generator_hayao/deconv02_1/mul/y"],"attr":{"T":{"type":3}},"name":"generator_hayao/deconv01_1/mul","op":"Mul"},{"input":["generator_hayao/deconv01_1/strided_slice_2","generator_hayao/deconv02_1/mul/y"],"attr":{"T":{"type":3}},"name":"generator_hayao/deconv01_1/mul_1","op":"Mul"},{"input":["generator_hayao/deconv01_1/mul","generator_hayao/deconv02_1/add/y"],"attr":{"T":{"type":3}},"name":"generator_hayao/deconv01_1/add","op":"Add"},{"input":["generator_hayao/deconv01_1/mul_1","generator_hayao/deconv02_1/add/y"],"attr":{"T":{"type":3}},"name":"generator_hayao/deconv01_1/add_1","op":"Add"},{"input":["generator_hayao/deconv01_1/strided_slice","generator_hayao/deconv01_1/add","generator_hayao/deconv01_1/add_1","generator_hayao/deconv01_1/conv2d_transpose/output_shape/3"],"attr":{"T":{"type":3},"axis":{"i":"0"},"N":{"i":"4"}},"name":"generator_hayao/deconv01_1/conv2d_transpose/output_shape","op":"Pack"},{"input":["generator_hayao/deconv01_1/conv2d_transpose/output_shape","generator_hayao/deconv01_1/kernel","generator_hayao/add_7"],"attr":{"dilations":{"list":{"s":[],"i":["1","1","1","1"],"f":[],"b":[],"type":[],"shape":[],"tensor":[],"func":[]}},"T":{"type":1},"data_format":{"s":[78,72,87,67]},"strides":{"list":{"s":[],"i":["1","2","2","1"],"f":[],"b":[],"type":[],"shape":[],"tensor":[],"func":[]}},"use_cudnn_on_gpu":{"b":true},"padding":{"s":[86,65,76,73,68]}},"name":"generator_hayao/deconv01_1/conv2d_transpose","op":"Conv2DBackpropInput"},{"input":["generator_hayao/deconv01_1/conv2d_transpose","generator_hayao/deconv01_1/strided_slice_3/stack","generator_hayao/deconv01_1/strided_slice_3/stack_1","generator_hayao/deconv01_1/strided_slice_3/stack_2"],"attr":{"shrink_axis_mask":{"i":"0"},"begin_mask":{"i":"1"},"ellipsis_mask":{"i":"0"},"new_axis_mask":{"i":"0"},"end_mask":{"i":"7"},"Index":{"type":3},"T":{"type":1}},"name":"generator_hayao/deconv01_1/strided_slice_3","op":"StridedSlice"},{"input":["generator_hayao/deconv01_1/strided_slice_3","generator_hayao/deconv01_1/bias"],"attr":{"T":{"type":1},"data_format":{"s":[78,72,87,67]}},"name":"generator_hayao/deconv01_1/BiasAdd","op":"BiasAdd"},{"input":["generator_hayao/deconv01_1/BiasAdd","generator_hayao/Pad_15/paddings"],"attr":{"Tpaddings":{"type":3},"T":{"type":1}},"name":"generator_hayao/deconv01_2/Pad","op":"Pad"},{"input":["generator_hayao/deconv01_2/Pad","generator_hayao/deconv01_2/kernel"],"attr":{"dilations":{"list":{"s":[],"i":["1","1","1","1"],"f":[],"b":[],"type":[],"shape":[],"tensor":[],"func":[]}},"T":{"type":1},"data_format":{"s":[78,72,87,67]},"strides":{"list":{"s":[],"i":["1","1","1","1"],"f":[],"b":[],"type":[],"shape":[],"tensor":[],"func":[]}},"use_cudnn_on_gpu":{"b":true},"padding":{"s":[86,65,76,73,68]}},"name":"generator_hayao/deconv01_2/Conv2D","op":"Conv2D"},{"input":["generator_hayao/deconv01_2/Conv2D","generator_hayao/deconv01_2/bias"],"attr":{"T":{"type":1},"data_format":{"s":[78,72,87,67]}},"name":"generator_hayao/deconv01_2/BiasAdd","op":"BiasAdd"},{"input":["generator_hayao/deconv01_2/BiasAdd","generator_hayao/in11_1/moments/mean/reduction_indices"],"attr":{"T":{"type":1},"Tidx":{"type":3},"keep_dims":{"b":true}},"name":"generator_hayao/in12_1/moments/mean","op":"Mean"},{"input":["generator_hayao/deconv01_2/BiasAdd","generator_hayao/in12_1/moments/mean"],"attr":{"T":{"type":1}},"name":"generator_hayao/in12_1/moments/SquaredDifference","op":"SquaredDifference"},{"input":["generator_hayao/in12_1/moments/SquaredDifference","generator_hayao/in11_1/moments/mean/reduction_indices"],"attr":{"T":{"type":1},"Tidx":{"type":3},"keep_dims":{"b":true}},"name":"generator_hayao/in12_1/moments/variance","op":"Mean"},{"input":["generator_hayao/in12_1/moments/variance","generator_hayao/in11_1/instancenorm/add/y"],"attr":{"T":{"type":1}},"name":"generator_hayao/in12_1/instancenorm/add","op":"Add"},{"input":["generator_hayao/in12_1/instancenorm/add"],"attr":{"T":{"type":1}},"name":"generator_hayao/in12_1/instancenorm/Rsqrt","op":"Rsqrt"},{"input":["generator_hayao/in12_1/instancenorm/Rsqrt","generator_hayao/in12_1/gamma"],"attr":{"T":{"type":1}},"name":"generator_hayao/in12_1/instancenorm/mul","op":"Mul"},{"input":["generator_hayao/deconv01_2/BiasAdd","generator_hayao/in12_1/instancenorm/mul"],"attr":{"T":{"type":1}},"name":"generator_hayao/in12_1/instancenorm/mul_1","op":"Mul"},{"input":["generator_hayao/in12_1/moments/mean","generator_hayao/in12_1/instancenorm/mul"],"attr":{"T":{"type":1}},"name":"generator_hayao/in12_1/instancenorm/mul_2","op":"Mul"},{"input":["generator_hayao/in12_1/beta","generator_hayao/in12_1/instancenorm/mul_2"],"attr":{"T":{"type":1}},"name":"generator_hayao/in12_1/instancenorm/sub","op":"Sub"},{"input":["generator_hayao/in12_1/instancenorm/mul_1","generator_hayao/in12_1/instancenorm/sub"],"attr":{"T":{"type":1}},"name":"generator_hayao/in12_1/instancenorm/add_1","op":"Add"},{"input":["generator_hayao/in12_1/instancenorm/add_1"],"attr":{"T":{"type":1}},"name":"generator_hayao/Relu_11","op":"Relu"},{"input":["generator_hayao/Relu_11"],"attr":{"T":{"type":1},"out_type":{"type":3}},"name":"generator_hayao/deconv02_1/Shape","op":"Shape"},{"input":["generator_hayao/deconv02_1/Shape","generator_hayao/deconv02_1/strided_slice/stack","generator_hayao/deconv02_1/strided_slice/stack_1","generator_hayao/deconv02_1/strided_slice/stack_1"],"attr":{"shrink_axis_mask":{"i":"1"},"ellipsis_mask":{"i":"0"},"begin_mask":{"i":"0"},"new_axis_mask":{"i":"0"},"end_mask":{"i":"0"},"Index":{"type":3},"T":{"type":3}},"name":"generator_hayao/deconv02_1/strided_slice","op":"StridedSlice"},{"input":["generator_hayao/deconv02_1/Shape","generator_hayao/deconv02_1/strided_slice/stack_1","generator_hayao/deconv02_1/strided_slice_1/stack_1","generator_hayao/deconv02_1/strided_slice/stack_1"],"attr":{"shrink_axis_mask":{"i":"1"},"begin_mask":{"i":"0"},"ellipsis_mask":{"i":"0"},"new_axis_mask":{"i":"0"},"end_mask":{"i":"0"},"Index":{"type":3},"T":{"type":3}},"name":"generator_hayao/deconv02_1/strided_slice_1","op":"StridedSlice"},{"input":["generator_hayao/deconv02_1/Shape","generator_hayao/deconv02_1/strided_slice_1/stack_1","generator_hayao/deconv02_1/strided_slice_2/stack_1","generator_hayao/deconv02_1/strided_slice/stack_1"],"attr":{"T":{"type":3},"Index":{"type":3},"shrink_axis_mask":{"i":"1"},"begin_mask":{"i":"0"},"ellipsis_mask":{"i":"0"},"new_axis_mask":{"i":"0"},"end_mask":{"i":"0"}},"name":"generator_hayao/deconv02_1/strided_slice_2","op":"StridedSlice"},{"input":["generator_hayao/deconv02_1/strided_slice_1","generator_hayao/deconv02_1/mul/y"],"attr":{"T":{"type":3}},"name":"generator_hayao/deconv02_1/mul","op":"Mul"},{"input":["generator_hayao/deconv02_1/strided_slice_2","generator_hayao/deconv02_1/mul/y"],"attr":{"T":{"type":3}},"name":"generator_hayao/deconv02_1/mul_1","op":"Mul"},{"input":["generator_hayao/deconv02_1/mul","generator_hayao/deconv02_1/add/y"],"attr":{"T":{"type":3}},"name":"generator_hayao/deconv02_1/add","op":"Add"},{"input":["generator_hayao/deconv02_1/mul_1","generator_hayao/deconv02_1/add/y"],"attr":{"T":{"type":3}},"name":"generator_hayao/deconv02_1/add_1","op":"Add"},{"input":["generator_hayao/deconv02_1/strided_slice","generator_hayao/deconv02_1/add","generator_hayao/deconv02_1/add_1","generator_hayao/deconv02_1/conv2d_transpose/output_shape/3"],"attr":{"T":{"type":3},"axis":{"i":"0"},"N":{"i":"4"}},"name":"generator_hayao/deconv02_1/conv2d_transpose/output_shape","op":"Pack"},{"input":["generator_hayao/deconv02_1/conv2d_transpose/output_shape","generator_hayao/deconv02_1/kernel","generator_hayao/Relu_11"],"attr":{"dilations":{"list":{"s":[],"i":["1","1","1","1"],"f":[],"b":[],"type":[],"shape":[],"tensor":[],"func":[]}},"T":{"type":1},"strides":{"list":{"s":[],"i":["1","2","2","1"],"f":[],"b":[],"type":[],"shape":[],"tensor":[],"func":[]}},"data_format":{"s":[78,72,87,67]},"use_cudnn_on_gpu":{"b":true},"padding":{"s":[86,65,76,73,68]}},"name":"generator_hayao/deconv02_1/conv2d_transpose","op":"Conv2DBackpropInput"},{"input":["generator_hayao/deconv02_1/conv2d_transpose","generator_hayao/deconv01_1/strided_slice_3/stack","generator_hayao/deconv01_1/strided_slice_3/stack_1","generator_hayao/deconv01_1/strided_slice_3/stack_2"],"attr":{"Index":{"type":3},"T":{"type":1},"shrink_axis_mask":{"i":"0"},"begin_mask":{"i":"1"},"ellipsis_mask":{"i":"0"},"new_axis_mask":{"i":"0"},"end_mask":{"i":"7"}},"name":"generator_hayao/deconv02_1/strided_slice_3","op":"StridedSlice"},{"input":["generator_hayao/deconv02_1/strided_slice_3","generator_hayao/deconv02_1/bias"],"attr":{"data_format":{"s":[78,72,87,67]},"T":{"type":1}},"name":"generator_hayao/deconv02_1/BiasAdd","op":"BiasAdd"},{"input":["generator_hayao/deconv02_1/BiasAdd","generator_hayao/Pad_15/paddings"],"attr":{"T":{"type":1},"Tpaddings":{"type":3}},"name":"generator_hayao/deconv02_2/Pad","op":"Pad"},{"input":["generator_hayao/deconv02_2/Pad","generator_hayao/deconv02_2/kernel"],"attr":{"padding":{"s":[86,65,76,73,68]},"dilations":{"list":{"s":[],"i":["1","1","1","1"],"f":[],"b":[],"type":[],"shape":[],"tensor":[],"func":[]}},"T":{"type":1},"data_format":{"s":[78,72,87,67]},"strides":{"list":{"s":[],"i":["1","1","1","1"],"f":[],"b":[],"type":[],"shape":[],"tensor":[],"func":[]}},"use_cudnn_on_gpu":{"b":true}},"name":"generator_hayao/deconv02_2/Conv2D","op":"Conv2D"},{"input":["generator_hayao/deconv02_2/Conv2D","generator_hayao/deconv02_2/bias"],"attr":{"T":{"type":1},"data_format":{"s":[78,72,87,67]}},"name":"generator_hayao/deconv02_2/BiasAdd","op":"BiasAdd"},{"input":["generator_hayao/deconv02_2/BiasAdd","generator_hayao/in11_1/moments/mean/reduction_indices"],"attr":{"Tidx":{"type":3},"keep_dims":{"b":true},"T":{"type":1}},"name":"generator_hayao/in13_1/moments/mean","op":"Mean"},{"input":["generator_hayao/deconv02_2/BiasAdd","generator_hayao/in13_1/moments/mean"],"attr":{"T":{"type":1}},"name":"generator_hayao/in13_1/moments/SquaredDifference","op":"SquaredDifference"},{"input":["generator_hayao/in13_1/moments/SquaredDifference","generator_hayao/in11_1/moments/mean/reduction_indices"],"attr":{"Tidx":{"type":3},"keep_dims":{"b":true},"T":{"type":1}},"name":"generator_hayao/in13_1/moments/variance","op":"Mean"},{"input":["generator_hayao/in13_1/moments/variance","generator_hayao/in11_1/instancenorm/add/y"],"attr":{"T":{"type":1}},"name":"generator_hayao/in13_1/instancenorm/add","op":"Add"},{"input":["generator_hayao/in13_1/instancenorm/add"],"attr":{"T":{"type":1}},"name":"generator_hayao/in13_1/instancenorm/Rsqrt","op":"Rsqrt"},{"input":["generator_hayao/in13_1/instancenorm/Rsqrt","generator_hayao/in13_1/gamma"],"attr":{"T":{"type":1}},"name":"generator_hayao/in13_1/instancenorm/mul","op":"Mul"},{"input":["generator_hayao/deconv02_2/BiasAdd","generator_hayao/in13_1/instancenorm/mul"],"attr":{"T":{"type":1}},"name":"generator_hayao/in13_1/instancenorm/mul_1","op":"Mul"},{"input":["generator_hayao/in13_1/moments/mean","generator_hayao/in13_1/instancenorm/mul"],"attr":{"T":{"type":1}},"name":"generator_hayao/in13_1/instancenorm/mul_2","op":"Mul"},{"input":["generator_hayao/in13_1/beta","generator_hayao/in13_1/instancenorm/mul_2"],"attr":{"T":{"type":1}},"name":"generator_hayao/in13_1/instancenorm/sub","op":"Sub"},{"input":["generator_hayao/in13_1/instancenorm/mul_1","generator_hayao/in13_1/instancenorm/sub"],"attr":{"T":{"type":1}},"name":"generator_hayao/in13_1/instancenorm/add_1","op":"Add"},{"input":["generator_hayao/in13_1/instancenorm/add_1"],"attr":{"T":{"type":1}},"name":"generator_hayao/Relu_12","op":"Relu"},{"input":["generator_hayao/Relu_12","generator_hayao/Pad/paddings"],"attr":{"T":{"type":1},"Tpaddings":{"type":3}},"name":"generator_hayao/Pad_17","op":"Pad"},{"input":["generator_hayao/Pad_17","generator_hayao/deconv03_1/kernel"],"attr":{"padding":{"s":[86,65,76,73,68]},"dilations":{"list":{"s":[],"i":["1","1","1","1"],"f":[],"b":[],"type":[],"shape":[],"tensor":[],"func":[]}},"T":{"type":1},"data_format":{"s":[78,72,87,67]},"strides":{"list":{"s":[],"i":["1","1","1","1"],"f":[],"b":[],"type":[],"shape":[],"tensor":[],"func":[]}},"use_cudnn_on_gpu":{"b":true}},"name":"generator_hayao/deconv03_1/Conv2D","op":"Conv2D"},{"input":["generator_hayao/deconv03_1/Conv2D","generator_hayao/deconv03_1/bias"],"attr":{"data_format":{"s":[78,72,87,67]},"T":{"type":1}},"name":"generator_hayao/deconv03_1/BiasAdd","op":"BiasAdd"},{"input":["generator_hayao/deconv03_1/BiasAdd"],"attr":{"T":{"type":1}},"name":"generator_hayao/Tanh","op":"Tanh"}],"library":{"function":[],"gradient":[]},"versions":{"badConsumers":[]}},"weightsManifest":[{"paths":["group1-shard1of3.bin","group1-shard2of3.bin","group1-shard3of3.bin"],"weights":[{"name":"generator_hayao/in13_1/beta","shape":[64],"dtype":"float32","quantization":{"min":-0.15282286276273868,"scale":0.0006615708344707303,"dtype":"uint8"}},{"name":"generator_hayao/deconv02_1/conv2d_transpose/output_shape/3","shape":[],"dtype":"int32","quantization":{"min":64,"scale":1,"dtype":"uint8"}},{"name":"generator_hayao/deconv02_1/kernel","shape":[3,3,64,128],"dtype":"float32","quantization":{"min":-0.10611576455480912,"scale":0.0008226028260062722,"dtype":"uint8"}},{"name":"generator_hayao/in12_1/beta","shape":[128],"dtype":"float32","quantization":{"min":-0.1953082721607358,"scale":0.0010557203900580312,"dtype":"uint8"}},{"name":"generator_hayao/deconv02_1/strided_slice/stack","shape":[1],"dtype":"int32","quantization":{"min":0,"scale":1,"dtype":"uint8"}},{"name":"generator_hayao/deconv02_1/strided_slice_1/stack_1","shape":[1],"dtype":"int32","quantization":{"min":2,"scale":1,"dtype":"uint8"}},{"name":"generator_hayao/deconv02_1/strided_slice_2/stack_1","shape":[1],"dtype":"int32","quantization":{"min":3,"scale":1,"dtype":"uint8"}},{"name":"generator_hayao/deconv02_1/strided_slice/stack_1","shape":[1],"dtype":"int32","quantization":{"min":1,"scale":1,"dtype":"uint8"}},{"name":"generator_hayao/deconv02_1/mul/y","shape":[],"dtype":"int32","quantization":{"min":2,"scale":1,"dtype":"uint8"}},{"name":"generator_hayao/deconv02_1/add/y","shape":[],"dtype":"int32","quantization":{"min":1,"scale":1,"dtype":"uint8"}},{"name":"generator_hayao/deconv01_1/conv2d_transpose/output_shape/3","shape":[],"dtype":"int32","quantization":{"min":128,"scale":1,"dtype":"uint8"}},{"name":"generator_hayao/deconv01_1/kernel","shape":[3,3,128,256],"dtype":"float32","quantization":{"min":-0.09311341672551397,"scale":0.0007695323696323469,"dtype":"uint8"}},{"name":"generator_hayao/in11_2/beta","shape":[256],"dtype":"float32","quantization":{"min":-0.04080127116804029,"scale":0.0003813202912900962,"dtype":"uint8"}},{"name":"generator_hayao/in11_1/beta","shape":[256],"dtype":"float32","quantization":{"min":-0.1203197205767912,"scale":0.0007161888129570905,"dtype":"uint8"}},{"name":"generator_hayao/conv11_1/kernel","shape":[3,3,256,256],"dtype":"float32","quantization":{"min":-0.10905387985940072,"scale":0.000813834924323886,"dtype":"uint8"}},{"name":"generator_hayao/conv11_1/bias","shape":[256],"dtype":"float32","quantization":{"min":-3.35426133404707e-9,"scale":2.4306241551065723e-11,"dtype":"uint8"}},{"name":"generator_hayao/in11_1/gamma","shape":[256],"dtype":"float32","quantization":{"min":0.057251717895269394,"scale":0.0036347259639524948,"dtype":"uint8"}},{"name":"generator_hayao/conv11_2/kernel","shape":[3,3,256,256],"dtype":"float32","quantization":{"min":-0.10425205937787599,"scale":0.0008019389182913537,"dtype":"uint8"}},{"name":"generator_hayao/conv11_2/bias","shape":[256],"dtype":"float32","quantization":{"min":-8.977613793111535e-9,"scale":7.544213271522299e-11,"dtype":"uint8"}},{"name":"generator_hayao/in11_2/gamma","shape":[256],"dtype":"float32","quantization":{"min":0.08667019009590149,"scale":0.0036467448169109867,"dtype":"uint8"}},{"name":"generator_hayao/in10_2/beta","shape":[256],"dtype":"float32","quantization":{"min":-0.04080128523648954,"scale":0.0003813204227709303,"dtype":"uint8"}},{"name":"generator_hayao/in10_1/beta","shape":[256],"dtype":"float32","quantization":{"min":-0.11531826643382802,"scale":0.0007118411508260988,"dtype":"uint8"}},{"name":"generator_hayao/conv10_1/kernel","shape":[3,3,256,256],"dtype":"float32","quantization":{"min":-0.10561306608073852,"scale":0.0008187059386103761,"dtype":"uint8"}},{"name":"generator_hayao/conv10_1/bias","shape":[256],"dtype":"float32","quantization":{"min":-4.394504167966792e-9,"scale":2.5850024517451716e-11,"dtype":"uint8"}},{"name":"generator_hayao/in10_1/gamma","shape":[256],"dtype":"float32","quantization":{"min":0.07578818500041962,"scale":0.0034864933467378804,"dtype":"uint8"}},{"name":"generator_hayao/conv10_2/kernel","shape":[3,3,256,256],"dtype":"float32","quantization":{"min":-0.10174846976411109,"scale":0.0008340038505255008,"dtype":"uint8"}},{"name":"generator_hayao/conv10_2/bias","shape":[256],"dtype":"float32","quantization":{"min":-7.0525294571619755e-9,"scale":6.470210511157776e-11,"dtype":"uint8"}},{"name":"generator_hayao/in10_2/gamma","shape":[256],"dtype":"float32","quantization":{"min":-0.054155161319410096,"scale":0.004165781639954623,"dtype":"uint8"}},{"name":"generator_hayao/in09_2/beta","shape":[256],"dtype":"float32","quantization":{"min":-0.040801296178616726,"scale":0.0003813205250338012,"dtype":"uint8"}},{"name":"generator_hayao/in09_1/beta","shape":[256],"dtype":"float32","quantization":{"min":-0.112576425075531,"scale":0.0007357936279446471,"dtype":"uint8"}},{"name":"generator_hayao/conv09_1/kernel","shape":[3,3,256,256],"dtype":"float32","quantization":{"min":-0.10315963766154121,"scale":0.0007815124065268273,"dtype":"uint8"}},{"name":"generator_hayao/conv09_1/bias","shape":[256],"dtype":"float32","quantization":{"min":-3.3559570364490932e-9,"scale":2.2829639703735327e-11,"dtype":"uint8"}},{"name":"generator_hayao/in09_1/gamma","shape":[256],"dtype":"float32","quantization":{"min":0.08143781870603561,"scale":0.003525496727111293,"dtype":"uint8"}},{"name":"generator_hayao/conv09_2/kernel","shape":[3,3,256,256],"dtype":"float32","quantization":{"min":-0.1054771902514439,"scale":0.0008506225020277734,"dtype":"uint8"}},{"name":"generator_hayao/conv09_2/bias","shape":[256],"dtype":"float32","quantization":{"min":-1.011348064640943e-8,"scale":9.541019477744746e-11,"dtype":"uint8"}},{"name":"generator_hayao/in09_2/gamma","shape":[256],"dtype":"float32","quantization":{"min":0.0466795451939106,"scale":0.0037986038216188843,"dtype":"uint8"}},{"name":"generator_hayao/in08_2/beta","shape":[256],"dtype":"float32","quantization":{"min":-0.04080128992597262,"scale":0.00038132046659787496,"dtype":"uint8"}},{"name":"generator_hayao/in08_1/beta","shape":[256],"dtype":"float32","quantization":{"min":-0.11971183121204378,"scale":0.0007041872424237869,"dtype":"uint8"}},{"name":"generator_hayao/conv08_1/kernel","shape":[3,3,256,256],"dtype":"float32","quantization":{"min":-0.10501752846381245,"scale":0.0007837128989836749,"dtype":"uint8"}},{"name":"generator_hayao/conv08_1/bias","shape":[256],"dtype":"float32","quantization":{"min":-3.385003522798151e-9,"scale":2.9955783387594257e-11,"dtype":"uint8"}},{"name":"generator_hayao/in08_1/gamma","shape":[256],"dtype":"float32","quantization":{"min":0.08096977323293686,"scale":0.0035382209163086088,"dtype":"uint8"}},{"name":"generator_hayao/conv08_2/kernel","shape":[3,3,256,256],"dtype":"float32","quantization":{"min":-0.11784122036952598,"scale":0.0008417230026394713,"dtype":"uint8"}},{"name":"generator_hayao/conv08_2/bias","shape":[256],"dtype":"float32","quantization":{"min":-1.2630507703778115e-8,"scale":1.026870545022611e-10,"dtype":"uint8"}},{"name":"generator_hayao/in08_2/gamma","shape":[256],"dtype":"float32","quantization":{"min":-0.06230545832830317,"scale":0.004153697221886878,"dtype":"uint8"}},{"name":"generator_hayao/in07_2/beta","shape":[256],"dtype":"float32","quantization":{"min":-0.040801269604879266,"scale":0.00038132027668111464,"dtype":"uint8"}},{"name":"generator_hayao/in07_1/beta","shape":[256],"dtype":"float32","quantization":{"min":-0.10832530517204135,"scale":0.0006728279824350394,"dtype":"uint8"}},{"name":"generator_hayao/conv07_1/kernel","shape":[3,3,256,256],"dtype":"float32","quantization":{"min":-0.1067067735335406,"scale":0.000802306567921358,"dtype":"uint8"}},{"name":"generator_hayao/conv07_1/bias","shape":[256],"dtype":"float32","quantization":{"min":-3.96588924837548e-9,"scale":3.02739637280571e-11,"dtype":"uint8"}},{"name":"generator_hayao/in07_1/gamma","shape":[256],"dtype":"float32","quantization":{"min":0.05573662742972374,"scale":0.0036457009321334316,"dtype":"uint8"}},{"name":"generator_hayao/conv07_2/kernel","shape":[3,3,256,256],"dtype":"float32","quantization":{"min":-0.10163621359011707,"scale":0.0008613238439840429,"dtype":"uint8"}},{"name":"generator_hayao/conv07_2/bias","shape":[256],"dtype":"float32","quantization":{"min":-1.350927526707036e-8,"scale":9.00618351138024e-11,"dtype":"uint8"}},{"name":"generator_hayao/in07_2/gamma","shape":[256],"dtype":"float32","quantization":{"min":0.035844214260578156,"scale":0.0037009556796036513,"dtype":"uint8"}},{"name":"generator_hayao/in06_2/beta","shape":[256],"dtype":"float32","quantization":{"min":-0.040801236778497695,"scale":0.00038131996989250184,"dtype":"uint8"}},{"name":"generator_hayao/in06_1/beta","shape":[256],"dtype":"float32","quantization":{"min":-0.11545384635820109,"scale":0.0006673632737468271,"dtype":"uint8"}},{"name":"generator_hayao/conv06_1/kernel","shape":[3,3,256,256],"dtype":"float32","quantization":{"min":-0.09929181389948902,"scale":0.0008138673270449919,"dtype":"uint8"}},{"name":"generator_hayao/conv06_1/bias","shape":[256],"dtype":"float32","quantization":{"min":-5.86855503451981e-9,"scale":4.103884639524343e-11,"dtype":"uint8"}},{"name":"generator_hayao/in06_1/gamma","shape":[256],"dtype":"float32","quantization":{"min":0.054573338478803635,"scale":0.003616812722940071,"dtype":"uint8"}},{"name":"generator_hayao/conv06_2/kernel","shape":[3,3,256,256],"dtype":"float32","quantization":{"min":-0.10471986055958504,"scale":0.0007993882485464507,"dtype":"uint8"}},{"name":"generator_hayao/conv06_2/bias","shape":[256],"dtype":"float32","quantization":{"min":-1.3972140317933095e-8,"scale":8.956500203803266e-11,"dtype":"uint8"}},{"name":"generator_hayao/in06_2/gamma","shape":[256],"dtype":"float32","quantization":{"min":0.02417602390050888,"scale":0.003743659193609275,"dtype":"uint8"}},{"name":"generator_hayao/in05_2/beta","shape":[256],"dtype":"float32","quantization":{"min":-0.040801278983845425,"scale":0.000381320364335004,"dtype":"uint8"}},{"name":"generator_hayao/in05_1/beta","shape":[256],"dtype":"float32","quantization":{"min":-0.090722695869558,"scale":0.0005705829928903019,"dtype":"uint8"}},{"name":"generator_hayao/conv05_1/kernel","shape":[3,3,256,256],"dtype":"float32","quantization":{"min":-0.0987505316734314,"scale":0.0007596194744110107,"dtype":"uint8"}},{"name":"generator_hayao/conv05_1/bias","shape":[256],"dtype":"float32","quantization":{"min":-5.795297160678577e-9,"scale":4.3248486273720725e-11,"dtype":"uint8"}},{"name":"generator_hayao/in05_1/gamma","shape":[256],"dtype":"float32","quantization":{"min":0.07237875461578369,"scale":0.0036058559137232163,"dtype":"uint8"}},{"name":"generator_hayao/conv05_2/kernel","shape":[3,3,256,256],"dtype":"float32","quantization":{"min":-0.10161798499962862,"scale":0.0008261624796717774,"dtype":"uint8"}},{"name":"generator_hayao/conv05_2/bias","shape":[256],"dtype":"float32","quantization":{"min":-1.2061088274522797e-8,"scale":9.805762824815282e-11,"dtype":"uint8"}},{"name":"generator_hayao/in05_2/gamma","shape":[256],"dtype":"float32","quantization":{"min":0.02709614671766758,"scale":0.003755331528829593,"dtype":"uint8"}},{"name":"generator_hayao/in04_2/beta","shape":[256],"dtype":"float32","quantization":{"min":-0.04080128367332851,"scale":0.0003813204081619487,"dtype":"uint8"}},{"name":"generator_hayao/in04_1/beta","shape":[256],"dtype":"float32","quantization":{"min":-0.07156065654228716,"scale":0.0004935217692571528,"dtype":"uint8"}},{"name":"generator_hayao/conv04_1/kernel","shape":[3,3,256,256],"dtype":"float32","quantization":{"min":-0.11339166672790751,"scale":0.0008722435902146732,"dtype":"uint8"}},{"name":"generator_hayao/conv04_1/bias","shape":[256],"dtype":"float32","quantization":{"min":-1.2315099277603782e-8,"scale":8.552152276113738e-11,"dtype":"uint8"}},{"name":"generator_hayao/in04_1/gamma","shape":[256],"dtype":"float32","quantization":{"min":0.0704406276345253,"scale":0.0036111804492333357,"dtype":"uint8"}},{"name":"generator_hayao/conv04_2/kernel","shape":[3,3,256,256],"dtype":"float32","quantization":{"min":-0.10305412855802798,"scale":0.0007866727370841831,"dtype":"uint8"}},{"name":"generator_hayao/conv04_2/bias","shape":[256],"dtype":"float32","quantization":{"min":-1.202692658492366e-8,"scale":9.470020933010756e-11,"dtype":"uint8"}},{"name":"generator_hayao/in04_2/gamma","shape":[256],"dtype":"float32","quantization":{"min":0.03597882017493248,"scale":0.003729891908519408,"dtype":"uint8"}},{"name":"generator_hayao/in03_1/beta","shape":[256],"dtype":"float32","quantization":{"min":-0.08066044981573142,"scale":0.0006019436553412793,"dtype":"uint8"}},{"name":"generator_hayao/in02_1/beta","shape":[128],"dtype":"float32","quantization":{"min":-0.07037623808080075,"scale":0.0005816218023206673,"dtype":"uint8"}},{"name":"generator_hayao/in01_1/beta","shape":[64],"dtype":"float32","quantization":{"min":-0.04359767740848018,"scale":0.0004192084366200017,"dtype":"uint8"}},{"name":"generator_hayao/conv01_1/kernel","shape":[7,7,3,64],"dtype":"float32","quantization":{"min":-0.07902259975671769,"scale":0.000612578292687734,"dtype":"uint8"}},{"name":"generator_hayao/conv01_1/bias","shape":[64],"dtype":"float32","quantization":{"min":-5.897764782168772e-8,"scale":1.2287009962851608e-9,"dtype":"uint8"}},{"name":"generator_hayao/in01_1/gamma","shape":[64],"dtype":"float32","quantization":{"min":0.06785406172275543,"scale":0.0035906110908470903,"dtype":"uint8"}},{"name":"generator_hayao/conv02_1/kernel","shape":[3,3,64,128],"dtype":"float32","quantization":{"min":-0.09888270882999196,"scale":0.0007725211627343122,"dtype":"uint8"}},{"name":"generator_hayao/conv02_1/bias","shape":[128],"dtype":"float32","quantization":{"min":-1.2150080358290271e-7,"scale":9.418666944411064e-10,"dtype":"uint8"}},{"name":"generator_hayao/conv02_2/kernel","shape":[3,3,128,128],"dtype":"float32","quantization":{"min":-0.08993903503698462,"scale":0.0006813563260377623,"dtype":"uint8"}},{"name":"generator_hayao/conv02_2/bias","shape":[128],"dtype":"float32","quantization":{"min":-3.935023977252219e-8,"scale":2.6409556894310193e-10,"dtype":"uint8"}},{"name":"generator_hayao/in02_1/gamma","shape":[128],"dtype":"float32","quantization":{"min":0.05554480105638504,"scale":0.003655419133457483,"dtype":"uint8"}},{"name":"generator_hayao/conv03_1/kernel","shape":[3,3,128,256],"dtype":"float32","quantization":{"min":-0.09548577119906743,"scale":0.0007518564661343892,"dtype":"uint8"}},{"name":"generator_hayao/conv03_1/bias","shape":[256],"dtype":"float32","quantization":{"min":-1.527897241511014e-7,"scale":1.2126168583420746e-9,"dtype":"uint8"}},{"name":"generator_hayao/conv03_2/kernel","shape":[3,3,256,256],"dtype":"float32","quantization":{"min":-0.10988182504387463,"scale":0.0008517970933633692,"dtype":"uint8"}},{"name":"generator_hayao/conv03_2/bias","shape":[256],"dtype":"float32","quantization":{"min":-1.5695079146577845e-8,"scale":1.1712745631774511e-10,"dtype":"uint8"}},{"name":"generator_hayao/in03_1/gamma","shape":[256],"dtype":"float32","quantization":{"min":0.06760632991790771,"scale":0.003594035494561289,"dtype":"uint8"}},{"name":"generator_hayao/deconv01_1/bias","shape":[128],"dtype":"float32","quantization":{"min":-1.7258004297272077e-7,"scale":1.259708342866575e-9,"dtype":"uint8"}},{"name":"generator_hayao/deconv01_2/kernel","shape":[3,3,128,128],"dtype":"float32","quantization":{"min":-0.08729832768440247,"scale":0.000704018771648407,"dtype":"uint8"}},{"name":"generator_hayao/deconv01_2/bias","shape":[128],"dtype":"float32","quantization":{"min":-8.486240520757265e-9,"scale":7.071867100631054e-11,"dtype":"uint8"}},{"name":"generator_hayao/in12_1/gamma","shape":[128],"dtype":"float32","quantization":{"min":0.06816290318965912,"scale":0.0035835834694843667,"dtype":"uint8"}},{"name":"generator_hayao/deconv01_1/strided_slice_3/stack","shape":[3],"dtype":"int32","quantization":{"min":0,"scale":0.00392156862745098,"dtype":"uint8"}},{"name":"generator_hayao/deconv01_1/strided_slice_3/stack_1","shape":[3],"dtype":"int32","quantization":{"min":0,"scale":1,"dtype":"uint8"}},{"name":"generator_hayao/deconv01_1/strided_slice_3/stack_2","shape":[3],"dtype":"int32","quantization":{"min":1,"scale":1,"dtype":"uint8"}},{"name":"generator_hayao/deconv02_1/bias","shape":[64],"dtype":"float32","quantization":{"min":-9.201417382802688e-8,"scale":7.420497889357007e-10,"dtype":"uint8"}},{"name":"generator_hayao/Pad_15/paddings","shape":[4,2],"dtype":"int32","quantization":{"min":0,"scale":0.00392156862745098,"dtype":"uint8"}},{"name":"generator_hayao/deconv02_2/kernel","shape":[3,3,64,64],"dtype":"float32","quantization":{"min":-0.09471032011742685,"scale":0.0007399243759173972,"dtype":"uint8"}},{"name":"generator_hayao/deconv02_2/bias","shape":[64],"dtype":"float32","quantization":{"min":-6.692572706394155e-8,"scale":5.624010677642147e-10,"dtype":"uint8"}},{"name":"generator_hayao/in11_1/moments/mean/reduction_indices","shape":[2],"dtype":"int32","quantization":{"min":1,"scale":0.00392156862745098,"dtype":"uint8"}},{"name":"generator_hayao/in11_1/instancenorm/add/y","shape":[],"dtype":"float32","quantization":{"min":9.999999717180685e-10,"scale":1,"dtype":"uint8"}},{"name":"generator_hayao/in13_1/gamma","shape":[64],"dtype":"float32","quantization":{"min":0.031936489045619965,"scale":0.003654413275858935,"dtype":"uint8"}},{"name":"generator_hayao/Pad/paddings","shape":[4,2],"dtype":"int32","quantization":{"min":0,"scale":0.011764705882352941,"dtype":"uint8"}},{"name":"generator_hayao/deconv03_1/kernel","shape":[7,7,64,3],"dtype":"float32","quantization":{"min":-0.42063727332096473,"scale":0.0032356713332381904,"dtype":"uint8"}},{"name":"generator_hayao/deconv03_1/bias","shape":[3],"dtype":"float32","quantization":{"min":-2.5353250549085037e-8,"scale":2.7557881031614173e-10,"dtype":"uint8"}}]}]}