{"modelTopology":{"node":[{"input":[],"attr":{"value":{"tensor":{"floatVal":[],"doubleVal":[],"intVal":[],"stringVal":[],"scomplexVal":[],"int64Val":[],"boolVal":[],"uint32Val":[],"uint64Val":[],"dtype":1,"tensorShape":{"dim":[{"size":"64"}]}}},"dtype":{"type":1}},"name":"generator_paprika/in13_1/beta","op":"Const"},{"input":[],"attr":{"dtype":{"type":3},"value":{"tensor":{"floatVal":[],"doubleVal":[],"intVal":[],"stringVal":[],"scomplexVal":[],"int64Val":[],"boolVal":[],"uint32Val":[],"uint64Val":[],"dtype":3,"tensorShape":{"dim":[]}}}},"name":"generator_paprika/deconv02_1/conv2d_transpose/output_shape/3","op":"Const"},{"input":[],"attr":{"value":{"tensor":{"floatVal":[],"doubleVal":[],"intVal":[],"stringVal":[],"scomplexVal":[],"int64Val":[],"boolVal":[],"uint32Val":[],"uint64Val":[],"dtype":1,"tensorShape":{"dim":[{"size":"3"},{"size":"3"},{"size":"64"},{"size":"128"}]}}},"dtype":{"type":1}},"name":"generator_paprika/deconv02_1/kernel","op":"Const"},{"input":[],"attr":{"value":{"tensor":{"floatVal":[],"doubleVal":[],"intVal":[],"stringVal":[],"scomplexVal":[],"int64Val":[],"boolVal":[],"uint32Val":[],"uint64Val":[],"dtype":1,"tensorShape":{"dim":[{"size":"128"}]}}},"dtype":{"type":1}},"name":"generator_paprika/in12_1/beta","op":"Const"},{"input":[],"attr":{"value":{"tensor":{"floatVal":[],"doubleVal":[],"intVal":[],"stringVal":[],"scomplexVal":[],"int64Val":[],"boolVal":[],"uint32Val":[],"uint64Val":[],"dtype":3,"tensorShape":{"dim":[{"size":"1"}]}}},"dtype":{"type":3}},"name":"generator_paprika/deconv02_1/strided_slice/stack","op":"Const"},{"input":[],"attr":{"dtype":{"type":3},"value":{"tensor":{"floatVal":[],"doubleVal":[],"intVal":[],"stringVal":[],"scomplexVal":[],"int64Val":[],"boolVal":[],"uint32Val":[],"uint64Val":[],"dtype":3,"tensorShape":{"dim":[{"size":"1"}]}}}},"name":"generator_paprika/deconv02_1/strided_slice_1/stack_1","op":"Const"},{"input":[],"attr":{"value":{"tensor":{"floatVal":[],"doubleVal":[],"intVal":[],"stringVal":[],"scomplexVal":[],"int64Val":[],"boolVal":[],"uint32Val":[],"uint64Val":[],"dtype":3,"tensorShape":{"dim":[{"size":"1"}]}}},"dtype":{"type":3}},"name":"generator_paprika/deconv02_1/strided_slice_2/stack_1","op":"Const"},{"input":[],"attr":{"value":{"tensor":{"floatVal":[],"doubleVal":[],"intVal":[],"stringVal":[],"scomplexVal":[],"int64Val":[],"boolVal":[],"uint32Val":[],"uint64Val":[],"dtype":3,"tensorShape":{"dim":[{"size":"1"}]}}},"dtype":{"type":3}},"name":"generator_paprika/deconv02_1/strided_slice/stack_1","op":"Const"},{"input":[],"attr":{"value":{"tensor":{"floatVal":[],"doubleVal":[],"intVal":[],"stringVal":[],"scomplexVal":[],"int64Val":[],"boolVal":[],"uint32Val":[],"uint64Val":[],"dtype":3,"tensorShape":{"dim":[]}}},"dtype":{"type":3}},"name":"generator_paprika/deconv02_1/mul/y","op":"Const"},{"input":[],"attr":{"value":{"tensor":{"floatVal":[],"doubleVal":[],"intVal":[],"stringVal":[],"scomplexVal":[],"int64Val":[],"boolVal":[],"uint32Val":[],"uint64Val":[],"dtype":3,"tensorShape":{"dim":[]}}},"dtype":{"type":3}},"name":"generator_paprika/deconv02_1/add/y","op":"Const"},{"input":[],"attr":{"value":{"tensor":{"floatVal":[],"doubleVal":[],"intVal":[],"stringVal":[],"scomplexVal":[],"int64Val":[],"boolVal":[],"uint32Val":[],"uint64Val":[],"dtype":3,"tensorShape":{"dim":[]}}},"dtype":{"type":3}},"name":"generator_paprika/deconv01_1/conv2d_transpose/output_shape/3","op":"Const"},{"input":[],"attr":{"value":{"tensor":{"floatVal":[],"doubleVal":[],"intVal":[],"stringVal":[],"scomplexVal":[],"int64Val":[],"boolVal":[],"uint32Val":[],"uint64Val":[],"dtype":1,"tensorShape":{"dim":[{"size":"3"},{"size":"3"},{"size":"128"},{"size":"256"}]}}},"dtype":{"type":1}},"name":"generator_paprika/deconv01_1/kernel","op":"Const"},{"input":[],"attr":{"value":{"tensor":{"floatVal":[],"doubleVal":[],"intVal":[],"stringVal":[],"scomplexVal":[],"int64Val":[],"boolVal":[],"uint32Val":[],"uint64Val":[],"dtype":1,"tensorShape":{"dim":[{"size":"256"}]}}},"dtype":{"type":1}},"name":"generator_paprika/in11_2/beta","op":"Const"},{"input":[],"attr":{"value":{"tensor":{"floatVal":[],"doubleVal":[],"intVal":[],"stringVal":[],"scomplexVal":[],"int64Val":[],"boolVal":[],"uint32Val":[],"uint64Val":[],"dtype":1,"tensorShape":{"dim":[{"size":"256"}]}}},"dtype":{"type":1}},"name":"generator_paprika/in11_1/beta","op":"Const"},{"input":[],"attr":{"value":{"tensor":{"floatVal":[],"doubleVal":[],"intVal":[],"stringVal":[],"scomplexVal":[],"int64Val":[],"boolVal":[],"uint32Val":[],"uint64Val":[],"dtype":1,"tensorShape":{"dim":[{"size":"3"},{"size":"3"},{"size":"256"},{"size":"256"}]}}},"dtype":{"type":1}},"name":"generator_paprika/conv11_1/kernel","op":"Const"},{"input":[],"attr":{"value":{"tensor":{"floatVal":[],"doubleVal":[],"intVal":[],"stringVal":[],"scomplexVal":[],"int64Val":[],"boolVal":[],"uint32Val":[],"uint64Val":[],"dtype":1,"tensorShape":{"dim":[{"size":"256"}]}}},"dtype":{"type":1}},"name":"generator_paprika/conv11_1/bias","op":"Const"},{"input":[],"attr":{"value":{"tensor":{"floatVal":[],"doubleVal":[],"intVal":[],"stringVal":[],"scomplexVal":[],"int64Val":[],"boolVal":[],"uint32Val":[],"uint64Val":[],"dtype":1,"tensorShape":{"dim":[{"size":"256"}]}}},"dtype":{"type":1}},"name":"generator_paprika/in11_1/gamma","op":"Const"},{"input":[],"attr":{"value":{"tensor":{"floatVal":[],"doubleVal":[],"intVal":[],"stringVal":[],"scomplexVal":[],"int64Val":[],"boolVal":[],"uint32Val":[],"uint64Val":[],"dtype":1,"tensorShape":{"dim":[{"size":"3"},{"size":"3"},{"size":"256"},{"size":"256"}]}}},"dtype":{"type":1}},"name":"generator_paprika/conv11_2/kernel","op":"Const"},{"input":[],"attr":{"dtype":{"type":1},"value":{"tensor":{"floatVal":[],"doubleVal":[],"intVal":[],"stringVal":[],"scomplexVal":[],"int64Val":[],"boolVal":[],"uint32Val":[],"uint64Val":[],"dtype":1,"tensorShape":{"dim":[{"size":"256"}]}}}},"name":"generator_paprika/conv11_2/bias","op":"Const"},{"input":[],"attr":{"value":{"tensor":{"floatVal":[],"doubleVal":[],"intVal":[],"stringVal":[],"scomplexVal":[],"int64Val":[],"boolVal":[],"uint32Val":[],"uint64Val":[],"dtype":1,"tensorShape":{"dim":[{"size":"256"}]}}},"dtype":{"type":1}},"name":"generator_paprika/in11_2/gamma","op":"Const"},{"input":[],"attr":{"dtype":{"type":1},"value":{"tensor":{"floatVal":[],"doubleVal":[],"intVal":[],"stringVal":[],"scomplexVal":[],"int64Val":[],"boolVal":[],"uint32Val":[],"uint64Val":[],"dtype":1,"tensorShape":{"dim":[{"size":"256"}]}}}},"name":"generator_paprika/in10_2/beta","op":"Const"},{"input":[],"attr":{"value":{"tensor":{"floatVal":[],"doubleVal":[],"intVal":[],"stringVal":[],"scomplexVal":[],"int64Val":[],"boolVal":[],"uint32Val":[],"uint64Val":[],"dtype":1,"tensorShape":{"dim":[{"size":"256"}]}}},"dtype":{"type":1}},"name":"generator_paprika/in10_1/beta","op":"Const"},{"input":[],"attr":{"dtype":{"type":1},"value":{"tensor":{"floatVal":[],"doubleVal":[],"intVal":[],"stringVal":[],"scomplexVal":[],"int64Val":[],"boolVal":[],"uint32Val":[],"uint64Val":[],"dtype":1,"tensorShape":{"dim":[{"size":"3"},{"size":"3"},{"size":"256"},{"size":"256"}]}}}},"name":"generator_paprika/conv10_1/kernel","op":"Const"},{"input":[],"attr":{"value":{"tensor":{"floatVal":[],"doubleVal":[],"intVal":[],"stringVal":[],"scomplexVal":[],"int64Val":[],"boolVal":[],"uint32Val":[],"uint64Val":[],"dtype":1,"tensorShape":{"dim":[{"size":"256"}]}}},"dtype":{"type":1}},"name":"generator_paprika/conv10_1/bias","op":"Const"},{"input":[],"attr":{"value":{"tensor":{"floatVal":[],"doubleVal":[],"intVal":[],"stringVal":[],"scomplexVal":[],"int64Val":[],"boolVal":[],"uint32Val":[],"uint64Val":[],"dtype":1,"tensorShape":{"dim":[{"size":"256"}]}}},"dtype":{"type":1}},"name":"generator_paprika/in10_1/gamma","op":"Const"},{"input":[],"attr":{"value":{"tensor":{"floatVal":[],"doubleVal":[],"intVal":[],"stringVal":[],"scomplexVal":[],"int64Val":[],"boolVal":[],"uint32Val":[],"uint64Val":[],"dtype":1,"tensorShape":{"dim":[{"size":"3"},{"size":"3"},{"size":"256"},{"size":"256"}]}}},"dtype":{"type":1}},"name":"generator_paprika/conv10_2/kernel","op":"Const"},{"input":[],"attr":{"dtype":{"type":1},"value":{"tensor":{"floatVal":[],"doubleVal":[],"intVal":[],"stringVal":[],"scomplexVal":[],"int64Val":[],"boolVal":[],"uint32Val":[],"uint64Val":[],"dtype":1,"tensorShape":{"dim":[{"size":"256"}]}}}},"name":"generator_paprika/conv10_2/bias","op":"Const"},{"input":[],"attr":{"value":{"tensor":{"floatVal":[],"doubleVal":[],"intVal":[],"stringVal":[],"scomplexVal":[],"int64Val":[],"boolVal":[],"uint32Val":[],"uint64Val":[],"dtype":1,"tensorShape":{"dim":[{"size":"256"}]}}},"dtype":{"type":1}},"name":"generator_paprika/in10_2/gamma","op":"Const"},{"input":[],"attr":{"value":{"tensor":{"floatVal":[],"doubleVal":[],"intVal":[],"stringVal":[],"scomplexVal":[],"int64Val":[],"boolVal":[],"uint32Val":[],"uint64Val":[],"dtype":1,"tensorShape":{"dim":[{"size":"256"}]}}},"dtype":{"type":1}},"name":"generator_paprika/in09_2/beta","op":"Const"},{"input":[],"attr":{"value":{"tensor":{"floatVal":[],"doubleVal":[],"intVal":[],"stringVal":[],"scomplexVal":[],"int64Val":[],"boolVal":[],"uint32Val":[],"uint64Val":[],"dtype":1,"tensorShape":{"dim":[{"size":"256"}]}}},"dtype":{"type":1}},"name":"generator_paprika/in09_1/beta","op":"Const"},{"input":[],"attr":{"value":{"tensor":{"floatVal":[],"doubleVal":[],"intVal":[],"stringVal":[],"scomplexVal":[],"int64Val":[],"boolVal":[],"uint32Val":[],"uint64Val":[],"dtype":1,"tensorShape":{"dim":[{"size":"3"},{"size":"3"},{"size":"256"},{"size":"256"}]}}},"dtype":{"type":1}},"name":"generator_paprika/conv09_1/kernel","op":"Const"},{"input":[],"attr":{"value":{"tensor":{"floatVal":[],"doubleVal":[],"intVal":[],"stringVal":[],"scomplexVal":[],"int64Val":[],"boolVal":[],"uint32Val":[],"uint64Val":[],"dtype":1,"tensorShape":{"dim":[{"size":"256"}]}}},"dtype":{"type":1}},"name":"generator_paprika/conv09_1/bias","op":"Const"},{"input":[],"attr":{"dtype":{"type":1},"value":{"tensor":{"floatVal":[],"doubleVal":[],"intVal":[],"stringVal":[],"scomplexVal":[],"int64Val":[],"boolVal":[],"uint32Val":[],"uint64Val":[],"dtype":1,"tensorShape":{"dim":[{"size":"256"}]}}}},"name":"generator_paprika/in09_1/gamma","op":"Const"},{"input":[],"attr":{"value":{"tensor":{"floatVal":[],"doubleVal":[],"intVal":[],"stringVal":[],"scomplexVal":[],"int64Val":[],"boolVal":[],"uint32Val":[],"uint64Val":[],"dtype":1,"tensorShape":{"dim":[{"size":"3"},{"size":"3"},{"size":"256"},{"size":"256"}]}}},"dtype":{"type":1}},"name":"generator_paprika/conv09_2/kernel","op":"Const"},{"input":[],"attr":{"dtype":{"type":1},"value":{"tensor":{"floatVal":[],"doubleVal":[],"intVal":[],"stringVal":[],"scomplexVal":[],"int64Val":[],"boolVal":[],"uint32Val":[],"uint64Val":[],"dtype":1,"tensorShape":{"dim":[{"size":"256"}]}}}},"name":"generator_paprika/conv09_2/bias","op":"Const"},{"input":[],"attr":{"value":{"tensor":{"floatVal":[],"doubleVal":[],"intVal":[],"stringVal":[],"scomplexVal":[],"int64Val":[],"boolVal":[],"uint32Val":[],"uint64Val":[],"dtype":1,"tensorShape":{"dim":[{"size":"256"}]}}},"dtype":{"type":1}},"name":"generator_paprika/in09_2/gamma","op":"Const"},{"input":[],"attr":{"value":{"tensor":{"floatVal":[],"doubleVal":[],"intVal":[],"stringVal":[],"scomplexVal":[],"int64Val":[],"boolVal":[],"uint32Val":[],"uint64Val":[],"dtype":1,"tensorShape":{"dim":[{"size":"256"}]}}},"dtype":{"type":1}},"name":"generator_paprika/in08_2/beta","op":"Const"},{"input":[],"attr":{"value":{"tensor":{"floatVal":[],"doubleVal":[],"intVal":[],"stringVal":[],"scomplexVal":[],"int64Val":[],"boolVal":[],"uint32Val":[],"uint64Val":[],"dtype":1,"tensorShape":{"dim":[{"size":"256"}]}}},"dtype":{"type":1}},"name":"generator_paprika/in08_1/beta","op":"Const"},{"input":[],"attr":{"value":{"tensor":{"floatVal":[],"doubleVal":[],"intVal":[],"stringVal":[],"scomplexVal":[],"int64Val":[],"boolVal":[],"uint32Val":[],"uint64Val":[],"dtype":1,"tensorShape":{"dim":[{"size":"3"},{"size":"3"},{"size":"256"},{"size":"256"}]}}},"dtype":{"type":1}},"name":"generator_paprika/conv08_1/kernel","op":"Const"},{"input":[],"attr":{"value":{"tensor":{"floatVal":[],"doubleVal":[],"intVal":[],"stringVal":[],"scomplexVal":[],"int64Val":[],"boolVal":[],"uint32Val":[],"uint64Val":[],"dtype":1,"tensorShape":{"dim":[{"size":"256"}]}}},"dtype":{"type":1}},"name":"generator_paprika/conv08_1/bias","op":"Const"},{"input":[],"attr":{"dtype":{"type":1},"value":{"tensor":{"floatVal":[],"doubleVal":[],"intVal":[],"stringVal":[],"scomplexVal":[],"int64Val":[],"boolVal":[],"uint32Val":[],"uint64Val":[],"dtype":1,"tensorShape":{"dim":[{"size":"256"}]}}}},"name":"generator_paprika/in08_1/gamma","op":"Const"},{"input":[],"attr":{"value":{"tensor":{"floatVal":[],"doubleVal":[],"intVal":[],"stringVal":[],"scomplexVal":[],"int64Val":[],"boolVal":[],"uint32Val":[],"uint64Val":[],"dtype":1,"tensorShape":{"dim":[{"size":"3"},{"size":"3"},{"size":"256"},{"size":"256"}]}}},"dtype":{"type":1}},"name":"generator_paprika/conv08_2/kernel","op":"Const"},{"input":[],"attr":{"value":{"tensor":{"floatVal":[],"doubleVal":[],"intVal":[],"stringVal":[],"scomplexVal":[],"int64Val":[],"boolVal":[],"uint32Val":[],"uint64Val":[],"dtype":1,"tensorShape":{"dim":[{"size":"256"}]}}},"dtype":{"type":1}},"name":"generator_paprika/conv08_2/bias","op":"Const"},{"input":[],"attr":{"value":{"tensor":{"floatVal":[],"doubleVal":[],"intVal":[],"stringVal":[],"scomplexVal":[],"int64Val":[],"boolVal":[],"uint32Val":[],"uint64Val":[],"dtype":1,"tensorShape":{"dim":[{"size":"256"}]}}},"dtype":{"type":1}},"name":"generator_paprika/in08_2/gamma","op":"Const"},{"input":[],"attr":{"value":{"tensor":{"floatVal":[],"doubleVal":[],"intVal":[],"stringVal":[],"scomplexVal":[],"int64Val":[],"boolVal":[],"uint32Val":[],"uint64Val":[],"dtype":1,"tensorShape":{"dim":[{"size":"256"}]}}},"dtype":{"type":1}},"name":"generator_paprika/in07_2/beta","op":"Const"},{"input":[],"attr":{"value":{"tensor":{"floatVal":[],"doubleVal":[],"intVal":[],"stringVal":[],"scomplexVal":[],"int64Val":[],"boolVal":[],"uint32Val":[],"uint64Val":[],"dtype":1,"tensorShape":{"dim":[{"size":"256"}]}}},"dtype":{"type":1}},"name":"generator_paprika/in07_1/beta","op":"Const"},{"input":[],"attr":{"value":{"tensor":{"floatVal":[],"doubleVal":[],"intVal":[],"stringVal":[],"scomplexVal":[],"int64Val":[],"boolVal":[],"uint32Val":[],"uint64Val":[],"dtype":1,"tensorShape":{"dim":[{"size":"3"},{"size":"3"},{"size":"256"},{"size":"256"}]}}},"dtype":{"type":1}},"name":"generator_paprika/conv07_1/kernel","op":"Const"},{"input":[],"attr":{"value":{"tensor":{"floatVal":[],"doubleVal":[],"intVal":[],"stringVal":[],"scomplexVal":[],"int64Val":[],"boolVal":[],"uint32Val":[],"uint64Val":[],"dtype":1,"tensorShape":{"dim":[{"size":"256"}]}}},"dtype":{"type":1}},"name":"generator_paprika/conv07_1/bias","op":"Const"},{"input":[],"attr":{"value":{"tensor":{"floatVal":[],"doubleVal":[],"intVal":[],"stringVal":[],"scomplexVal":[],"int64Val":[],"boolVal":[],"uint32Val":[],"uint64Val":[],"dtype":1,"tensorShape":{"dim":[{"size":"256"}]}}},"dtype":{"type":1}},"name":"generator_paprika/in07_1/gamma","op":"Const"},{"input":[],"attr":{"value":{"tensor":{"floatVal":[],"doubleVal":[],"intVal":[],"stringVal":[],"scomplexVal":[],"int64Val":[],"boolVal":[],"uint32Val":[],"uint64Val":[],"dtype":1,"tensorShape":{"dim":[{"size":"3"},{"size":"3"},{"size":"256"},{"size":"256"}]}}},"dtype":{"type":1}},"name":"generator_paprika/conv07_2/kernel","op":"Const"},{"input":[],"attr":{"value":{"tensor":{"floatVal":[],"doubleVal":[],"intVal":[],"stringVal":[],"scomplexVal":[],"int64Val":[],"boolVal":[],"uint32Val":[],"uint64Val":[],"dtype":1,"tensorShape":{"dim":[{"size":"256"}]}}},"dtype":{"type":1}},"name":"generator_paprika/conv07_2/bias","op":"Const"},{"input":[],"attr":{"value":{"tensor":{"floatVal":[],"doubleVal":[],"intVal":[],"stringVal":[],"scomplexVal":[],"int64Val":[],"boolVal":[],"uint32Val":[],"uint64Val":[],"dtype":1,"tensorShape":{"dim":[{"size":"256"}]}}},"dtype":{"type":1}},"name":"generator_paprika/in07_2/gamma","op":"Const"},{"input":[],"attr":{"dtype":{"type":1},"value":{"tensor":{"floatVal":[],"doubleVal":[],"intVal":[],"stringVal":[],"scomplexVal":[],"int64Val":[],"boolVal":[],"uint32Val":[],"uint64Val":[],"dtype":1,"tensorShape":{"dim":[{"size":"256"}]}}}},"name":"generator_paprika/in06_2/beta","op":"Const"},{"input":[],"attr":{"value":{"tensor":{"floatVal":[],"doubleVal":[],"intVal":[],"stringVal":[],"scomplexVal":[],"int64Val":[],"boolVal":[],"uint32Val":[],"uint64Val":[],"dtype":1,"tensorShape":{"dim":[{"size":"256"}]}}},"dtype":{"type":1}},"name":"generator_paprika/in06_1/beta","op":"Const"},{"input":[],"attr":{"value":{"tensor":{"floatVal":[],"doubleVal":[],"intVal":[],"stringVal":[],"scomplexVal":[],"int64Val":[],"boolVal":[],"uint32Val":[],"uint64Val":[],"dtype":1,"tensorShape":{"dim":[{"size":"3"},{"size":"3"},{"size":"256"},{"size":"256"}]}}},"dtype":{"type":1}},"name":"generator_paprika/conv06_1/kernel","op":"Const"},{"input":[],"attr":{"value":{"tensor":{"floatVal":[],"doubleVal":[],"intVal":[],"stringVal":[],"scomplexVal":[],"int64Val":[],"boolVal":[],"uint32Val":[],"uint64Val":[],"dtype":1,"tensorShape":{"dim":[{"size":"256"}]}}},"dtype":{"type":1}},"name":"generator_paprika/conv06_1/bias","op":"Const"},{"input":[],"attr":{"value":{"tensor":{"floatVal":[],"doubleVal":[],"intVal":[],"stringVal":[],"scomplexVal":[],"int64Val":[],"boolVal":[],"uint32Val":[],"uint64Val":[],"dtype":1,"tensorShape":{"dim":[{"size":"256"}]}}},"dtype":{"type":1}},"name":"generator_paprika/in06_1/gamma","op":"Const"},{"input":[],"attr":{"value":{"tensor":{"floatVal":[],"doubleVal":[],"intVal":[],"stringVal":[],"scomplexVal":[],"int64Val":[],"boolVal":[],"uint32Val":[],"uint64Val":[],"dtype":1,"tensorShape":{"dim":[{"size":"3"},{"size":"3"},{"size":"256"},{"size":"256"}]}}},"dtype":{"type":1}},"name":"generator_paprika/conv06_2/kernel","op":"Const"},{"input":[],"attr":{"value":{"tensor":{"floatVal":[],"doubleVal":[],"intVal":[],"stringVal":[],"scomplexVal":[],"int64Val":[],"boolVal":[],"uint32Val":[],"uint64Val":[],"dtype":1,"tensorShape":{"dim":[{"size":"256"}]}}},"dtype":{"type":1}},"name":"generator_paprika/conv06_2/bias","op":"Const"},{"input":[],"attr":{"value":{"tensor":{"floatVal":[],"doubleVal":[],"intVal":[],"stringVal":[],"scomplexVal":[],"int64Val":[],"boolVal":[],"uint32Val":[],"uint64Val":[],"dtype":1,"tensorShape":{"dim":[{"size":"256"}]}}},"dtype":{"type":1}},"name":"generator_paprika/in06_2/gamma","op":"Const"},{"input":[],"attr":{"value":{"tensor":{"floatVal":[],"doubleVal":[],"intVal":[],"stringVal":[],"scomplexVal":[],"int64Val":[],"boolVal":[],"uint32Val":[],"uint64Val":[],"dtype":1,"tensorShape":{"dim":[{"size":"256"}]}}},"dtype":{"type":1}},"name":"generator_paprika/in05_2/beta","op":"Const"},{"input":[],"attr":{"value":{"tensor":{"floatVal":[],"doubleVal":[],"intVal":[],"stringVal":[],"scomplexVal":[],"int64Val":[],"boolVal":[],"uint32Val":[],"uint64Val":[],"dtype":1,"tensorShape":{"dim":[{"size":"256"}]}}},"dtype":{"type":1}},"name":"generator_paprika/in05_1/beta","op":"Const"},{"input":[],"attr":{"value":{"tensor":{"floatVal":[],"doubleVal":[],"intVal":[],"stringVal":[],"scomplexVal":[],"int64Val":[],"boolVal":[],"uint32Val":[],"uint64Val":[],"dtype":1,"tensorShape":{"dim":[{"size":"3"},{"size":"3"},{"size":"256"},{"size":"256"}]}}},"dtype":{"type":1}},"name":"generator_paprika/conv05_1/kernel","op":"Const"},{"input":[],"attr":{"value":{"tensor":{"floatVal":[],"doubleVal":[],"intVal":[],"stringVal":[],"scomplexVal":[],"int64Val":[],"boolVal":[],"uint32Val":[],"uint64Val":[],"dtype":1,"tensorShape":{"dim":[{"size":"256"}]}}},"dtype":{"type":1}},"name":"generator_paprika/conv05_1/bias","op":"Const"},{"input":[],"attr":{"value":{"tensor":{"floatVal":[],"doubleVal":[],"intVal":[],"stringVal":[],"scomplexVal":[],"int64Val":[],"boolVal":[],"uint32Val":[],"uint64Val":[],"dtype":1,"tensorShape":{"dim":[{"size":"256"}]}}},"dtype":{"type":1}},"name":"generator_paprika/in05_1/gamma","op":"Const"},{"input":[],"attr":{"value":{"tensor":{"floatVal":[],"doubleVal":[],"intVal":[],"stringVal":[],"scomplexVal":[],"int64Val":[],"boolVal":[],"uint32Val":[],"uint64Val":[],"dtype":1,"tensorShape":{"dim":[{"size":"3"},{"size":"3"},{"size":"256"},{"size":"256"}]}}},"dtype":{"type":1}},"name":"generator_paprika/conv05_2/kernel","op":"Const"},{"input":[],"attr":{"value":{"tensor":{"floatVal":[],"doubleVal":[],"intVal":[],"stringVal":[],"scomplexVal":[],"int64Val":[],"boolVal":[],"uint32Val":[],"uint64Val":[],"dtype":1,"tensorShape":{"dim":[{"size":"256"}]}}},"dtype":{"type":1}},"name":"generator_paprika/conv05_2/bias","op":"Const"},{"input":[],"attr":{"value":{"tensor":{"floatVal":[],"doubleVal":[],"intVal":[],"stringVal":[],"scomplexVal":[],"int64Val":[],"boolVal":[],"uint32Val":[],"uint64Val":[],"dtype":1,"tensorShape":{"dim":[{"size":"256"}]}}},"dtype":{"type":1}},"name":"generator_paprika/in05_2/gamma","op":"Const"},{"input":[],"attr":{"value":{"tensor":{"floatVal":[],"doubleVal":[],"intVal":[],"stringVal":[],"scomplexVal":[],"int64Val":[],"boolVal":[],"uint32Val":[],"uint64Val":[],"dtype":1,"tensorShape":{"dim":[{"size":"256"}]}}},"dtype":{"type":1}},"name":"generator_paprika/in04_2/beta","op":"Const"},{"input":[],"attr":{"value":{"tensor":{"floatVal":[],"doubleVal":[],"intVal":[],"stringVal":[],"scomplexVal":[],"int64Val":[],"boolVal":[],"uint32Val":[],"uint64Val":[],"dtype":1,"tensorShape":{"dim":[{"size":"256"}]}}},"dtype":{"type":1}},"name":"generator_paprika/in04_1/beta","op":"Const"},{"input":[],"attr":{"value":{"tensor":{"floatVal":[],"doubleVal":[],"intVal":[],"stringVal":[],"scomplexVal":[],"int64Val":[],"boolVal":[],"uint32Val":[],"uint64Val":[],"dtype":1,"tensorShape":{"dim":[{"size":"3"},{"size":"3"},{"size":"256"},{"size":"256"}]}}},"dtype":{"type":1}},"name":"generator_paprika/conv04_1/kernel","op":"Const"},{"input":[],"attr":{"value":{"tensor":{"floatVal":[],"doubleVal":[],"intVal":[],"stringVal":[],"scomplexVal":[],"int64Val":[],"boolVal":[],"uint32Val":[],"uint64Val":[],"dtype":1,"tensorShape":{"dim":[{"size":"256"}]}}},"dtype":{"type":1}},"name":"generator_paprika/conv04_1/bias","op":"Const"},{"input":[],"attr":{"value":{"tensor":{"floatVal":[],"doubleVal":[],"intVal":[],"stringVal":[],"scomplexVal":[],"int64Val":[],"boolVal":[],"uint32Val":[],"uint64Val":[],"dtype":1,"tensorShape":{"dim":[{"size":"256"}]}}},"dtype":{"type":1}},"name":"generator_paprika/in04_1/gamma","op":"Const"},{"input":[],"attr":{"value":{"tensor":{"floatVal":[],"doubleVal":[],"intVal":[],"stringVal":[],"scomplexVal":[],"int64Val":[],"boolVal":[],"uint32Val":[],"uint64Val":[],"dtype":1,"tensorShape":{"dim":[{"size":"3"},{"size":"3"},{"size":"256"},{"size":"256"}]}}},"dtype":{"type":1}},"name":"generator_paprika/conv04_2/kernel","op":"Const"},{"input":[],"attr":{"dtype":{"type":1},"value":{"tensor":{"floatVal":[],"doubleVal":[],"intVal":[],"stringVal":[],"scomplexVal":[],"int64Val":[],"boolVal":[],"uint32Val":[],"uint64Val":[],"dtype":1,"tensorShape":{"dim":[{"size":"256"}]}}}},"name":"generator_paprika/conv04_2/bias","op":"Const"},{"input":[],"attr":{"value":{"tensor":{"floatVal":[],"doubleVal":[],"intVal":[],"stringVal":[],"scomplexVal":[],"int64Val":[],"boolVal":[],"uint32Val":[],"uint64Val":[],"dtype":1,"tensorShape":{"dim":[{"size":"256"}]}}},"dtype":{"type":1}},"name":"generator_paprika/in04_2/gamma","op":"Const"},{"input":[],"attr":{"dtype":{"type":1},"value":{"tensor":{"floatVal":[],"doubleVal":[],"intVal":[],"stringVal":[],"scomplexVal":[],"int64Val":[],"boolVal":[],"uint32Val":[],"uint64Val":[],"dtype":1,"tensorShape":{"dim":[{"size":"256"}]}}}},"name":"generator_paprika/in03_1/beta","op":"Const"},{"input":[],"attr":{"value":{"tensor":{"floatVal":[],"doubleVal":[],"intVal":[],"stringVal":[],"scomplexVal":[],"int64Val":[],"boolVal":[],"uint32Val":[],"uint64Val":[],"dtype":1,"tensorShape":{"dim":[{"size":"128"}]}}},"dtype":{"type":1}},"name":"generator_paprika/in02_1/beta","op":"Const"},{"input":[],"attr":{"value":{"tensor":{"floatVal":[],"doubleVal":[],"intVal":[],"stringVal":[],"scomplexVal":[],"int64Val":[],"boolVal":[],"uint32Val":[],"uint64Val":[],"dtype":1,"tensorShape":{"dim":[{"size":"64"}]}}},"dtype":{"type":1}},"name":"generator_paprika/in01_1/beta","op":"Const"},{"input":[],"attr":{"value":{"tensor":{"floatVal":[],"doubleVal":[],"intVal":[],"stringVal":[],"scomplexVal":[],"int64Val":[],"boolVal":[],"uint32Val":[],"uint64Val":[],"dtype":1,"tensorShape":{"dim":[{"size":"7"},{"size":"7"},{"size":"3"},{"size":"64"}]}}},"dtype":{"type":1}},"name":"generator_paprika/conv01_1/kernel","op":"Const"},{"input":[],"attr":{"value":{"tensor":{"floatVal":[],"doubleVal":[],"intVal":[],"stringVal":[],"scomplexVal":[],"int64Val":[],"boolVal":[],"uint32Val":[],"uint64Val":[],"dtype":1,"tensorShape":{"dim":[{"size":"64"}]}}},"dtype":{"type":1}},"name":"generator_paprika/conv01_1/bias","op":"Const"},{"input":[],"attr":{"value":{"tensor":{"floatVal":[],"doubleVal":[],"intVal":[],"stringVal":[],"scomplexVal":[],"int64Val":[],"boolVal":[],"uint32Val":[],"uint64Val":[],"dtype":1,"tensorShape":{"dim":[{"size":"64"}]}}},"dtype":{"type":1}},"name":"generator_paprika/in01_1/gamma","op":"Const"},{"input":[],"attr":{"value":{"tensor":{"floatVal":[],"doubleVal":[],"intVal":[],"stringVal":[],"scomplexVal":[],"int64Val":[],"boolVal":[],"uint32Val":[],"uint64Val":[],"dtype":1,"tensorShape":{"dim":[{"size":"3"},{"size":"3"},{"size":"64"},{"size":"128"}]}}},"dtype":{"type":1}},"name":"generator_paprika/conv02_1/kernel","op":"Const"},{"input":[],"attr":{"value":{"tensor":{"floatVal":[],"doubleVal":[],"intVal":[],"stringVal":[],"scomplexVal":[],"int64Val":[],"boolVal":[],"uint32Val":[],"uint64Val":[],"dtype":1,"tensorShape":{"dim":[{"size":"128"}]}}},"dtype":{"type":1}},"name":"generator_paprika/conv02_1/bias","op":"Const"},{"input":[],"attr":{"value":{"tensor":{"floatVal":[],"doubleVal":[],"intVal":[],"stringVal":[],"scomplexVal":[],"int64Val":[],"boolVal":[],"uint32Val":[],"uint64Val":[],"dtype":1,"tensorShape":{"dim":[{"size":"3"},{"size":"3"},{"size":"128"},{"size":"128"}]}}},"dtype":{"type":1}},"name":"generator_paprika/conv02_2/kernel","op":"Const"},{"input":[],"attr":{"value":{"tensor":{"floatVal":[],"doubleVal":[],"intVal":[],"stringVal":[],"scomplexVal":[],"int64Val":[],"boolVal":[],"uint32Val":[],"uint64Val":[],"dtype":1,"tensorShape":{"dim":[{"size":"128"}]}}},"dtype":{"type":1}},"name":"generator_paprika/conv02_2/bias","op":"Const"},{"input":[],"attr":{"value":{"tensor":{"floatVal":[],"doubleVal":[],"intVal":[],"stringVal":[],"scomplexVal":[],"int64Val":[],"boolVal":[],"uint32Val":[],"uint64Val":[],"dtype":1,"tensorShape":{"dim":[{"size":"128"}]}}},"dtype":{"type":1}},"name":"generator_paprika/in02_1/gamma","op":"Const"},{"input":[],"attr":{"value":{"tensor":{"floatVal":[],"doubleVal":[],"intVal":[],"stringVal":[],"scomplexVal":[],"int64Val":[],"boolVal":[],"uint32Val":[],"uint64Val":[],"dtype":1,"tensorShape":{"dim":[{"size":"3"},{"size":"3"},{"size":"128"},{"size":"256"}]}}},"dtype":{"type":1}},"name":"generator_paprika/conv03_1/kernel","op":"Const"},{"input":[],"attr":{"value":{"tensor":{"floatVal":[],"doubleVal":[],"intVal":[],"stringVal":[],"scomplexVal":[],"int64Val":[],"boolVal":[],"uint32Val":[],"uint64Val":[],"dtype":1,"tensorShape":{"dim":[{"size":"256"}]}}},"dtype":{"type":1}},"name":"generator_paprika/conv03_1/bias","op":"Const"},{"input":[],"attr":{"value":{"tensor":{"floatVal":[],"doubleVal":[],"intVal":[],"stringVal":[],"scomplexVal":[],"int64Val":[],"boolVal":[],"uint32Val":[],"uint64Val":[],"dtype":1,"tensorShape":{"dim":[{"size":"3"},{"size":"3"},{"size":"256"},{"size":"256"}]}}},"dtype":{"type":1}},"name":"generator_paprika/conv03_2/kernel","op":"Const"},{"input":[],"attr":{"value":{"tensor":{"floatVal":[],"doubleVal":[],"intVal":[],"stringVal":[],"scomplexVal":[],"int64Val":[],"boolVal":[],"uint32Val":[],"uint64Val":[],"dtype":1,"tensorShape":{"dim":[{"size":"256"}]}}},"dtype":{"type":1}},"name":"generator_paprika/conv03_2/bias","op":"Const"},{"input":[],"attr":{"dtype":{"type":1},"value":{"tensor":{"floatVal":[],"doubleVal":[],"intVal":[],"stringVal":[],"scomplexVal":[],"int64Val":[],"boolVal":[],"uint32Val":[],"uint64Val":[],"dtype":1,"tensorShape":{"dim":[{"size":"256"}]}}}},"name":"generator_paprika/in03_1/gamma","op":"Const"},{"input":[],"attr":{"value":{"tensor":{"floatVal":[],"doubleVal":[],"intVal":[],"stringVal":[],"scomplexVal":[],"int64Val":[],"boolVal":[],"uint32Val":[],"uint64Val":[],"dtype":1,"tensorShape":{"dim":[{"size":"128"}]}}},"dtype":{"type":1}},"name":"generator_paprika/deconv01_1/bias","op":"Const"},{"input":[],"attr":{"value":{"tensor":{"floatVal":[],"doubleVal":[],"intVal":[],"stringVal":[],"scomplexVal":[],"int64Val":[],"boolVal":[],"uint32Val":[],"uint64Val":[],"dtype":1,"tensorShape":{"dim":[{"size":"3"},{"size":"3"},{"size":"128"},{"size":"128"}]}}},"dtype":{"type":1}},"name":"generator_paprika/deconv01_2/kernel","op":"Const"},{"input":[],"attr":{"value":{"tensor":{"floatVal":[],"doubleVal":[],"intVal":[],"stringVal":[],"scomplexVal":[],"int64Val":[],"boolVal":[],"uint32Val":[],"uint64Val":[],"dtype":1,"tensorShape":{"dim":[{"size":"128"}]}}},"dtype":{"type":1}},"name":"generator_paprika/deconv01_2/bias","op":"Const"},{"input":[],"attr":{"value":{"tensor":{"floatVal":[],"doubleVal":[],"intVal":[],"stringVal":[],"scomplexVal":[],"int64Val":[],"boolVal":[],"uint32Val":[],"uint64Val":[],"dtype":1,"tensorShape":{"dim":[{"size":"128"}]}}},"dtype":{"type":1}},"name":"generator_paprika/in12_1/gamma","op":"Const"},{"input":[],"attr":{"value":{"tensor":{"floatVal":[],"doubleVal":[],"intVal":[],"stringVal":[],"scomplexVal":[],"int64Val":[],"boolVal":[],"uint32Val":[],"uint64Val":[],"dtype":3,"tensorShape":{"dim":[{"size":"3"}]}}},"dtype":{"type":3}},"name":"generator_paprika/deconv01_1/strided_slice_3/stack","op":"Const"},{"input":[],"attr":{"value":{"tensor":{"floatVal":[],"doubleVal":[],"intVal":[],"stringVal":[],"scomplexVal":[],"int64Val":[],"boolVal":[],"uint32Val":[],"uint64Val":[],"dtype":3,"tensorShape":{"dim":[{"size":"3"}]}}},"dtype":{"type":3}},"name":"generator_paprika/deconv01_1/strided_slice_3/stack_1","op":"Const"},{"input":[],"attr":{"value":{"tensor":{"floatVal":[],"doubleVal":[],"intVal":[],"stringVal":[],"scomplexVal":[],"int64Val":[],"boolVal":[],"uint32Val":[],"uint64Val":[],"dtype":3,"tensorShape":{"dim":[{"size":"3"}]}}},"dtype":{"type":3}},"name":"generator_paprika/deconv01_1/strided_slice_3/stack_2","op":"Const"},{"input":[],"attr":{"value":{"tensor":{"floatVal":[],"doubleVal":[],"intVal":[],"stringVal":[],"scomplexVal":[],"int64Val":[],"boolVal":[],"uint32Val":[],"uint64Val":[],"dtype":1,"tensorShape":{"dim":[{"size":"64"}]}}},"dtype":{"type":1}},"name":"generator_paprika/deconv02_1/bias","op":"Const"},{"input":[],"attr":{"value":{"tensor":{"floatVal":[],"doubleVal":[],"intVal":[],"stringVal":[],"scomplexVal":[],"int64Val":[],"boolVal":[],"uint32Val":[],"uint64Val":[],"dtype":3,"tensorShape":{"dim":[{"size":"4"},{"size":"2"}]}}},"dtype":{"type":3}},"name":"generator_paprika/Pad_15/paddings","op":"Const"},{"input":[],"attr":{"value":{"tensor":{"floatVal":[],"doubleVal":[],"intVal":[],"stringVal":[],"scomplexVal":[],"int64Val":[],"boolVal":[],"uint32Val":[],"uint64Val":[],"dtype":1,"tensorShape":{"dim":[{"size":"3"},{"size":"3"},{"size":"64"},{"size":"64"}]}}},"dtype":{"type":1}},"name":"generator_paprika/deconv02_2/kernel","op":"Const"},{"input":[],"attr":{"value":{"tensor":{"floatVal":[],"doubleVal":[],"intVal":[],"stringVal":[],"scomplexVal":[],"int64Val":[],"boolVal":[],"uint32Val":[],"uint64Val":[],"dtype":1,"tensorShape":{"dim":[{"size":"64"}]}}},"dtype":{"type":1}},"name":"generator_paprika/deconv02_2/bias","op":"Const"},{"input":[],"attr":{"value":{"tensor":{"floatVal":[],"doubleVal":[],"intVal":[],"stringVal":[],"scomplexVal":[],"int64Val":[],"boolVal":[],"uint32Val":[],"uint64Val":[],"dtype":3,"tensorShape":{"dim":[{"size":"2"}]}}},"dtype":{"type":3}},"name":"generator_paprika/in11_1/moments/mean/reduction_indices","op":"Const"},{"input":[],"attr":{"value":{"tensor":{"floatVal":[],"doubleVal":[],"intVal":[],"stringVal":[],"scomplexVal":[],"int64Val":[],"boolVal":[],"uint32Val":[],"uint64Val":[],"dtype":1,"tensorShape":{"dim":[]}}},"dtype":{"type":1}},"name":"generator_paprika/in11_1/instancenorm/add/y","op":"Const"},{"input":[],"attr":{"value":{"tensor":{"floatVal":[],"doubleVal":[],"intVal":[],"stringVal":[],"scomplexVal":[],"int64Val":[],"boolVal":[],"uint32Val":[],"uint64Val":[],"dtype":1,"tensorShape":{"dim":[{"size":"64"}]}}},"dtype":{"type":1}},"name":"generator_paprika/in13_1/gamma","op":"Const"},{"input":[],"attr":{"dtype":{"type":3},"value":{"tensor":{"floatVal":[],"doubleVal":[],"intVal":[],"stringVal":[],"scomplexVal":[],"int64Val":[],"boolVal":[],"uint32Val":[],"uint64Val":[],"dtype":3,"tensorShape":{"dim":[{"size":"4"},{"size":"2"}]}}}},"name":"generator_paprika/Pad/paddings","op":"Const"},{"input":[],"attr":{"value":{"tensor":{"floatVal":[],"doubleVal":[],"intVal":[],"stringVal":[],"scomplexVal":[],"int64Val":[],"boolVal":[],"uint32Val":[],"uint64Val":[],"dtype":1,"tensorShape":{"dim":[{"size":"7"},{"size":"7"},{"size":"64"},{"size":"3"}]}}},"dtype":{"type":1}},"name":"generator_paprika/deconv03_1/kernel","op":"Const"},{"input":[],"attr":{"value":{"tensor":{"floatVal":[],"doubleVal":[],"intVal":[],"stringVal":[],"scomplexVal":[],"int64Val":[],"boolVal":[],"uint32Val":[],"uint64Val":[],"dtype":1,"tensorShape":{"dim":[{"size":"3"}]}}},"dtype":{"type":1}},"name":"generator_paprika/deconv03_1/bias","op":"Const"},{"input":[],"attr":{"dtype":{"type":1},"shape":{"shape":{"dim":[{"size":"-1"},{"size":"-1"},{"size":"-1"},{"size":"3"}]}}},"name":"generator_paprika/input","op":"Placeholder"},{"input":["generator_paprika/input","generator_paprika/Pad/paddings"],"attr":{"T":{"type":1},"Tpaddings":{"type":3}},"name":"generator_paprika/Pad","op":"Pad"},{"input":["generator_paprika/Pad","generator_paprika/conv01_1/kernel"],"attr":{"padding":{"s":[86,65,76,73,68]},"dilations":{"list":{"s":[],"i":["1","1","1","1"],"f":[],"b":[],"type":[],"shape":[],"tensor":[],"func":[]}},"T":{"type":1},"strides":{"list":{"s":[],"i":["1","1","1","1"],"f":[],"b":[],"type":[],"shape":[],"tensor":[],"func":[]}},"data_format":{"s":[78,72,87,67]},"use_cudnn_on_gpu":{"b":true}},"name":"generator_paprika/conv01_1/Conv2D","op":"Conv2D"},{"input":["generator_paprika/conv01_1/Conv2D","generator_paprika/conv01_1/bias"],"attr":{"data_format":{"s":[78,72,87,67]},"T":{"type":1}},"name":"generator_paprika/conv01_1/BiasAdd","op":"BiasAdd"},{"input":["generator_paprika/conv01_1/BiasAdd","generator_paprika/in11_1/moments/mean/reduction_indices"],"attr":{"Tidx":{"type":3},"keep_dims":{"b":true},"T":{"type":1}},"name":"generator_paprika/in01_1/moments/mean","op":"Mean"},{"input":["generator_paprika/conv01_1/BiasAdd","generator_paprika/in01_1/moments/mean"],"attr":{"T":{"type":1}},"name":"generator_paprika/in01_1/moments/SquaredDifference","op":"SquaredDifference"},{"input":["generator_paprika/in01_1/moments/SquaredDifference","generator_paprika/in11_1/moments/mean/reduction_indices"],"attr":{"T":{"type":1},"Tidx":{"type":3},"keep_dims":{"b":true}},"name":"generator_paprika/in01_1/moments/variance","op":"Mean"},{"input":["generator_paprika/in01_1/moments/variance","generator_paprika/in11_1/instancenorm/add/y"],"attr":{"T":{"type":1}},"name":"generator_paprika/in01_1/instancenorm/add","op":"Add"},{"input":["generator_paprika/in01_1/instancenorm/add"],"attr":{"T":{"type":1}},"name":"generator_paprika/in01_1/instancenorm/Rsqrt","op":"Rsqrt"},{"input":["generator_paprika/in01_1/instancenorm/Rsqrt","generator_paprika/in01_1/gamma"],"attr":{"T":{"type":1}},"name":"generator_paprika/in01_1/instancenorm/mul","op":"Mul"},{"input":["generator_paprika/conv01_1/BiasAdd","generator_paprika/in01_1/instancenorm/mul"],"attr":{"T":{"type":1}},"name":"generator_paprika/in01_1/instancenorm/mul_1","op":"Mul"},{"input":["generator_paprika/in01_1/moments/mean","generator_paprika/in01_1/instancenorm/mul"],"attr":{"T":{"type":1}},"name":"generator_paprika/in01_1/instancenorm/mul_2","op":"Mul"},{"input":["generator_paprika/in01_1/beta","generator_paprika/in01_1/instancenorm/mul_2"],"attr":{"T":{"type":1}},"name":"generator_paprika/in01_1/instancenorm/sub","op":"Sub"},{"input":["generator_paprika/in01_1/instancenorm/mul_1","generator_paprika/in01_1/instancenorm/sub"],"attr":{"T":{"type":1}},"name":"generator_paprika/in01_1/instancenorm/add_1","op":"Add"},{"input":["generator_paprika/in01_1/instancenorm/add_1"],"attr":{"T":{"type":1}},"name":"generator_paprika/Relu","op":"Relu"},{"input":["generator_paprika/Relu","generator_paprika/Pad_15/paddings"],"attr":{"T":{"type":1},"Tpaddings":{"type":3}},"name":"generator_paprika/conv02_1/Pad","op":"Pad"},{"input":["generator_paprika/conv02_1/Pad","generator_paprika/conv02_1/kernel"],"attr":{"padding":{"s":[86,65,76,73,68]},"dilations":{"list":{"s":[],"i":["1","1","1","1"],"f":[],"b":[],"type":[],"shape":[],"tensor":[],"func":[]}},"T":{"type":1},"strides":{"list":{"s":[],"i":["1","2","2","1"],"f":[],"b":[],"type":[],"shape":[],"tensor":[],"func":[]}},"data_format":{"s":[78,72,87,67]},"use_cudnn_on_gpu":{"b":true}},"name":"generator_paprika/conv02_1/Conv2D","op":"Conv2D"},{"input":["generator_paprika/conv02_1/Conv2D","generator_paprika/conv02_1/bias"],"attr":{"data_format":{"s":[78,72,87,67]},"T":{"type":1}},"name":"generator_paprika/conv02_1/BiasAdd","op":"BiasAdd"},{"input":["generator_paprika/conv02_1/BiasAdd","generator_paprika/Pad_15/paddings"],"attr":{"T":{"type":1},"Tpaddings":{"type":3}},"name":"generator_paprika/conv02_2/Pad","op":"Pad"},{"input":["generator_paprika/conv02_2/Pad","generator_paprika/conv02_2/kernel"],"attr":{"data_format":{"s":[78,72,87,67]},"strides":{"list":{"s":[],"i":["1","1","1","1"],"f":[],"b":[],"type":[],"shape":[],"tensor":[],"func":[]}},"use_cudnn_on_gpu":{"b":true},"padding":{"s":[86,65,76,73,68]},"dilations":{"list":{"s":[],"i":["1","1","1","1"],"f":[],"b":[],"type":[],"shape":[],"tensor":[],"func":[]}},"T":{"type":1}},"name":"generator_paprika/conv02_2/Conv2D","op":"Conv2D"},{"input":["generator_paprika/conv02_2/Conv2D","generator_paprika/conv02_2/bias"],"attr":{"T":{"type":1},"data_format":{"s":[78,72,87,67]}},"name":"generator_paprika/conv02_2/BiasAdd","op":"BiasAdd"},{"input":["generator_paprika/conv02_2/BiasAdd","generator_paprika/in11_1/moments/mean/reduction_indices"],"attr":{"Tidx":{"type":3},"keep_dims":{"b":true},"T":{"type":1}},"name":"generator_paprika/in02_1/moments/mean","op":"Mean"},{"input":["generator_paprika/conv02_2/BiasAdd","generator_paprika/in02_1/moments/mean"],"attr":{"T":{"type":1}},"name":"generator_paprika/in02_1/moments/SquaredDifference","op":"SquaredDifference"},{"input":["generator_paprika/in02_1/moments/SquaredDifference","generator_paprika/in11_1/moments/mean/reduction_indices"],"attr":{"T":{"type":1},"Tidx":{"type":3},"keep_dims":{"b":true}},"name":"generator_paprika/in02_1/moments/variance","op":"Mean"},{"input":["generator_paprika/in02_1/moments/variance","generator_paprika/in11_1/instancenorm/add/y"],"attr":{"T":{"type":1}},"name":"generator_paprika/in02_1/instancenorm/add","op":"Add"},{"input":["generator_paprika/in02_1/instancenorm/add"],"attr":{"T":{"type":1}},"name":"generator_paprika/in02_1/instancenorm/Rsqrt","op":"Rsqrt"},{"input":["generator_paprika/in02_1/instancenorm/Rsqrt","generator_paprika/in02_1/gamma"],"attr":{"T":{"type":1}},"name":"generator_paprika/in02_1/instancenorm/mul","op":"Mul"},{"input":["generator_paprika/conv02_2/BiasAdd","generator_paprika/in02_1/instancenorm/mul"],"attr":{"T":{"type":1}},"name":"generator_paprika/in02_1/instancenorm/mul_1","op":"Mul"},{"input":["generator_paprika/in02_1/moments/mean","generator_paprika/in02_1/instancenorm/mul"],"attr":{"T":{"type":1}},"name":"generator_paprika/in02_1/instancenorm/mul_2","op":"Mul"},{"input":["generator_paprika/in02_1/beta","generator_paprika/in02_1/instancenorm/mul_2"],"attr":{"T":{"type":1}},"name":"generator_paprika/in02_1/instancenorm/sub","op":"Sub"},{"input":["generator_paprika/in02_1/instancenorm/mul_1","generator_paprika/in02_1/instancenorm/sub"],"attr":{"T":{"type":1}},"name":"generator_paprika/in02_1/instancenorm/add_1","op":"Add"},{"input":["generator_paprika/in02_1/instancenorm/add_1"],"attr":{"T":{"type":1}},"name":"generator_paprika/Relu_1","op":"Relu"},{"input":["generator_paprika/Relu_1","generator_paprika/Pad_15/paddings"],"attr":{"T":{"type":1},"Tpaddings":{"type":3}},"name":"generator_paprika/conv03_1/Pad","op":"Pad"},{"input":["generator_paprika/conv03_1/Pad","generator_paprika/conv03_1/kernel"],"attr":{"padding":{"s":[86,65,76,73,68]},"dilations":{"list":{"s":[],"i":["1","1","1","1"],"f":[],"b":[],"type":[],"shape":[],"tensor":[],"func":[]}},"T":{"type":1},"strides":{"list":{"s":[],"i":["1","2","2","1"],"f":[],"b":[],"type":[],"shape":[],"tensor":[],"func":[]}},"data_format":{"s":[78,72,87,67]},"use_cudnn_on_gpu":{"b":true}},"name":"generator_paprika/conv03_1/Conv2D","op":"Conv2D"},{"input":["generator_paprika/conv03_1/Conv2D","generator_paprika/conv03_1/bias"],"attr":{"T":{"type":1},"data_format":{"s":[78,72,87,67]}},"name":"generator_paprika/conv03_1/BiasAdd","op":"BiasAdd"},{"input":["generator_paprika/conv03_1/BiasAdd","generator_paprika/Pad_15/paddings"],"attr":{"T":{"type":1},"Tpaddings":{"type":3}},"name":"generator_paprika/conv03_2/Pad","op":"Pad"},{"input":["generator_paprika/conv03_2/Pad","generator_paprika/conv03_2/kernel"],"attr":{"padding":{"s":[86,65,76,73,68]},"dilations":{"list":{"s":[],"i":["1","1","1","1"],"f":[],"b":[],"type":[],"shape":[],"tensor":[],"func":[]}},"T":{"type":1},"strides":{"list":{"s":[],"i":["1","1","1","1"],"f":[],"b":[],"type":[],"shape":[],"tensor":[],"func":[]}},"data_format":{"s":[78,72,87,67]},"use_cudnn_on_gpu":{"b":true}},"name":"generator_paprika/conv03_2/Conv2D","op":"Conv2D"},{"input":["generator_paprika/conv03_2/Conv2D","generator_paprika/conv03_2/bias"],"attr":{"T":{"type":1},"data_format":{"s":[78,72,87,67]}},"name":"generator_paprika/conv03_2/BiasAdd","op":"BiasAdd"},{"input":["generator_paprika/conv03_2/BiasAdd","generator_paprika/in11_1/moments/mean/reduction_indices"],"attr":{"T":{"type":1},"Tidx":{"type":3},"keep_dims":{"b":true}},"name":"generator_paprika/in03_1/moments/mean","op":"Mean"},{"input":["generator_paprika/conv03_2/BiasAdd","generator_paprika/in03_1/moments/mean"],"attr":{"T":{"type":1}},"name":"generator_paprika/in03_1/moments/SquaredDifference","op":"SquaredDifference"},{"input":["generator_paprika/in03_1/moments/SquaredDifference","generator_paprika/in11_1/moments/mean/reduction_indices"],"attr":{"Tidx":{"type":3},"keep_dims":{"b":true},"T":{"type":1}},"name":"generator_paprika/in03_1/moments/variance","op":"Mean"},{"input":["generator_paprika/in03_1/moments/variance","generator_paprika/in11_1/instancenorm/add/y"],"attr":{"T":{"type":1}},"name":"generator_paprika/in03_1/instancenorm/add","op":"Add"},{"input":["generator_paprika/in03_1/instancenorm/add"],"attr":{"T":{"type":1}},"name":"generator_paprika/in03_1/instancenorm/Rsqrt","op":"Rsqrt"},{"input":["generator_paprika/in03_1/instancenorm/Rsqrt","generator_paprika/in03_1/gamma"],"attr":{"T":{"type":1}},"name":"generator_paprika/in03_1/instancenorm/mul","op":"Mul"},{"input":["generator_paprika/conv03_2/BiasAdd","generator_paprika/in03_1/instancenorm/mul"],"attr":{"T":{"type":1}},"name":"generator_paprika/in03_1/instancenorm/mul_1","op":"Mul"},{"input":["generator_paprika/in03_1/moments/mean","generator_paprika/in03_1/instancenorm/mul"],"attr":{"T":{"type":1}},"name":"generator_paprika/in03_1/instancenorm/mul_2","op":"Mul"},{"input":["generator_paprika/in03_1/beta","generator_paprika/in03_1/instancenorm/mul_2"],"attr":{"T":{"type":1}},"name":"generator_paprika/in03_1/instancenorm/sub","op":"Sub"},{"input":["generator_paprika/in03_1/instancenorm/mul_1","generator_paprika/in03_1/instancenorm/sub"],"attr":{"T":{"type":1}},"name":"generator_paprika/in03_1/instancenorm/add_1","op":"Add"},{"input":["generator_paprika/in03_1/instancenorm/add_1"],"attr":{"T":{"type":1}},"name":"generator_paprika/Relu_2","op":"Relu"},{"input":["generator_paprika/Relu_2","generator_paprika/Pad_15/paddings"],"attr":{"T":{"type":1},"Tpaddings":{"type":3}},"name":"generator_paprika/Pad_1","op":"Pad"},{"input":["generator_paprika/Pad_1","generator_paprika/conv04_1/kernel"],"attr":{"dilations":{"list":{"s":[],"i":["1","1","1","1"],"f":[],"b":[],"type":[],"shape":[],"tensor":[],"func":[]}},"T":{"type":1},"data_format":{"s":[78,72,87,67]},"strides":{"list":{"s":[],"i":["1","1","1","1"],"f":[],"b":[],"type":[],"shape":[],"tensor":[],"func":[]}},"use_cudnn_on_gpu":{"b":true},"padding":{"s":[86,65,76,73,68]}},"name":"generator_paprika/conv04_1/Conv2D","op":"Conv2D"},{"input":["generator_paprika/conv04_1/Conv2D","generator_paprika/conv04_1/bias"],"attr":{"T":{"type":1},"data_format":{"s":[78,72,87,67]}},"name":"generator_paprika/conv04_1/BiasAdd","op":"BiasAdd"},{"input":["generator_paprika/conv04_1/BiasAdd","generator_paprika/in11_1/moments/mean/reduction_indices"],"attr":{"Tidx":{"type":3},"keep_dims":{"b":true},"T":{"type":1}},"name":"generator_paprika/in04_1/moments/mean","op":"Mean"},{"input":["generator_paprika/conv04_1/BiasAdd","generator_paprika/in04_1/moments/mean"],"attr":{"T":{"type":1}},"name":"generator_paprika/in04_1/moments/SquaredDifference","op":"SquaredDifference"},{"input":["generator_paprika/in04_1/moments/SquaredDifference","generator_paprika/in11_1/moments/mean/reduction_indices"],"attr":{"Tidx":{"type":3},"keep_dims":{"b":true},"T":{"type":1}},"name":"generator_paprika/in04_1/moments/variance","op":"Mean"},{"input":["generator_paprika/in04_1/moments/variance","generator_paprika/in11_1/instancenorm/add/y"],"attr":{"T":{"type":1}},"name":"generator_paprika/in04_1/instancenorm/add","op":"Add"},{"input":["generator_paprika/in04_1/instancenorm/add"],"attr":{"T":{"type":1}},"name":"generator_paprika/in04_1/instancenorm/Rsqrt","op":"Rsqrt"},{"input":["generator_paprika/in04_1/instancenorm/Rsqrt","generator_paprika/in04_1/gamma"],"attr":{"T":{"type":1}},"name":"generator_paprika/in04_1/instancenorm/mul","op":"Mul"},{"input":["generator_paprika/conv04_1/BiasAdd","generator_paprika/in04_1/instancenorm/mul"],"attr":{"T":{"type":1}},"name":"generator_paprika/in04_1/instancenorm/mul_1","op":"Mul"},{"input":["generator_paprika/in04_1/moments/mean","generator_paprika/in04_1/instancenorm/mul"],"attr":{"T":{"type":1}},"name":"generator_paprika/in04_1/instancenorm/mul_2","op":"Mul"},{"input":["generator_paprika/in04_1/beta","generator_paprika/in04_1/instancenorm/mul_2"],"attr":{"T":{"type":1}},"name":"generator_paprika/in04_1/instancenorm/sub","op":"Sub"},{"input":["generator_paprika/in04_1/instancenorm/mul_1","generator_paprika/in04_1/instancenorm/sub"],"attr":{"T":{"type":1}},"name":"generator_paprika/in04_1/instancenorm/add_1","op":"Add"},{"input":["generator_paprika/in04_1/instancenorm/add_1"],"attr":{"T":{"type":1}},"name":"generator_paprika/Relu_3","op":"Relu"},{"input":["generator_paprika/Relu_3","generator_paprika/Pad_15/paddings"],"attr":{"Tpaddings":{"type":3},"T":{"type":1}},"name":"generator_paprika/Pad_2","op":"Pad"},{"input":["generator_paprika/Pad_2","generator_paprika/conv04_2/kernel"],"attr":{"dilations":{"list":{"s":[],"i":["1","1","1","1"],"f":[],"b":[],"type":[],"shape":[],"tensor":[],"func":[]}},"T":{"type":1},"data_format":{"s":[78,72,87,67]},"strides":{"list":{"s":[],"i":["1","1","1","1"],"f":[],"b":[],"type":[],"shape":[],"tensor":[],"func":[]}},"use_cudnn_on_gpu":{"b":true},"padding":{"s":[86,65,76,73,68]}},"name":"generator_paprika/conv04_2/Conv2D","op":"Conv2D"},{"input":["generator_paprika/conv04_2/Conv2D","generator_paprika/conv04_2/bias"],"attr":{"T":{"type":1},"data_format":{"s":[78,72,87,67]}},"name":"generator_paprika/conv04_2/BiasAdd","op":"BiasAdd"},{"input":["generator_paprika/conv04_2/BiasAdd","generator_paprika/in11_1/moments/mean/reduction_indices"],"attr":{"T":{"type":1},"Tidx":{"type":3},"keep_dims":{"b":true}},"name":"generator_paprika/in04_2/moments/mean","op":"Mean"},{"input":["generator_paprika/conv04_2/BiasAdd","generator_paprika/in04_2/moments/mean"],"attr":{"T":{"type":1}},"name":"generator_paprika/in04_2/moments/SquaredDifference","op":"SquaredDifference"},{"input":["generator_paprika/in04_2/moments/SquaredDifference","generator_paprika/in11_1/moments/mean/reduction_indices"],"attr":{"T":{"type":1},"Tidx":{"type":3},"keep_dims":{"b":true}},"name":"generator_paprika/in04_2/moments/variance","op":"Mean"},{"input":["generator_paprika/in04_2/moments/variance","generator_paprika/in11_1/instancenorm/add/y"],"attr":{"T":{"type":1}},"name":"generator_paprika/in04_2/instancenorm/add","op":"Add"},{"input":["generator_paprika/in04_2/instancenorm/add"],"attr":{"T":{"type":1}},"name":"generator_paprika/in04_2/instancenorm/Rsqrt","op":"Rsqrt"},{"input":["generator_paprika/in04_2/instancenorm/Rsqrt","generator_paprika/in04_2/gamma"],"attr":{"T":{"type":1}},"name":"generator_paprika/in04_2/instancenorm/mul","op":"Mul"},{"input":["generator_paprika/conv04_2/BiasAdd","generator_paprika/in04_2/instancenorm/mul"],"attr":{"T":{"type":1}},"name":"generator_paprika/in04_2/instancenorm/mul_1","op":"Mul"},{"input":["generator_paprika/in04_2/moments/mean","generator_paprika/in04_2/instancenorm/mul"],"attr":{"T":{"type":1}},"name":"generator_paprika/in04_2/instancenorm/mul_2","op":"Mul"},{"input":["generator_paprika/in04_2/beta","generator_paprika/in04_2/instancenorm/mul_2"],"attr":{"T":{"type":1}},"name":"generator_paprika/in04_2/instancenorm/sub","op":"Sub"},{"input":["generator_paprika/in04_2/instancenorm/mul_1","generator_paprika/in04_2/instancenorm/sub"],"attr":{"T":{"type":1}},"name":"generator_paprika/in04_2/instancenorm/add_1","op":"Add"},{"input":["generator_paprika/in04_2/instancenorm/add_1","generator_paprika/Relu_2"],"attr":{"T":{"type":1}},"name":"generator_paprika/add","op":"Add"},{"input":["generator_paprika/add","generator_paprika/Pad_15/paddings"],"attr":{"Tpaddings":{"type":3},"T":{"type":1}},"name":"generator_paprika/Pad_3","op":"Pad"},{"input":["generator_paprika/Pad_3","generator_paprika/conv05_1/kernel"],"attr":{"dilations":{"list":{"s":[],"i":["1","1","1","1"],"f":[],"b":[],"type":[],"shape":[],"tensor":[],"func":[]}},"T":{"type":1},"strides":{"list":{"s":[],"i":["1","1","1","1"],"f":[],"b":[],"type":[],"shape":[],"tensor":[],"func":[]}},"data_format":{"s":[78,72,87,67]},"use_cudnn_on_gpu":{"b":true},"padding":{"s":[86,65,76,73,68]}},"name":"generator_paprika/conv05_1/Conv2D","op":"Conv2D"},{"input":["generator_paprika/conv05_1/Conv2D","generator_paprika/conv05_1/bias"],"attr":{"data_format":{"s":[78,72,87,67]},"T":{"type":1}},"name":"generator_paprika/conv05_1/BiasAdd","op":"BiasAdd"},{"input":["generator_paprika/conv05_1/BiasAdd","generator_paprika/in11_1/moments/mean/reduction_indices"],"attr":{"Tidx":{"type":3},"keep_dims":{"b":true},"T":{"type":1}},"name":"generator_paprika/in05_1/moments/mean","op":"Mean"},{"input":["generator_paprika/conv05_1/BiasAdd","generator_paprika/in05_1/moments/mean"],"attr":{"T":{"type":1}},"name":"generator_paprika/in05_1/moments/SquaredDifference","op":"SquaredDifference"},{"input":["generator_paprika/in05_1/moments/SquaredDifference","generator_paprika/in11_1/moments/mean/reduction_indices"],"attr":{"T":{"type":1},"Tidx":{"type":3},"keep_dims":{"b":true}},"name":"generator_paprika/in05_1/moments/variance","op":"Mean"},{"input":["generator_paprika/in05_1/moments/variance","generator_paprika/in11_1/instancenorm/add/y"],"attr":{"T":{"type":1}},"name":"generator_paprika/in05_1/instancenorm/add","op":"Add"},{"input":["generator_paprika/in05_1/instancenorm/add"],"attr":{"T":{"type":1}},"name":"generator_paprika/in05_1/instancenorm/Rsqrt","op":"Rsqrt"},{"input":["generator_paprika/in05_1/instancenorm/Rsqrt","generator_paprika/in05_1/gamma"],"attr":{"T":{"type":1}},"name":"generator_paprika/in05_1/instancenorm/mul","op":"Mul"},{"input":["generator_paprika/conv05_1/BiasAdd","generator_paprika/in05_1/instancenorm/mul"],"attr":{"T":{"type":1}},"name":"generator_paprika/in05_1/instancenorm/mul_1","op":"Mul"},{"input":["generator_paprika/in05_1/moments/mean","generator_paprika/in05_1/instancenorm/mul"],"attr":{"T":{"type":1}},"name":"generator_paprika/in05_1/instancenorm/mul_2","op":"Mul"},{"input":["generator_paprika/in05_1/beta","generator_paprika/in05_1/instancenorm/mul_2"],"attr":{"T":{"type":1}},"name":"generator_paprika/in05_1/instancenorm/sub","op":"Sub"},{"input":["generator_paprika/in05_1/instancenorm/mul_1","generator_paprika/in05_1/instancenorm/sub"],"attr":{"T":{"type":1}},"name":"generator_paprika/in05_1/instancenorm/add_1","op":"Add"},{"input":["generator_paprika/in05_1/instancenorm/add_1"],"attr":{"T":{"type":1}},"name":"generator_paprika/Relu_4","op":"Relu"},{"input":["generator_paprika/Relu_4","generator_paprika/Pad_15/paddings"],"attr":{"T":{"type":1},"Tpaddings":{"type":3}},"name":"generator_paprika/Pad_4","op":"Pad"},{"input":["generator_paprika/Pad_4","generator_paprika/conv05_2/kernel"],"attr":{"dilations":{"list":{"s":[],"i":["1","1","1","1"],"f":[],"b":[],"type":[],"shape":[],"tensor":[],"func":[]}},"T":{"type":1},"strides":{"list":{"s":[],"i":["1","1","1","1"],"f":[],"b":[],"type":[],"shape":[],"tensor":[],"func":[]}},"data_format":{"s":[78,72,87,67]},"use_cudnn_on_gpu":{"b":true},"padding":{"s":[86,65,76,73,68]}},"name":"generator_paprika/conv05_2/Conv2D","op":"Conv2D"},{"input":["generator_paprika/conv05_2/Conv2D","generator_paprika/conv05_2/bias"],"attr":{"data_format":{"s":[78,72,87,67]},"T":{"type":1}},"name":"generator_paprika/conv05_2/BiasAdd","op":"BiasAdd"},{"input":["generator_paprika/conv05_2/BiasAdd","generator_paprika/in11_1/moments/mean/reduction_indices"],"attr":{"Tidx":{"type":3},"keep_dims":{"b":true},"T":{"type":1}},"name":"generator_paprika/in05_2/moments/mean","op":"Mean"},{"input":["generator_paprika/conv05_2/BiasAdd","generator_paprika/in05_2/moments/mean"],"attr":{"T":{"type":1}},"name":"generator_paprika/in05_2/moments/SquaredDifference","op":"SquaredDifference"},{"input":["generator_paprika/in05_2/moments/SquaredDifference","generator_paprika/in11_1/moments/mean/reduction_indices"],"attr":{"T":{"type":1},"Tidx":{"type":3},"keep_dims":{"b":true}},"name":"generator_paprika/in05_2/moments/variance","op":"Mean"},{"input":["generator_paprika/in05_2/moments/variance","generator_paprika/in11_1/instancenorm/add/y"],"attr":{"T":{"type":1}},"name":"generator_paprika/in05_2/instancenorm/add","op":"Add"},{"input":["generator_paprika/in05_2/instancenorm/add"],"attr":{"T":{"type":1}},"name":"generator_paprika/in05_2/instancenorm/Rsqrt","op":"Rsqrt"},{"input":["generator_paprika/in05_2/instancenorm/Rsqrt","generator_paprika/in05_2/gamma"],"attr":{"T":{"type":1}},"name":"generator_paprika/in05_2/instancenorm/mul","op":"Mul"},{"input":["generator_paprika/conv05_2/BiasAdd","generator_paprika/in05_2/instancenorm/mul"],"attr":{"T":{"type":1}},"name":"generator_paprika/in05_2/instancenorm/mul_1","op":"Mul"},{"input":["generator_paprika/in05_2/moments/mean","generator_paprika/in05_2/instancenorm/mul"],"attr":{"T":{"type":1}},"name":"generator_paprika/in05_2/instancenorm/mul_2","op":"Mul"},{"input":["generator_paprika/in05_2/beta","generator_paprika/in05_2/instancenorm/mul_2"],"attr":{"T":{"type":1}},"name":"generator_paprika/in05_2/instancenorm/sub","op":"Sub"},{"input":["generator_paprika/in05_2/instancenorm/mul_1","generator_paprika/in05_2/instancenorm/sub"],"attr":{"T":{"type":1}},"name":"generator_paprika/in05_2/instancenorm/add_1","op":"Add"},{"input":["generator_paprika/in05_2/instancenorm/add_1","generator_paprika/add"],"attr":{"T":{"type":1}},"name":"generator_paprika/add_1","op":"Add"},{"input":["generator_paprika/add_1","generator_paprika/Pad_15/paddings"],"attr":{"Tpaddings":{"type":3},"T":{"type":1}},"name":"generator_paprika/Pad_5","op":"Pad"},{"input":["generator_paprika/Pad_5","generator_paprika/conv06_1/kernel"],"attr":{"use_cudnn_on_gpu":{"b":true},"padding":{"s":[86,65,76,73,68]},"dilations":{"list":{"s":[],"i":["1","1","1","1"],"f":[],"b":[],"type":[],"shape":[],"tensor":[],"func":[]}},"T":{"type":1},"data_format":{"s":[78,72,87,67]},"strides":{"list":{"s":[],"i":["1","1","1","1"],"f":[],"b":[],"type":[],"shape":[],"tensor":[],"func":[]}}},"name":"generator_paprika/conv06_1/Conv2D","op":"Conv2D"},{"input":["generator_paprika/conv06_1/Conv2D","generator_paprika/conv06_1/bias"],"attr":{"T":{"type":1},"data_format":{"s":[78,72,87,67]}},"name":"generator_paprika/conv06_1/BiasAdd","op":"BiasAdd"},{"input":["generator_paprika/conv06_1/BiasAdd","generator_paprika/in11_1/moments/mean/reduction_indices"],"attr":{"Tidx":{"type":3},"keep_dims":{"b":true},"T":{"type":1}},"name":"generator_paprika/in06_1/moments/mean","op":"Mean"},{"input":["generator_paprika/conv06_1/BiasAdd","generator_paprika/in06_1/moments/mean"],"attr":{"T":{"type":1}},"name":"generator_paprika/in06_1/moments/SquaredDifference","op":"SquaredDifference"},{"input":["generator_paprika/in06_1/moments/SquaredDifference","generator_paprika/in11_1/moments/mean/reduction_indices"],"attr":{"Tidx":{"type":3},"keep_dims":{"b":true},"T":{"type":1}},"name":"generator_paprika/in06_1/moments/variance","op":"Mean"},{"input":["generator_paprika/in06_1/moments/variance","generator_paprika/in11_1/instancenorm/add/y"],"attr":{"T":{"type":1}},"name":"generator_paprika/in06_1/instancenorm/add","op":"Add"},{"input":["generator_paprika/in06_1/instancenorm/add"],"attr":{"T":{"type":1}},"name":"generator_paprika/in06_1/instancenorm/Rsqrt","op":"Rsqrt"},{"input":["generator_paprika/in06_1/instancenorm/Rsqrt","generator_paprika/in06_1/gamma"],"attr":{"T":{"type":1}},"name":"generator_paprika/in06_1/instancenorm/mul","op":"Mul"},{"input":["generator_paprika/conv06_1/BiasAdd","generator_paprika/in06_1/instancenorm/mul"],"attr":{"T":{"type":1}},"name":"generator_paprika/in06_1/instancenorm/mul_1","op":"Mul"},{"input":["generator_paprika/in06_1/moments/mean","generator_paprika/in06_1/instancenorm/mul"],"attr":{"T":{"type":1}},"name":"generator_paprika/in06_1/instancenorm/mul_2","op":"Mul"},{"input":["generator_paprika/in06_1/beta","generator_paprika/in06_1/instancenorm/mul_2"],"attr":{"T":{"type":1}},"name":"generator_paprika/in06_1/instancenorm/sub","op":"Sub"},{"input":["generator_paprika/in06_1/instancenorm/mul_1","generator_paprika/in06_1/instancenorm/sub"],"attr":{"T":{"type":1}},"name":"generator_paprika/in06_1/instancenorm/add_1","op":"Add"},{"input":["generator_paprika/in06_1/instancenorm/add_1"],"attr":{"T":{"type":1}},"name":"generator_paprika/Relu_5","op":"Relu"},{"input":["generator_paprika/Relu_5","generator_paprika/Pad_15/paddings"],"attr":{"Tpaddings":{"type":3},"T":{"type":1}},"name":"generator_paprika/Pad_6","op":"Pad"},{"input":["generator_paprika/Pad_6","generator_paprika/conv06_2/kernel"],"attr":{"use_cudnn_on_gpu":{"b":true},"padding":{"s":[86,65,76,73,68]},"dilations":{"list":{"s":[],"i":["1","1","1","1"],"f":[],"b":[],"type":[],"shape":[],"tensor":[],"func":[]}},"T":{"type":1},"data_format":{"s":[78,72,87,67]},"strides":{"list":{"s":[],"i":["1","1","1","1"],"f":[],"b":[],"type":[],"shape":[],"tensor":[],"func":[]}}},"name":"generator_paprika/conv06_2/Conv2D","op":"Conv2D"},{"input":["generator_paprika/conv06_2/Conv2D","generator_paprika/conv06_2/bias"],"attr":{"T":{"type":1},"data_format":{"s":[78,72,87,67]}},"name":"generator_paprika/conv06_2/BiasAdd","op":"BiasAdd"},{"input":["generator_paprika/conv06_2/BiasAdd","generator_paprika/in11_1/moments/mean/reduction_indices"],"attr":{"T":{"type":1},"Tidx":{"type":3},"keep_dims":{"b":true}},"name":"generator_paprika/in06_2/moments/mean","op":"Mean"},{"input":["generator_paprika/conv06_2/BiasAdd","generator_paprika/in06_2/moments/mean"],"attr":{"T":{"type":1}},"name":"generator_paprika/in06_2/moments/SquaredDifference","op":"SquaredDifference"},{"input":["generator_paprika/in06_2/moments/SquaredDifference","generator_paprika/in11_1/moments/mean/reduction_indices"],"attr":{"T":{"type":1},"Tidx":{"type":3},"keep_dims":{"b":true}},"name":"generator_paprika/in06_2/moments/variance","op":"Mean"},{"input":["generator_paprika/in06_2/moments/variance","generator_paprika/in11_1/instancenorm/add/y"],"attr":{"T":{"type":1}},"name":"generator_paprika/in06_2/instancenorm/add","op":"Add"},{"input":["generator_paprika/in06_2/instancenorm/add"],"attr":{"T":{"type":1}},"name":"generator_paprika/in06_2/instancenorm/Rsqrt","op":"Rsqrt"},{"input":["generator_paprika/in06_2/instancenorm/Rsqrt","generator_paprika/in06_2/gamma"],"attr":{"T":{"type":1}},"name":"generator_paprika/in06_2/instancenorm/mul","op":"Mul"},{"input":["generator_paprika/conv06_2/BiasAdd","generator_paprika/in06_2/instancenorm/mul"],"attr":{"T":{"type":1}},"name":"generator_paprika/in06_2/instancenorm/mul_1","op":"Mul"},{"input":["generator_paprika/in06_2/moments/mean","generator_paprika/in06_2/instancenorm/mul"],"attr":{"T":{"type":1}},"name":"generator_paprika/in06_2/instancenorm/mul_2","op":"Mul"},{"input":["generator_paprika/in06_2/beta","generator_paprika/in06_2/instancenorm/mul_2"],"attr":{"T":{"type":1}},"name":"generator_paprika/in06_2/instancenorm/sub","op":"Sub"},{"input":["generator_paprika/in06_2/instancenorm/mul_1","generator_paprika/in06_2/instancenorm/sub"],"attr":{"T":{"type":1}},"name":"generator_paprika/in06_2/instancenorm/add_1","op":"Add"},{"input":["generator_paprika/in06_2/instancenorm/add_1","generator_paprika/add_1"],"attr":{"T":{"type":1}},"name":"generator_paprika/add_2","op":"Add"},{"input":["generator_paprika/add_2","generator_paprika/Pad_15/paddings"],"attr":{"T":{"type":1},"Tpaddings":{"type":3}},"name":"generator_paprika/Pad_7","op":"Pad"},{"input":["generator_paprika/Pad_7","generator_paprika/conv07_1/kernel"],"attr":{"strides":{"list":{"s":[],"i":["1","1","1","1"],"f":[],"b":[],"type":[],"shape":[],"tensor":[],"func":[]}},"data_format":{"s":[78,72,87,67]},"use_cudnn_on_gpu":{"b":true},"padding":{"s":[86,65,76,73,68]},"dilations":{"list":{"s":[],"i":["1","1","1","1"],"f":[],"b":[],"type":[],"shape":[],"tensor":[],"func":[]}},"T":{"type":1}},"name":"generator_paprika/conv07_1/Conv2D","op":"Conv2D"},{"input":["generator_paprika/conv07_1/Conv2D","generator_paprika/conv07_1/bias"],"attr":{"data_format":{"s":[78,72,87,67]},"T":{"type":1}},"name":"generator_paprika/conv07_1/BiasAdd","op":"BiasAdd"},{"input":["generator_paprika/conv07_1/BiasAdd","generator_paprika/in11_1/moments/mean/reduction_indices"],"attr":{"Tidx":{"type":3},"keep_dims":{"b":true},"T":{"type":1}},"name":"generator_paprika/in07_1/moments/mean","op":"Mean"},{"input":["generator_paprika/conv07_1/BiasAdd","generator_paprika/in07_1/moments/mean"],"attr":{"T":{"type":1}},"name":"generator_paprika/in07_1/moments/SquaredDifference","op":"SquaredDifference"},{"input":["generator_paprika/in07_1/moments/SquaredDifference","generator_paprika/in11_1/moments/mean/reduction_indices"],"attr":{"T":{"type":1},"Tidx":{"type":3},"keep_dims":{"b":true}},"name":"generator_paprika/in07_1/moments/variance","op":"Mean"},{"input":["generator_paprika/in07_1/moments/variance","generator_paprika/in11_1/instancenorm/add/y"],"attr":{"T":{"type":1}},"name":"generator_paprika/in07_1/instancenorm/add","op":"Add"},{"input":["generator_paprika/in07_1/instancenorm/add"],"attr":{"T":{"type":1}},"name":"generator_paprika/in07_1/instancenorm/Rsqrt","op":"Rsqrt"},{"input":["generator_paprika/in07_1/instancenorm/Rsqrt","generator_paprika/in07_1/gamma"],"attr":{"T":{"type":1}},"name":"generator_paprika/in07_1/instancenorm/mul","op":"Mul"},{"input":["generator_paprika/conv07_1/BiasAdd","generator_paprika/in07_1/instancenorm/mul"],"attr":{"T":{"type":1}},"name":"generator_paprika/in07_1/instancenorm/mul_1","op":"Mul"},{"input":["generator_paprika/in07_1/moments/mean","generator_paprika/in07_1/instancenorm/mul"],"attr":{"T":{"type":1}},"name":"generator_paprika/in07_1/instancenorm/mul_2","op":"Mul"},{"input":["generator_paprika/in07_1/beta","generator_paprika/in07_1/instancenorm/mul_2"],"attr":{"T":{"type":1}},"name":"generator_paprika/in07_1/instancenorm/sub","op":"Sub"},{"input":["generator_paprika/in07_1/instancenorm/mul_1","generator_paprika/in07_1/instancenorm/sub"],"attr":{"T":{"type":1}},"name":"generator_paprika/in07_1/instancenorm/add_1","op":"Add"},{"input":["generator_paprika/in07_1/instancenorm/add_1"],"attr":{"T":{"type":1}},"name":"generator_paprika/Relu_6","op":"Relu"},{"input":["generator_paprika/Relu_6","generator_paprika/Pad_15/paddings"],"attr":{"T":{"type":1},"Tpaddings":{"type":3}},"name":"generator_paprika/Pad_8","op":"Pad"},{"input":["generator_paprika/Pad_8","generator_paprika/conv07_2/kernel"],"attr":{"padding":{"s":[86,65,76,73,68]},"dilations":{"list":{"s":[],"i":["1","1","1","1"],"f":[],"b":[],"type":[],"shape":[],"tensor":[],"func":[]}},"T":{"type":1},"strides":{"list":{"s":[],"i":["1","1","1","1"],"f":[],"b":[],"type":[],"shape":[],"tensor":[],"func":[]}},"data_format":{"s":[78,72,87,67]},"use_cudnn_on_gpu":{"b":true}},"name":"generator_paprika/conv07_2/Conv2D","op":"Conv2D"},{"input":["generator_paprika/conv07_2/Conv2D","generator_paprika/conv07_2/bias"],"attr":{"data_format":{"s":[78,72,87,67]},"T":{"type":1}},"name":"generator_paprika/conv07_2/BiasAdd","op":"BiasAdd"},{"input":["generator_paprika/conv07_2/BiasAdd","generator_paprika/in11_1/moments/mean/reduction_indices"],"attr":{"Tidx":{"type":3},"keep_dims":{"b":true},"T":{"type":1}},"name":"generator_paprika/in07_2/moments/mean","op":"Mean"},{"input":["generator_paprika/conv07_2/BiasAdd","generator_paprika/in07_2/moments/mean"],"attr":{"T":{"type":1}},"name":"generator_paprika/in07_2/moments/SquaredDifference","op":"SquaredDifference"},{"input":["generator_paprika/in07_2/moments/SquaredDifference","generator_paprika/in11_1/moments/mean/reduction_indices"],"attr":{"Tidx":{"type":3},"keep_dims":{"b":true},"T":{"type":1}},"name":"generator_paprika/in07_2/moments/variance","op":"Mean"},{"input":["generator_paprika/in07_2/moments/variance","generator_paprika/in11_1/instancenorm/add/y"],"attr":{"T":{"type":1}},"name":"generator_paprika/in07_2/instancenorm/add","op":"Add"},{"input":["generator_paprika/in07_2/instancenorm/add"],"attr":{"T":{"type":1}},"name":"generator_paprika/in07_2/instancenorm/Rsqrt","op":"Rsqrt"},{"input":["generator_paprika/in07_2/instancenorm/Rsqrt","generator_paprika/in07_2/gamma"],"attr":{"T":{"type":1}},"name":"generator_paprika/in07_2/instancenorm/mul","op":"Mul"},{"input":["generator_paprika/conv07_2/BiasAdd","generator_paprika/in07_2/instancenorm/mul"],"attr":{"T":{"type":1}},"name":"generator_paprika/in07_2/instancenorm/mul_1","op":"Mul"},{"input":["generator_paprika/in07_2/moments/mean","generator_paprika/in07_2/instancenorm/mul"],"attr":{"T":{"type":1}},"name":"generator_paprika/in07_2/instancenorm/mul_2","op":"Mul"},{"input":["generator_paprika/in07_2/beta","generator_paprika/in07_2/instancenorm/mul_2"],"attr":{"T":{"type":1}},"name":"generator_paprika/in07_2/instancenorm/sub","op":"Sub"},{"input":["generator_paprika/in07_2/instancenorm/mul_1","generator_paprika/in07_2/instancenorm/sub"],"attr":{"T":{"type":1}},"name":"generator_paprika/in07_2/instancenorm/add_1","op":"Add"},{"input":["generator_paprika/in07_2/instancenorm/add_1","generator_paprika/add_2"],"attr":{"T":{"type":1}},"name":"generator_paprika/add_3","op":"Add"},{"input":["generator_paprika/add_3","generator_paprika/Pad_15/paddings"],"attr":{"T":{"type":1},"Tpaddings":{"type":3}},"name":"generator_paprika/Pad_9","op":"Pad"},{"input":["generator_paprika/Pad_9","generator_paprika/conv08_1/kernel"],"attr":{"use_cudnn_on_gpu":{"b":true},"padding":{"s":[86,65,76,73,68]},"dilations":{"list":{"s":[],"i":["1","1","1","1"],"f":[],"b":[],"type":[],"shape":[],"tensor":[],"func":[]}},"T":{"type":1},"data_format":{"s":[78,72,87,67]},"strides":{"list":{"s":[],"i":["1","1","1","1"],"f":[],"b":[],"type":[],"shape":[],"tensor":[],"func":[]}}},"name":"generator_paprika/conv08_1/Conv2D","op":"Conv2D"},{"input":["generator_paprika/conv08_1/Conv2D","generator_paprika/conv08_1/bias"],"attr":{"data_format":{"s":[78,72,87,67]},"T":{"type":1}},"name":"generator_paprika/conv08_1/BiasAdd","op":"BiasAdd"},{"input":["generator_paprika/conv08_1/BiasAdd","generator_paprika/in11_1/moments/mean/reduction_indices"],"attr":{"T":{"type":1},"Tidx":{"type":3},"keep_dims":{"b":true}},"name":"generator_paprika/in08_1/moments/mean","op":"Mean"},{"input":["generator_paprika/conv08_1/BiasAdd","generator_paprika/in08_1/moments/mean"],"attr":{"T":{"type":1}},"name":"generator_paprika/in08_1/moments/SquaredDifference","op":"SquaredDifference"},{"input":["generator_paprika/in08_1/moments/SquaredDifference","generator_paprika/in11_1/moments/mean/reduction_indices"],"attr":{"Tidx":{"type":3},"keep_dims":{"b":true},"T":{"type":1}},"name":"generator_paprika/in08_1/moments/variance","op":"Mean"},{"input":["generator_paprika/in08_1/moments/variance","generator_paprika/in11_1/instancenorm/add/y"],"attr":{"T":{"type":1}},"name":"generator_paprika/in08_1/instancenorm/add","op":"Add"},{"input":["generator_paprika/in08_1/instancenorm/add"],"attr":{"T":{"type":1}},"name":"generator_paprika/in08_1/instancenorm/Rsqrt","op":"Rsqrt"},{"input":["generator_paprika/in08_1/instancenorm/Rsqrt","generator_paprika/in08_1/gamma"],"attr":{"T":{"type":1}},"name":"generator_paprika/in08_1/instancenorm/mul","op":"Mul"},{"input":["generator_paprika/conv08_1/BiasAdd","generator_paprika/in08_1/instancenorm/mul"],"attr":{"T":{"type":1}},"name":"generator_paprika/in08_1/instancenorm/mul_1","op":"Mul"},{"input":["generator_paprika/in08_1/moments/mean","generator_paprika/in08_1/instancenorm/mul"],"attr":{"T":{"type":1}},"name":"generator_paprika/in08_1/instancenorm/mul_2","op":"Mul"},{"input":["generator_paprika/in08_1/beta","generator_paprika/in08_1/instancenorm/mul_2"],"attr":{"T":{"type":1}},"name":"generator_paprika/in08_1/instancenorm/sub","op":"Sub"},{"input":["generator_paprika/in08_1/instancenorm/mul_1","generator_paprika/in08_1/instancenorm/sub"],"attr":{"T":{"type":1}},"name":"generator_paprika/in08_1/instancenorm/add_1","op":"Add"},{"input":["generator_paprika/in08_1/instancenorm/add_1"],"attr":{"T":{"type":1}},"name":"generator_paprika/Relu_7","op":"Relu"},{"input":["generator_paprika/Relu_7","generator_paprika/Pad_15/paddings"],"attr":{"T":{"type":1},"Tpaddings":{"type":3}},"name":"generator_paprika/Pad_10","op":"Pad"},{"input":["generator_paprika/Pad_10","generator_paprika/conv08_2/kernel"],"attr":{"dilations":{"list":{"s":[],"i":["1","1","1","1"],"f":[],"b":[],"type":[],"shape":[],"tensor":[],"func":[]}},"T":{"type":1},"data_format":{"s":[78,72,87,67]},"strides":{"list":{"s":[],"i":["1","1","1","1"],"f":[],"b":[],"type":[],"shape":[],"tensor":[],"func":[]}},"use_cudnn_on_gpu":{"b":true},"padding":{"s":[86,65,76,73,68]}},"name":"generator_paprika/conv08_2/Conv2D","op":"Conv2D"},{"input":["generator_paprika/conv08_2/Conv2D","generator_paprika/conv08_2/bias"],"attr":{"T":{"type":1},"data_format":{"s":[78,72,87,67]}},"name":"generator_paprika/conv08_2/BiasAdd","op":"BiasAdd"},{"input":["generator_paprika/conv08_2/BiasAdd","generator_paprika/in11_1/moments/mean/reduction_indices"],"attr":{"T":{"type":1},"Tidx":{"type":3},"keep_dims":{"b":true}},"name":"generator_paprika/in08_2/moments/mean","op":"Mean"},{"input":["generator_paprika/conv08_2/BiasAdd","generator_paprika/in08_2/moments/mean"],"attr":{"T":{"type":1}},"name":"generator_paprika/in08_2/moments/SquaredDifference","op":"SquaredDifference"},{"input":["generator_paprika/in08_2/moments/SquaredDifference","generator_paprika/in11_1/moments/mean/reduction_indices"],"attr":{"Tidx":{"type":3},"keep_dims":{"b":true},"T":{"type":1}},"name":"generator_paprika/in08_2/moments/variance","op":"Mean"},{"input":["generator_paprika/in08_2/moments/variance","generator_paprika/in11_1/instancenorm/add/y"],"attr":{"T":{"type":1}},"name":"generator_paprika/in08_2/instancenorm/add","op":"Add"},{"input":["generator_paprika/in08_2/instancenorm/add"],"attr":{"T":{"type":1}},"name":"generator_paprika/in08_2/instancenorm/Rsqrt","op":"Rsqrt"},{"input":["generator_paprika/in08_2/instancenorm/Rsqrt","generator_paprika/in08_2/gamma"],"attr":{"T":{"type":1}},"name":"generator_paprika/in08_2/instancenorm/mul","op":"Mul"},{"input":["generator_paprika/conv08_2/BiasAdd","generator_paprika/in08_2/instancenorm/mul"],"attr":{"T":{"type":1}},"name":"generator_paprika/in08_2/instancenorm/mul_1","op":"Mul"},{"input":["generator_paprika/in08_2/moments/mean","generator_paprika/in08_2/instancenorm/mul"],"attr":{"T":{"type":1}},"name":"generator_paprika/in08_2/instancenorm/mul_2","op":"Mul"},{"input":["generator_paprika/in08_2/beta","generator_paprika/in08_2/instancenorm/mul_2"],"attr":{"T":{"type":1}},"name":"generator_paprika/in08_2/instancenorm/sub","op":"Sub"},{"input":["generator_paprika/in08_2/instancenorm/mul_1","generator_paprika/in08_2/instancenorm/sub"],"attr":{"T":{"type":1}},"name":"generator_paprika/in08_2/instancenorm/add_1","op":"Add"},{"input":["generator_paprika/in08_2/instancenorm/add_1","generator_paprika/add_3"],"attr":{"T":{"type":1}},"name":"generator_paprika/add_4","op":"Add"},{"input":["generator_paprika/add_4","generator_paprika/Pad_15/paddings"],"attr":{"Tpaddings":{"type":3},"T":{"type":1}},"name":"generator_paprika/Pad_11","op":"Pad"},{"input":["generator_paprika/Pad_11","generator_paprika/conv09_1/kernel"],"attr":{"dilations":{"list":{"s":[],"i":["1","1","1","1"],"f":[],"b":[],"type":[],"shape":[],"tensor":[],"func":[]}},"T":{"type":1},"strides":{"list":{"s":[],"i":["1","1","1","1"],"f":[],"b":[],"type":[],"shape":[],"tensor":[],"func":[]}},"data_format":{"s":[78,72,87,67]},"use_cudnn_on_gpu":{"b":true},"padding":{"s":[86,65,76,73,68]}},"name":"generator_paprika/conv09_1/Conv2D","op":"Conv2D"},{"input":["generator_paprika/conv09_1/Conv2D","generator_paprika/conv09_1/bias"],"attr":{"T":{"type":1},"data_format":{"s":[78,72,87,67]}},"name":"generator_paprika/conv09_1/BiasAdd","op":"BiasAdd"},{"input":["generator_paprika/conv09_1/BiasAdd","generator_paprika/in11_1/moments/mean/reduction_indices"],"attr":{"T":{"type":1},"Tidx":{"type":3},"keep_dims":{"b":true}},"name":"generator_paprika/in09_1/moments/mean","op":"Mean"},{"input":["generator_paprika/conv09_1/BiasAdd","generator_paprika/in09_1/moments/mean"],"attr":{"T":{"type":1}},"name":"generator_paprika/in09_1/moments/SquaredDifference","op":"SquaredDifference"},{"input":["generator_paprika/in09_1/moments/SquaredDifference","generator_paprika/in11_1/moments/mean/reduction_indices"],"attr":{"Tidx":{"type":3},"keep_dims":{"b":true},"T":{"type":1}},"name":"generator_paprika/in09_1/moments/variance","op":"Mean"},{"input":["generator_paprika/in09_1/moments/variance","generator_paprika/in11_1/instancenorm/add/y"],"attr":{"T":{"type":1}},"name":"generator_paprika/in09_1/instancenorm/add","op":"Add"},{"input":["generator_paprika/in09_1/instancenorm/add"],"attr":{"T":{"type":1}},"name":"generator_paprika/in09_1/instancenorm/Rsqrt","op":"Rsqrt"},{"input":["generator_paprika/in09_1/instancenorm/Rsqrt","generator_paprika/in09_1/gamma"],"attr":{"T":{"type":1}},"name":"generator_paprika/in09_1/instancenorm/mul","op":"Mul"},{"input":["generator_paprika/conv09_1/BiasAdd","generator_paprika/in09_1/instancenorm/mul"],"attr":{"T":{"type":1}},"name":"generator_paprika/in09_1/instancenorm/mul_1","op":"Mul"},{"input":["generator_paprika/in09_1/moments/mean","generator_paprika/in09_1/instancenorm/mul"],"attr":{"T":{"type":1}},"name":"generator_paprika/in09_1/instancenorm/mul_2","op":"Mul"},{"input":["generator_paprika/in09_1/beta","generator_paprika/in09_1/instancenorm/mul_2"],"attr":{"T":{"type":1}},"name":"generator_paprika/in09_1/instancenorm/sub","op":"Sub"},{"input":["generator_paprika/in09_1/instancenorm/mul_1","generator_paprika/in09_1/instancenorm/sub"],"attr":{"T":{"type":1}},"name":"generator_paprika/in09_1/instancenorm/add_1","op":"Add"},{"input":["generator_paprika/in09_1/instancenorm/add_1"],"attr":{"T":{"type":1}},"name":"generator_paprika/Relu_8","op":"Relu"},{"input":["generator_paprika/Relu_8","generator_paprika/Pad_15/paddings"],"attr":{"Tpaddings":{"type":3},"T":{"type":1}},"name":"generator_paprika/Pad_12","op":"Pad"},{"input":["generator_paprika/Pad_12","generator_paprika/conv09_2/kernel"],"attr":{"dilations":{"list":{"s":[],"i":["1","1","1","1"],"f":[],"b":[],"type":[],"shape":[],"tensor":[],"func":[]}},"T":{"type":1},"strides":{"list":{"s":[],"i":["1","1","1","1"],"f":[],"b":[],"type":[],"shape":[],"tensor":[],"func":[]}},"data_format":{"s":[78,72,87,67]},"use_cudnn_on_gpu":{"b":true},"padding":{"s":[86,65,76,73,68]}},"name":"generator_paprika/conv09_2/Conv2D","op":"Conv2D"},{"input":["generator_paprika/conv09_2/Conv2D","generator_paprika/conv09_2/bias"],"attr":{"T":{"type":1},"data_format":{"s":[78,72,87,67]}},"name":"generator_paprika/conv09_2/BiasAdd","op":"BiasAdd"},{"input":["generator_paprika/conv09_2/BiasAdd","generator_paprika/in11_1/moments/mean/reduction_indices"],"attr":{"Tidx":{"type":3},"keep_dims":{"b":true},"T":{"type":1}},"name":"generator_paprika/in09_2/moments/mean","op":"Mean"},{"input":["generator_paprika/conv09_2/BiasAdd","generator_paprika/in09_2/moments/mean"],"attr":{"T":{"type":1}},"name":"generator_paprika/in09_2/moments/SquaredDifference","op":"SquaredDifference"},{"input":["generator_paprika/in09_2/moments/SquaredDifference","generator_paprika/in11_1/moments/mean/reduction_indices"],"attr":{"T":{"type":1},"Tidx":{"type":3},"keep_dims":{"b":true}},"name":"generator_paprika/in09_2/moments/variance","op":"Mean"},{"input":["generator_paprika/in09_2/moments/variance","generator_paprika/in11_1/instancenorm/add/y"],"attr":{"T":{"type":1}},"name":"generator_paprika/in09_2/instancenorm/add","op":"Add"},{"input":["generator_paprika/in09_2/instancenorm/add"],"attr":{"T":{"type":1}},"name":"generator_paprika/in09_2/instancenorm/Rsqrt","op":"Rsqrt"},{"input":["generator_paprika/in09_2/instancenorm/Rsqrt","generator_paprika/in09_2/gamma"],"attr":{"T":{"type":1}},"name":"generator_paprika/in09_2/instancenorm/mul","op":"Mul"},{"input":["generator_paprika/conv09_2/BiasAdd","generator_paprika/in09_2/instancenorm/mul"],"attr":{"T":{"type":1}},"name":"generator_paprika/in09_2/instancenorm/mul_1","op":"Mul"},{"input":["generator_paprika/in09_2/moments/mean","generator_paprika/in09_2/instancenorm/mul"],"attr":{"T":{"type":1}},"name":"generator_paprika/in09_2/instancenorm/mul_2","op":"Mul"},{"input":["generator_paprika/in09_2/beta","generator_paprika/in09_2/instancenorm/mul_2"],"attr":{"T":{"type":1}},"name":"generator_paprika/in09_2/instancenorm/sub","op":"Sub"},{"input":["generator_paprika/in09_2/instancenorm/mul_1","generator_paprika/in09_2/instancenorm/sub"],"attr":{"T":{"type":1}},"name":"generator_paprika/in09_2/instancenorm/add_1","op":"Add"},{"input":["generator_paprika/in09_2/instancenorm/add_1","generator_paprika/add_4"],"attr":{"T":{"type":1}},"name":"generator_paprika/add_5","op":"Add"},{"input":["generator_paprika/add_5","generator_paprika/Pad_15/paddings"],"attr":{"T":{"type":1},"Tpaddings":{"type":3}},"name":"generator_paprika/Pad_13","op":"Pad"},{"input":["generator_paprika/Pad_13","generator_paprika/conv10_1/kernel"],"attr":{"padding":{"s":[86,65,76,73,68]},"dilations":{"list":{"s":[],"i":["1","1","1","1"],"f":[],"b":[],"type":[],"shape":[],"tensor":[],"func":[]}},"T":{"type":1},"data_format":{"s":[78,72,87,67]},"strides":{"list":{"s":[],"i":["1","1","1","1"],"f":[],"b":[],"type":[],"shape":[],"tensor":[],"func":[]}},"use_cudnn_on_gpu":{"b":true}},"name":"generator_paprika/conv10_1/Conv2D","op":"Conv2D"},{"input":["generator_paprika/conv10_1/Conv2D","generator_paprika/conv10_1/bias"],"attr":{"data_format":{"s":[78,72,87,67]},"T":{"type":1}},"name":"generator_paprika/conv10_1/BiasAdd","op":"BiasAdd"},{"input":["generator_paprika/conv10_1/BiasAdd","generator_paprika/in11_1/moments/mean/reduction_indices"],"attr":{"T":{"type":1},"Tidx":{"type":3},"keep_dims":{"b":true}},"name":"generator_paprika/in10_1/moments/mean","op":"Mean"},{"input":["generator_paprika/conv10_1/BiasAdd","generator_paprika/in10_1/moments/mean"],"attr":{"T":{"type":1}},"name":"generator_paprika/in10_1/moments/SquaredDifference","op":"SquaredDifference"},{"input":["generator_paprika/in10_1/moments/SquaredDifference","generator_paprika/in11_1/moments/mean/reduction_indices"],"attr":{"Tidx":{"type":3},"keep_dims":{"b":true},"T":{"type":1}},"name":"generator_paprika/in10_1/moments/variance","op":"Mean"},{"input":["generator_paprika/in10_1/moments/variance","generator_paprika/in11_1/instancenorm/add/y"],"attr":{"T":{"type":1}},"name":"generator_paprika/in10_1/instancenorm/add","op":"Add"},{"input":["generator_paprika/in10_1/instancenorm/add"],"attr":{"T":{"type":1}},"name":"generator_paprika/in10_1/instancenorm/Rsqrt","op":"Rsqrt"},{"input":["generator_paprika/in10_1/instancenorm/Rsqrt","generator_paprika/in10_1/gamma"],"attr":{"T":{"type":1}},"name":"generator_paprika/in10_1/instancenorm/mul","op":"Mul"},{"input":["generator_paprika/conv10_1/BiasAdd","generator_paprika/in10_1/instancenorm/mul"],"attr":{"T":{"type":1}},"name":"generator_paprika/in10_1/instancenorm/mul_1","op":"Mul"},{"input":["generator_paprika/in10_1/moments/mean","generator_paprika/in10_1/instancenorm/mul"],"attr":{"T":{"type":1}},"name":"generator_paprika/in10_1/instancenorm/mul_2","op":"Mul"},{"input":["generator_paprika/in10_1/beta","generator_paprika/in10_1/instancenorm/mul_2"],"attr":{"T":{"type":1}},"name":"generator_paprika/in10_1/instancenorm/sub","op":"Sub"},{"input":["generator_paprika/in10_1/instancenorm/mul_1","generator_paprika/in10_1/instancenorm/sub"],"attr":{"T":{"type":1}},"name":"generator_paprika/in10_1/instancenorm/add_1","op":"Add"},{"input":["generator_paprika/in10_1/instancenorm/add_1"],"attr":{"T":{"type":1}},"name":"generator_paprika/Relu_9","op":"Relu"},{"input":["generator_paprika/Relu_9","generator_paprika/Pad_15/paddings"],"attr":{"T":{"type":1},"Tpaddings":{"type":3}},"name":"generator_paprika/Pad_14","op":"Pad"},{"input":["generator_paprika/Pad_14","generator_paprika/conv10_2/kernel"],"attr":{"use_cudnn_on_gpu":{"b":true},"padding":{"s":[86,65,76,73,68]},"dilations":{"list":{"s":[],"i":["1","1","1","1"],"f":[],"b":[],"type":[],"shape":[],"tensor":[],"func":[]}},"T":{"type":1},"strides":{"list":{"s":[],"i":["1","1","1","1"],"f":[],"b":[],"type":[],"shape":[],"tensor":[],"func":[]}},"data_format":{"s":[78,72,87,67]}},"name":"generator_paprika/conv10_2/Conv2D","op":"Conv2D"},{"input":["generator_paprika/conv10_2/Conv2D","generator_paprika/conv10_2/bias"],"attr":{"data_format":{"s":[78,72,87,67]},"T":{"type":1}},"name":"generator_paprika/conv10_2/BiasAdd","op":"BiasAdd"},{"input":["generator_paprika/conv10_2/BiasAdd","generator_paprika/in11_1/moments/mean/reduction_indices"],"attr":{"Tidx":{"type":3},"keep_dims":{"b":true},"T":{"type":1}},"name":"generator_paprika/in10_2/moments/mean","op":"Mean"},{"input":["generator_paprika/conv10_2/BiasAdd","generator_paprika/in10_2/moments/mean"],"attr":{"T":{"type":1}},"name":"generator_paprika/in10_2/moments/SquaredDifference","op":"SquaredDifference"},{"input":["generator_paprika/in10_2/moments/SquaredDifference","generator_paprika/in11_1/moments/mean/reduction_indices"],"attr":{"Tidx":{"type":3},"keep_dims":{"b":true},"T":{"type":1}},"name":"generator_paprika/in10_2/moments/variance","op":"Mean"},{"input":["generator_paprika/in10_2/moments/variance","generator_paprika/in11_1/instancenorm/add/y"],"attr":{"T":{"type":1}},"name":"generator_paprika/in10_2/instancenorm/add","op":"Add"},{"input":["generator_paprika/in10_2/instancenorm/add"],"attr":{"T":{"type":1}},"name":"generator_paprika/in10_2/instancenorm/Rsqrt","op":"Rsqrt"},{"input":["generator_paprika/in10_2/instancenorm/Rsqrt","generator_paprika/in10_2/gamma"],"attr":{"T":{"type":1}},"name":"generator_paprika/in10_2/instancenorm/mul","op":"Mul"},{"input":["generator_paprika/conv10_2/BiasAdd","generator_paprika/in10_2/instancenorm/mul"],"attr":{"T":{"type":1}},"name":"generator_paprika/in10_2/instancenorm/mul_1","op":"Mul"},{"input":["generator_paprika/in10_2/moments/mean","generator_paprika/in10_2/instancenorm/mul"],"attr":{"T":{"type":1}},"name":"generator_paprika/in10_2/instancenorm/mul_2","op":"Mul"},{"input":["generator_paprika/in10_2/beta","generator_paprika/in10_2/instancenorm/mul_2"],"attr":{"T":{"type":1}},"name":"generator_paprika/in10_2/instancenorm/sub","op":"Sub"},{"input":["generator_paprika/in10_2/instancenorm/mul_1","generator_paprika/in10_2/instancenorm/sub"],"attr":{"T":{"type":1}},"name":"generator_paprika/in10_2/instancenorm/add_1","op":"Add"},{"input":["generator_paprika/in10_2/instancenorm/add_1","generator_paprika/add_5"],"attr":{"T":{"type":1}},"name":"generator_paprika/add_6","op":"Add"},{"input":["generator_paprika/add_6","generator_paprika/Pad_15/paddings"],"attr":{"T":{"type":1},"Tpaddings":{"type":3}},"name":"generator_paprika/Pad_15","op":"Pad"},{"input":["generator_paprika/Pad_15","generator_paprika/conv11_1/kernel"],"attr":{"padding":{"s":[86,65,76,73,68]},"dilations":{"list":{"s":[],"i":["1","1","1","1"],"f":[],"b":[],"type":[],"shape":[],"tensor":[],"func":[]}},"T":{"type":1},"strides":{"list":{"s":[],"i":["1","1","1","1"],"f":[],"b":[],"type":[],"shape":[],"tensor":[],"func":[]}},"data_format":{"s":[78,72,87,67]},"use_cudnn_on_gpu":{"b":true}},"name":"generator_paprika/conv11_1/Conv2D","op":"Conv2D"},{"input":["generator_paprika/conv11_1/Conv2D","generator_paprika/conv11_1/bias"],"attr":{"T":{"type":1},"data_format":{"s":[78,72,87,67]}},"name":"generator_paprika/conv11_1/BiasAdd","op":"BiasAdd"},{"input":["generator_paprika/conv11_1/BiasAdd","generator_paprika/in11_1/moments/mean/reduction_indices"],"attr":{"Tidx":{"type":3},"keep_dims":{"b":true},"T":{"type":1}},"name":"generator_paprika/in11_1/moments/mean","op":"Mean"},{"input":["generator_paprika/conv11_1/BiasAdd","generator_paprika/in11_1/moments/mean"],"attr":{"T":{"type":1}},"name":"generator_paprika/in11_1/moments/SquaredDifference","op":"SquaredDifference"},{"input":["generator_paprika/in11_1/moments/SquaredDifference","generator_paprika/in11_1/moments/mean/reduction_indices"],"attr":{"Tidx":{"type":3},"keep_dims":{"b":true},"T":{"type":1}},"name":"generator_paprika/in11_1/moments/variance","op":"Mean"},{"input":["generator_paprika/in11_1/moments/variance","generator_paprika/in11_1/instancenorm/add/y"],"attr":{"T":{"type":1}},"name":"generator_paprika/in11_1/instancenorm/add","op":"Add"},{"input":["generator_paprika/in11_1/instancenorm/add"],"attr":{"T":{"type":1}},"name":"generator_paprika/in11_1/instancenorm/Rsqrt","op":"Rsqrt"},{"input":["generator_paprika/in11_1/instancenorm/Rsqrt","generator_paprika/in11_1/gamma"],"attr":{"T":{"type":1}},"name":"generator_paprika/in11_1/instancenorm/mul","op":"Mul"},{"input":["generator_paprika/conv11_1/BiasAdd","generator_paprika/in11_1/instancenorm/mul"],"attr":{"T":{"type":1}},"name":"generator_paprika/in11_1/instancenorm/mul_1","op":"Mul"},{"input":["generator_paprika/in11_1/moments/mean","generator_paprika/in11_1/instancenorm/mul"],"attr":{"T":{"type":1}},"name":"generator_paprika/in11_1/instancenorm/mul_2","op":"Mul"},{"input":["generator_paprika/in11_1/beta","generator_paprika/in11_1/instancenorm/mul_2"],"attr":{"T":{"type":1}},"name":"generator_paprika/in11_1/instancenorm/sub","op":"Sub"},{"input":["generator_paprika/in11_1/instancenorm/mul_1","generator_paprika/in11_1/instancenorm/sub"],"attr":{"T":{"type":1}},"name":"generator_paprika/in11_1/instancenorm/add_1","op":"Add"},{"input":["generator_paprika/in11_1/instancenorm/add_1"],"attr":{"T":{"type":1}},"name":"generator_paprika/Relu_10","op":"Relu"},{"input":["generator_paprika/Relu_10","generator_paprika/Pad_15/paddings"],"attr":{"T":{"type":1},"Tpaddings":{"type":3}},"name":"generator_paprika/Pad_16","op":"Pad"},{"input":["generator_paprika/Pad_16","generator_paprika/conv11_2/kernel"],"attr":{"dilations":{"list":{"s":[],"i":["1","1","1","1"],"f":[],"b":[],"type":[],"shape":[],"tensor":[],"func":[]}},"T":{"type":1},"data_format":{"s":[78,72,87,67]},"strides":{"list":{"s":[],"i":["1","1","1","1"],"f":[],"b":[],"type":[],"shape":[],"tensor":[],"func":[]}},"use_cudnn_on_gpu":{"b":true},"padding":{"s":[86,65,76,73,68]}},"name":"generator_paprika/conv11_2/Conv2D","op":"Conv2D"},{"input":["generator_paprika/conv11_2/Conv2D","generator_paprika/conv11_2/bias"],"attr":{"data_format":{"s":[78,72,87,67]},"T":{"type":1}},"name":"generator_paprika/conv11_2/BiasAdd","op":"BiasAdd"},{"input":["generator_paprika/conv11_2/BiasAdd","generator_paprika/in11_1/moments/mean/reduction_indices"],"attr":{"T":{"type":1},"Tidx":{"type":3},"keep_dims":{"b":true}},"name":"generator_paprika/in11_2/moments/mean","op":"Mean"},{"input":["generator_paprika/conv11_2/BiasAdd","generator_paprika/in11_2/moments/mean"],"attr":{"T":{"type":1}},"name":"generator_paprika/in11_2/moments/SquaredDifference","op":"SquaredDifference"},{"input":["generator_paprika/in11_2/moments/SquaredDifference","generator_paprika/in11_1/moments/mean/reduction_indices"],"attr":{"T":{"type":1},"Tidx":{"type":3},"keep_dims":{"b":true}},"name":"generator_paprika/in11_2/moments/variance","op":"Mean"},{"input":["generator_paprika/in11_2/moments/variance","generator_paprika/in11_1/instancenorm/add/y"],"attr":{"T":{"type":1}},"name":"generator_paprika/in11_2/instancenorm/add","op":"Add"},{"input":["generator_paprika/in11_2/instancenorm/add"],"attr":{"T":{"type":1}},"name":"generator_paprika/in11_2/instancenorm/Rsqrt","op":"Rsqrt"},{"input":["generator_paprika/in11_2/instancenorm/Rsqrt","generator_paprika/in11_2/gamma"],"attr":{"T":{"type":1}},"name":"generator_paprika/in11_2/instancenorm/mul","op":"Mul"},{"input":["generator_paprika/conv11_2/BiasAdd","generator_paprika/in11_2/instancenorm/mul"],"attr":{"T":{"type":1}},"name":"generator_paprika/in11_2/instancenorm/mul_1","op":"Mul"},{"input":["generator_paprika/in11_2/moments/mean","generator_paprika/in11_2/instancenorm/mul"],"attr":{"T":{"type":1}},"name":"generator_paprika/in11_2/instancenorm/mul_2","op":"Mul"},{"input":["generator_paprika/in11_2/beta","generator_paprika/in11_2/instancenorm/mul_2"],"attr":{"T":{"type":1}},"name":"generator_paprika/in11_2/instancenorm/sub","op":"Sub"},{"input":["generator_paprika/in11_2/instancenorm/mul_1","generator_paprika/in11_2/instancenorm/sub"],"attr":{"T":{"type":1}},"name":"generator_paprika/in11_2/instancenorm/add_1","op":"Add"},{"input":["generator_paprika/in11_2/instancenorm/add_1","generator_paprika/add_6"],"attr":{"T":{"type":1}},"name":"generator_paprika/add_7","op":"Add"},{"input":["generator_paprika/add_7"],"attr":{"out_type":{"type":3},"T":{"type":1}},"name":"generator_paprika/deconv01_1/Shape","op":"Shape"},{"input":["generator_paprika/deconv01_1/Shape","generator_paprika/deconv02_1/strided_slice/stack","generator_paprika/deconv02_1/strided_slice/stack_1","generator_paprika/deconv02_1/strided_slice/stack_1"],"attr":{"shrink_axis_mask":{"i":"1"},"begin_mask":{"i":"0"},"ellipsis_mask":{"i":"0"},"new_axis_mask":{"i":"0"},"end_mask":{"i":"0"},"Index":{"type":3},"T":{"type":3}},"name":"generator_paprika/deconv01_1/strided_slice","op":"StridedSlice"},{"input":["generator_paprika/deconv01_1/Shape","generator_paprika/deconv02_1/strided_slice/stack_1","generator_paprika/deconv02_1/strided_slice_1/stack_1","generator_paprika/deconv02_1/strided_slice/stack_1"],"attr":{"Index":{"type":3},"T":{"type":3},"shrink_axis_mask":{"i":"1"},"ellipsis_mask":{"i":"0"},"begin_mask":{"i":"0"},"new_axis_mask":{"i":"0"},"end_mask":{"i":"0"}},"name":"generator_paprika/deconv01_1/strided_slice_1","op":"StridedSlice"},{"input":["generator_paprika/deconv01_1/Shape","generator_paprika/deconv02_1/strided_slice_1/stack_1","generator_paprika/deconv02_1/strided_slice_2/stack_1","generator_paprika/deconv02_1/strided_slice/stack_1"],"attr":{"Index":{"type":3},"T":{"type":3},"shrink_axis_mask":{"i":"1"},"ellipsis_mask":{"i":"0"},"begin_mask":{"i":"0"},"new_axis_mask":{"i":"0"},"end_mask":{"i":"0"}},"name":"generator_paprika/deconv01_1/strided_slice_2","op":"StridedSlice"},{"input":["generator_paprika/deconv01_1/strided_slice_1","generator_paprika/deconv02_1/mul/y"],"attr":{"T":{"type":3}},"name":"generator_paprika/deconv01_1/mul","op":"Mul"},{"input":["generator_paprika/deconv01_1/strided_slice_2","generator_paprika/deconv02_1/mul/y"],"attr":{"T":{"type":3}},"name":"generator_paprika/deconv01_1/mul_1","op":"Mul"},{"input":["generator_paprika/deconv01_1/mul","generator_paprika/deconv02_1/add/y"],"attr":{"T":{"type":3}},"name":"generator_paprika/deconv01_1/add","op":"Add"},{"input":["generator_paprika/deconv01_1/mul_1","generator_paprika/deconv02_1/add/y"],"attr":{"T":{"type":3}},"name":"generator_paprika/deconv01_1/add_1","op":"Add"},{"input":["generator_paprika/deconv01_1/strided_slice","generator_paprika/deconv01_1/add","generator_paprika/deconv01_1/add_1","generator_paprika/deconv01_1/conv2d_transpose/output_shape/3"],"attr":{"N":{"i":"4"},"T":{"type":3},"axis":{"i":"0"}},"name":"generator_paprika/deconv01_1/conv2d_transpose/output_shape","op":"Pack"},{"input":["generator_paprika/deconv01_1/conv2d_transpose/output_shape","generator_paprika/deconv01_1/kernel","generator_paprika/add_7"],"attr":{"padding":{"s":[86,65,76,73,68]},"dilations":{"list":{"s":[],"i":["1","1","1","1"],"f":[],"b":[],"type":[],"shape":[],"tensor":[],"func":[]}},"T":{"type":1},"data_format":{"s":[78,72,87,67]},"strides":{"list":{"s":[],"i":["1","2","2","1"],"f":[],"b":[],"type":[],"shape":[],"tensor":[],"func":[]}},"use_cudnn_on_gpu":{"b":true}},"name":"generator_paprika/deconv01_1/conv2d_transpose","op":"Conv2DBackpropInput"},{"input":["generator_paprika/deconv01_1/conv2d_transpose","generator_paprika/deconv01_1/strided_slice_3/stack","generator_paprika/deconv01_1/strided_slice_3/stack_1","generator_paprika/deconv01_1/strided_slice_3/stack_2"],"attr":{"new_axis_mask":{"i":"0"},"end_mask":{"i":"7"},"T":{"type":1},"Index":{"type":3},"shrink_axis_mask":{"i":"0"},"begin_mask":{"i":"1"},"ellipsis_mask":{"i":"0"}},"name":"generator_paprika/deconv01_1/strided_slice_3","op":"StridedSlice"},{"input":["generator_paprika/deconv01_1/strided_slice_3","generator_paprika/deconv01_1/bias"],"attr":{"T":{"type":1},"data_format":{"s":[78,72,87,67]}},"name":"generator_paprika/deconv01_1/BiasAdd","op":"BiasAdd"},{"input":["generator_paprika/deconv01_1/BiasAdd","generator_paprika/Pad_15/paddings"],"attr":{"T":{"type":1},"Tpaddings":{"type":3}},"name":"generator_paprika/deconv01_2/Pad","op":"Pad"},{"input":["generator_paprika/deconv01_2/Pad","generator_paprika/deconv01_2/kernel"],"attr":{"dilations":{"list":{"s":[],"i":["1","1","1","1"],"f":[],"b":[],"type":[],"shape":[],"tensor":[],"func":[]}},"T":{"type":1},"data_format":{"s":[78,72,87,67]},"strides":{"list":{"s":[],"i":["1","1","1","1"],"f":[],"b":[],"type":[],"shape":[],"tensor":[],"func":[]}},"use_cudnn_on_gpu":{"b":true},"padding":{"s":[86,65,76,73,68]}},"name":"generator_paprika/deconv01_2/Conv2D","op":"Conv2D"},{"input":["generator_paprika/deconv01_2/Conv2D","generator_paprika/deconv01_2/bias"],"attr":{"T":{"type":1},"data_format":{"s":[78,72,87,67]}},"name":"generator_paprika/deconv01_2/BiasAdd","op":"BiasAdd"},{"input":["generator_paprika/deconv01_2/BiasAdd","generator_paprika/in11_1/moments/mean/reduction_indices"],"attr":{"T":{"type":1},"Tidx":{"type":3},"keep_dims":{"b":true}},"name":"generator_paprika/in12_1/moments/mean","op":"Mean"},{"input":["generator_paprika/deconv01_2/BiasAdd","generator_paprika/in12_1/moments/mean"],"attr":{"T":{"type":1}},"name":"generator_paprika/in12_1/moments/SquaredDifference","op":"SquaredDifference"},{"input":["generator_paprika/in12_1/moments/SquaredDifference","generator_paprika/in11_1/moments/mean/reduction_indices"],"attr":{"Tidx":{"type":3},"keep_dims":{"b":true},"T":{"type":1}},"name":"generator_paprika/in12_1/moments/variance","op":"Mean"},{"input":["generator_paprika/in12_1/moments/variance","generator_paprika/in11_1/instancenorm/add/y"],"attr":{"T":{"type":1}},"name":"generator_paprika/in12_1/instancenorm/add","op":"Add"},{"input":["generator_paprika/in12_1/instancenorm/add"],"attr":{"T":{"type":1}},"name":"generator_paprika/in12_1/instancenorm/Rsqrt","op":"Rsqrt"},{"input":["generator_paprika/in12_1/instancenorm/Rsqrt","generator_paprika/in12_1/gamma"],"attr":{"T":{"type":1}},"name":"generator_paprika/in12_1/instancenorm/mul","op":"Mul"},{"input":["generator_paprika/deconv01_2/BiasAdd","generator_paprika/in12_1/instancenorm/mul"],"attr":{"T":{"type":1}},"name":"generator_paprika/in12_1/instancenorm/mul_1","op":"Mul"},{"input":["generator_paprika/in12_1/moments/mean","generator_paprika/in12_1/instancenorm/mul"],"attr":{"T":{"type":1}},"name":"generator_paprika/in12_1/instancenorm/mul_2","op":"Mul"},{"input":["generator_paprika/in12_1/beta","generator_paprika/in12_1/instancenorm/mul_2"],"attr":{"T":{"type":1}},"name":"generator_paprika/in12_1/instancenorm/sub","op":"Sub"},{"input":["generator_paprika/in12_1/instancenorm/mul_1","generator_paprika/in12_1/instancenorm/sub"],"attr":{"T":{"type":1}},"name":"generator_paprika/in12_1/instancenorm/add_1","op":"Add"},{"input":["generator_paprika/in12_1/instancenorm/add_1"],"attr":{"T":{"type":1}},"name":"generator_paprika/Relu_11","op":"Relu"},{"input":["generator_paprika/Relu_11"],"attr":{"T":{"type":1},"out_type":{"type":3}},"name":"generator_paprika/deconv02_1/Shape","op":"Shape"},{"input":["generator_paprika/deconv02_1/Shape","generator_paprika/deconv02_1/strided_slice/stack","generator_paprika/deconv02_1/strided_slice/stack_1","generator_paprika/deconv02_1/strided_slice/stack_1"],"attr":{"ellipsis_mask":{"i":"0"},"begin_mask":{"i":"0"},"new_axis_mask":{"i":"0"},"end_mask":{"i":"0"},"T":{"type":3},"Index":{"type":3},"shrink_axis_mask":{"i":"1"}},"name":"generator_paprika/deconv02_1/strided_slice","op":"StridedSlice"},{"input":["generator_paprika/deconv02_1/Shape","generator_paprika/deconv02_1/strided_slice/stack_1","generator_paprika/deconv02_1/strided_slice_1/stack_1","generator_paprika/deconv02_1/strided_slice/stack_1"],"attr":{"shrink_axis_mask":{"i":"1"},"ellipsis_mask":{"i":"0"},"begin_mask":{"i":"0"},"new_axis_mask":{"i":"0"},"end_mask":{"i":"0"},"Index":{"type":3},"T":{"type":3}},"name":"generator_paprika/deconv02_1/strided_slice_1","op":"StridedSlice"},{"input":["generator_paprika/deconv02_1/Shape","generator_paprika/deconv02_1/strided_slice_1/stack_1","generator_paprika/deconv02_1/strided_slice_2/stack_1","generator_paprika/deconv02_1/strided_slice/stack_1"],"attr":{"Index":{"type":3},"T":{"type":3},"shrink_axis_mask":{"i":"1"},"begin_mask":{"i":"0"},"ellipsis_mask":{"i":"0"},"new_axis_mask":{"i":"0"},"end_mask":{"i":"0"}},"name":"generator_paprika/deconv02_1/strided_slice_2","op":"StridedSlice"},{"input":["generator_paprika/deconv02_1/strided_slice_1","generator_paprika/deconv02_1/mul/y"],"attr":{"T":{"type":3}},"name":"generator_paprika/deconv02_1/mul","op":"Mul"},{"input":["generator_paprika/deconv02_1/strided_slice_2","generator_paprika/deconv02_1/mul/y"],"attr":{"T":{"type":3}},"name":"generator_paprika/deconv02_1/mul_1","op":"Mul"},{"input":["generator_paprika/deconv02_1/mul","generator_paprika/deconv02_1/add/y"],"attr":{"T":{"type":3}},"name":"generator_paprika/deconv02_1/add","op":"Add"},{"input":["generator_paprika/deconv02_1/mul_1","generator_paprika/deconv02_1/add/y"],"attr":{"T":{"type":3}},"name":"generator_paprika/deconv02_1/add_1","op":"Add"},{"input":["generator_paprika/deconv02_1/strided_slice","generator_paprika/deconv02_1/add","generator_paprika/deconv02_1/add_1","generator_paprika/deconv02_1/conv2d_transpose/output_shape/3"],"attr":{"N":{"i":"4"},"T":{"type":3},"axis":{"i":"0"}},"name":"generator_paprika/deconv02_1/conv2d_transpose/output_shape","op":"Pack"},{"input":["generator_paprika/deconv02_1/conv2d_transpose/output_shape","generator_paprika/deconv02_1/kernel","generator_paprika/Relu_11"],"attr":{"padding":{"s":[86,65,76,73,68]},"dilations":{"list":{"s":[],"i":["1","1","1","1"],"f":[],"b":[],"type":[],"shape":[],"tensor":[],"func":[]}},"T":{"type":1},"data_format":{"s":[78,72,87,67]},"strides":{"list":{"s":[],"i":["1","2","2","1"],"f":[],"b":[],"type":[],"shape":[],"tensor":[],"func":[]}},"use_cudnn_on_gpu":{"b":true}},"name":"generator_paprika/deconv02_1/conv2d_transpose","op":"Conv2DBackpropInput"},{"input":["generator_paprika/deconv02_1/conv2d_transpose","generator_paprika/deconv01_1/strided_slice_3/stack","generator_paprika/deconv01_1/strided_slice_3/stack_1","generator_paprika/deconv01_1/strided_slice_3/stack_2"],"attr":{"shrink_axis_mask":{"i":"0"},"begin_mask":{"i":"1"},"ellipsis_mask":{"i":"0"},"new_axis_mask":{"i":"0"},"end_mask":{"i":"7"},"T":{"type":1},"Index":{"type":3}},"name":"generator_paprika/deconv02_1/strided_slice_3","op":"StridedSlice"},{"input":["generator_paprika/deconv02_1/strided_slice_3","generator_paprika/deconv02_1/bias"],"attr":{"T":{"type":1},"data_format":{"s":[78,72,87,67]}},"name":"generator_paprika/deconv02_1/BiasAdd","op":"BiasAdd"},{"input":["generator_paprika/deconv02_1/BiasAdd","generator_paprika/Pad_15/paddings"],"attr":{"T":{"type":1},"Tpaddings":{"type":3}},"name":"generator_paprika/deconv02_2/Pad","op":"Pad"},{"input":["generator_paprika/deconv02_2/Pad","generator_paprika/deconv02_2/kernel"],"attr":{"strides":{"list":{"s":[],"i":["1","1","1","1"],"f":[],"b":[],"type":[],"shape":[],"tensor":[],"func":[]}},"data_format":{"s":[78,72,87,67]},"use_cudnn_on_gpu":{"b":true},"padding":{"s":[86,65,76,73,68]},"dilations":{"list":{"s":[],"i":["1","1","1","1"],"f":[],"b":[],"type":[],"shape":[],"tensor":[],"func":[]}},"T":{"type":1}},"name":"generator_paprika/deconv02_2/Conv2D","op":"Conv2D"},{"input":["generator_paprika/deconv02_2/Conv2D","generator_paprika/deconv02_2/bias"],"attr":{"T":{"type":1},"data_format":{"s":[78,72,87,67]}},"name":"generator_paprika/deconv02_2/BiasAdd","op":"BiasAdd"},{"input":["generator_paprika/deconv02_2/BiasAdd","generator_paprika/in11_1/moments/mean/reduction_indices"],"attr":{"Tidx":{"type":3},"keep_dims":{"b":true},"T":{"type":1}},"name":"generator_paprika/in13_1/moments/mean","op":"Mean"},{"input":["generator_paprika/deconv02_2/BiasAdd","generator_paprika/in13_1/moments/mean"],"attr":{"T":{"type":1}},"name":"generator_paprika/in13_1/moments/SquaredDifference","op":"SquaredDifference"},{"input":["generator_paprika/in13_1/moments/SquaredDifference","generator_paprika/in11_1/moments/mean/reduction_indices"],"attr":{"Tidx":{"type":3},"keep_dims":{"b":true},"T":{"type":1}},"name":"generator_paprika/in13_1/moments/variance","op":"Mean"},{"input":["generator_paprika/in13_1/moments/variance","generator_paprika/in11_1/instancenorm/add/y"],"attr":{"T":{"type":1}},"name":"generator_paprika/in13_1/instancenorm/add","op":"Add"},{"input":["generator_paprika/in13_1/instancenorm/add"],"attr":{"T":{"type":1}},"name":"generator_paprika/in13_1/instancenorm/Rsqrt","op":"Rsqrt"},{"input":["generator_paprika/in13_1/instancenorm/Rsqrt","generator_paprika/in13_1/gamma"],"attr":{"T":{"type":1}},"name":"generator_paprika/in13_1/instancenorm/mul","op":"Mul"},{"input":["generator_paprika/deconv02_2/BiasAdd","generator_paprika/in13_1/instancenorm/mul"],"attr":{"T":{"type":1}},"name":"generator_paprika/in13_1/instancenorm/mul_1","op":"Mul"},{"input":["generator_paprika/in13_1/moments/mean","generator_paprika/in13_1/instancenorm/mul"],"attr":{"T":{"type":1}},"name":"generator_paprika/in13_1/instancenorm/mul_2","op":"Mul"},{"input":["generator_paprika/in13_1/beta","generator_paprika/in13_1/instancenorm/mul_2"],"attr":{"T":{"type":1}},"name":"generator_paprika/in13_1/instancenorm/sub","op":"Sub"},{"input":["generator_paprika/in13_1/instancenorm/mul_1","generator_paprika/in13_1/instancenorm/sub"],"attr":{"T":{"type":1}},"name":"generator_paprika/in13_1/instancenorm/add_1","op":"Add"},{"input":["generator_paprika/in13_1/instancenorm/add_1"],"attr":{"T":{"type":1}},"name":"generator_paprika/Relu_12","op":"Relu"},{"input":["generator_paprika/Relu_12","generator_paprika/Pad/paddings"],"attr":{"T":{"type":1},"Tpaddings":{"type":3}},"name":"generator_paprika/Pad_17","op":"Pad"},{"input":["generator_paprika/Pad_17","generator_paprika/deconv03_1/kernel"],"attr":{"dilations":{"list":{"s":[],"i":["1","1","1","1"],"f":[],"b":[],"type":[],"shape":[],"tensor":[],"func":[]}},"T":{"type":1},"data_format":{"s":[78,72,87,67]},"strides":{"list":{"s":[],"i":["1","1","1","1"],"f":[],"b":[],"type":[],"shape":[],"tensor":[],"func":[]}},"use_cudnn_on_gpu":{"b":true},"padding":{"s":[86,65,76,73,68]}},"name":"generator_paprika/deconv03_1/Conv2D","op":"Conv2D"},{"input":["generator_paprika/deconv03_1/Conv2D","generator_paprika/deconv03_1/bias"],"attr":{"T":{"type":1},"data_format":{"s":[78,72,87,67]}},"name":"generator_paprika/deconv03_1/BiasAdd","op":"BiasAdd"},{"input":["generator_paprika/deconv03_1/BiasAdd"],"attr":{"T":{"type":1}},"name":"generator_paprika/Tanh","op":"Tanh"}],"library":{"function":[],"gradient":[]},"versions":{"badConsumers":[]}},"weightsManifest":[{"paths":["group1-shard1of3","group1-shard2of3","group1-shard3of3"],"weights":[{"name":"generator_paprika/in13_1/beta","shape":[64],"dtype":"float32","quantization":{"min":-0.16175119170152089,"scale":0.0006942111231824931,"dtype":"uint8"}},{"name":"generator_paprika/deconv02_1/conv2d_transpose/output_shape/3","shape":[],"dtype":"int32","quantization":{"min":64,"scale":1,"dtype":"uint8"}},{"name":"generator_paprika/deconv02_1/kernel","shape":[3,3,64,128],"dtype":"float32","quantization":{"min":-0.09555057193718704,"scale":0.0007832014093212053,"dtype":"uint8"}},{"name":"generator_paprika/in12_1/beta","shape":[128],"dtype":"float32","quantization":{"min":-0.12443258660096748,"scale":0.0006990594752863342,"dtype":"uint8"}},{"name":"generator_paprika/deconv02_1/strided_slice/stack","shape":[1],"dtype":"int32","quantization":{"min":0,"scale":1,"dtype":"uint8"}},{"name":"generator_paprika/deconv02_1/strided_slice_1/stack_1","shape":[1],"dtype":"int32","quantization":{"min":2,"scale":1,"dtype":"uint8"}},{"name":"generator_paprika/deconv02_1/strided_slice_2/stack_1","shape":[1],"dtype":"int32","quantization":{"min":3,"scale":1,"dtype":"uint8"}},{"name":"generator_paprika/deconv02_1/strided_slice/stack_1","shape":[1],"dtype":"int32","quantization":{"min":1,"scale":1,"dtype":"uint8"}},{"name":"generator_paprika/deconv02_1/mul/y","shape":[],"dtype":"int32","quantization":{"min":2,"scale":1,"dtype":"uint8"}},{"name":"generator_paprika/deconv02_1/add/y","shape":[],"dtype":"int32","quantization":{"min":1,"scale":1,"dtype":"uint8"}},{"name":"generator_paprika/deconv01_1/conv2d_transpose/output_shape/3","shape":[],"dtype":"int32","quantization":{"min":128,"scale":1,"dtype":"uint8"}},{"name":"generator_paprika/deconv01_1/kernel","shape":[3,3,128,256],"dtype":"float32","quantization":{"min":-0.09270673166303073,"scale":0.000735767711611355,"dtype":"uint8"}},{"name":"generator_paprika/in11_2/beta","shape":[256],"dtype":"float32","quantization":{"min":-0.026889932067955244,"scale":0.0002688993206795524,"dtype":"uint8"}},{"name":"generator_paprika/in11_1/beta","shape":[256],"dtype":"float32","quantization":{"min":-0.08240380243343465,"scale":0.0005605700845811881,"dtype":"uint8"}},{"name":"generator_paprika/conv11_1/kernel","shape":[3,3,256,256],"dtype":"float32","quantization":{"min":-0.10317365608963312,"scale":0.0008060441882002588,"dtype":"uint8"}},{"name":"generator_paprika/conv11_1/bias","shape":[256],"dtype":"float32","quantization":{"min":-4.937727272809578e-9,"scale":3.105488850823634e-11,"dtype":"uint8"}},{"name":"generator_paprika/in11_1/gamma","shape":[256],"dtype":"float32","quantization":{"min":0.050868988037109375,"scale":0.003661754785799513,"dtype":"uint8"}},{"name":"generator_paprika/conv11_2/kernel","shape":[3,3,256,256],"dtype":"float32","quantization":{"min":-0.10675626765279209,"scale":0.0008822832037420834,"dtype":"uint8"}},{"name":"generator_paprika/conv11_2/bias","shape":[256],"dtype":"float32","quantization":{"min":-1.6580896070529566e-8,"scale":1.1928702209014078e-10,"dtype":"uint8"}},{"name":"generator_paprika/in11_2/gamma","shape":[256],"dtype":"float32","quantization":{"min":0.05157620832324028,"scale":0.0037416244984841813,"dtype":"uint8"}},{"name":"generator_paprika/in10_2/beta","shape":[256],"dtype":"float32","quantization":{"min":-0.026889935720200632,"scale":0.0002688993572020063,"dtype":"uint8"}},{"name":"generator_paprika/in10_1/beta","shape":[256],"dtype":"float32","quantization":{"min":-0.0834518038466865,"scale":0.0005755296817012862,"dtype":"uint8"}},{"name":"generator_paprika/conv10_1/kernel","shape":[3,3,256,256],"dtype":"float32","quantization":{"min":-0.09508442972220627,"scale":0.0007428471072047364,"dtype":"uint8"}},{"name":"generator_paprika/conv10_1/bias","shape":[256],"dtype":"float32","quantization":{"min":-4.00792622619573e-9,"scale":2.968834241626467e-11,"dtype":"uint8"}},{"name":"generator_paprika/in10_1/gamma","shape":[256],"dtype":"float32","quantization":{"min":0.051754362881183624,"scale":0.0036485882074225183,"dtype":"uint8"}},{"name":"generator_paprika/conv10_2/kernel","shape":[3,3,256,256],"dtype":"float32","quantization":{"min":-0.10617972235469257,"scale":0.000863249775241403,"dtype":"uint8"}},{"name":"generator_paprika/conv10_2/bias","shape":[256],"dtype":"float32","quantization":{"min":-1.9053310458783767e-8,"scale":1.411356330280279e-10,"dtype":"uint8"}},{"name":"generator_paprika/in10_2/gamma","shape":[256],"dtype":"float32","quantization":{"min":-0.03648652416818282,"scale":0.0040540582409092024,"dtype":"uint8"}},{"name":"generator_paprika/in09_2/beta","shape":[256],"dtype":"float32","quantization":{"min":-0.026889931337506164,"scale":0.00026889931337506165,"dtype":"uint8"}},{"name":"generator_paprika/in09_1/beta","shape":[256],"dtype":"float32","quantization":{"min":-0.08457152764586841,"scale":0.0005456227590056027,"dtype":"uint8"}},{"name":"generator_paprika/conv09_1/kernel","shape":[3,3,256,256],"dtype":"float32","quantization":{"min":-0.09492653459310532,"scale":0.0007717604438463847,"dtype":"uint8"}},{"name":"generator_paprika/conv09_1/bias","shape":[256],"dtype":"float32","quantization":{"min":-4.238585952808695e-9,"scale":4.2385859528086956e-11,"dtype":"uint8"}},{"name":"generator_paprika/in09_1/gamma","shape":[256],"dtype":"float32","quantization":{"min":0.06017005816102028,"scale":0.0036517098692117954,"dtype":"uint8"}},{"name":"generator_paprika/conv09_2/kernel","shape":[3,3,256,256],"dtype":"float32","quantization":{"min":-0.09813847790161769,"scale":0.0007727439204851786,"dtype":"uint8"}},{"name":"generator_paprika/conv09_2/bias","shape":[256],"dtype":"float32","quantization":{"min":-1.7814061567043933e-8,"scale":1.2457385711219533e-10,"dtype":"uint8"}},{"name":"generator_paprika/in09_2/gamma","shape":[256],"dtype":"float32","quantization":{"min":0.04526875168085098,"scale":0.00374609778324763,"dtype":"uint8"}},{"name":"generator_paprika/in08_2/beta","shape":[256],"dtype":"float32","quantization":{"min":-0.0268899233025663,"scale":0.000268899233025663,"dtype":"uint8"}},{"name":"generator_paprika/in08_1/beta","shape":[256],"dtype":"float32","quantization":{"min":-0.0973328858613968,"scale":0.0006239287555217743,"dtype":"uint8"}},{"name":"generator_paprika/conv08_1/kernel","shape":[3,3,256,256],"dtype":"float32","quantization":{"min":-0.11234558028917686,"scale":0.0008200407320377873,"dtype":"uint8"}},{"name":"generator_paprika/conv08_1/bias","shape":[256],"dtype":"float32","quantization":{"min":-5.620873377200924e-9,"scale":3.823723385850969e-11,"dtype":"uint8"}},{"name":"generator_paprika/in08_1/gamma","shape":[256],"dtype":"float32","quantization":{"min":0.0597875602543354,"scale":0.003614429910393322,"dtype":"uint8"}},{"name":"generator_paprika/conv08_2/kernel","shape":[3,3,256,256],"dtype":"float32","quantization":{"min":-0.10986998910997428,"scale":0.0008199252918654797,"dtype":"uint8"}},{"name":"generator_paprika/conv08_2/bias","shape":[256],"dtype":"float32","quantization":{"min":-1.5717275533354362e-8,"scale":1.496883384128987e-10,"dtype":"uint8"}},{"name":"generator_paprika/in08_2/gamma","shape":[256],"dtype":"float32","quantization":{"min":-0.032169350455789,"scale":0.004021168806973625,"dtype":"uint8"}},{"name":"generator_paprika/in07_2/beta","shape":[256],"dtype":"float32","quantization":{"min":-0.026889931337506164,"scale":0.00026889931337506165,"dtype":"uint8"}},{"name":"generator_paprika/in07_1/beta","shape":[256],"dtype":"float32","quantization":{"min":-0.06639351199070613,"scale":0.00046755994359652203,"dtype":"uint8"}},{"name":"generator_paprika/conv07_1/kernel","shape":[3,3,256,256],"dtype":"float32","quantization":{"min":-0.09526367579020706,"scale":0.0007808498015590742,"dtype":"uint8"}},{"name":"generator_paprika/conv07_1/bias","shape":[256],"dtype":"float32","quantization":{"min":-6.991491856044765e-9,"scale":5.178882856329455e-11,"dtype":"uint8"}},{"name":"generator_paprika/in07_1/gamma","shape":[256],"dtype":"float32","quantization":{"min":0.04824823513627052,"scale":0.003701071864834019,"dtype":"uint8"}},{"name":"generator_paprika/conv07_2/kernel","shape":[3,3,256,256],"dtype":"float32","quantization":{"min":-0.09862964565263074,"scale":0.0007645708965320213,"dtype":"uint8"}},{"name":"generator_paprika/conv07_2/bias","shape":[256],"dtype":"float32","quantization":{"min":-1.6112718312529872e-8,"scale":1.9412913629554062e-10,"dtype":"uint8"}},{"name":"generator_paprika/in07_2/gamma","shape":[256],"dtype":"float32","quantization":{"min":0.02251605875790119,"scale":0.0037745558090654073,"dtype":"uint8"}},{"name":"generator_paprika/in06_2/beta","shape":[256],"dtype":"float32","quantization":{"min":-0.0268899335288534,"scale":0.000268899335288534,"dtype":"uint8"}},{"name":"generator_paprika/in06_1/beta","shape":[256],"dtype":"float32","quantization":{"min":-0.07996712449718925,"scale":0.0005514974103254431,"dtype":"uint8"}},{"name":"generator_paprika/conv06_1/kernel","shape":[3,3,256,256],"dtype":"float32","quantization":{"min":-0.10073666046647464,"scale":0.0008257103316924151,"dtype":"uint8"}},{"name":"generator_paprika/conv06_1/bias","shape":[256],"dtype":"float32","quantization":{"min":-1.0521596098082379e-8,"scale":6.454966931338882e-11,"dtype":"uint8"}},{"name":"generator_paprika/in06_1/gamma","shape":[256],"dtype":"float32","quantization":{"min":0.03971630707383156,"scale":0.003678491287956051,"dtype":"uint8"}},{"name":"generator_paprika/conv06_2/kernel","shape":[3,3,256,256],"dtype":"float32","quantization":{"min":-0.09611457229829302,"scale":0.0007878243631007625,"dtype":"uint8"}},{"name":"generator_paprika/conv06_2/bias","shape":[256],"dtype":"float32","quantization":{"min":-1.9326820287077165e-8,"scale":1.3904187256890046e-10,"dtype":"uint8"}},{"name":"generator_paprika/in06_2/gamma","shape":[256],"dtype":"float32","quantization":{"min":0.02792562171816826,"scale":0.003752561600184908,"dtype":"uint8"}},{"name":"generator_paprika/in05_2/beta","shape":[256],"dtype":"float32","quantization":{"min":-0.02688994740738588,"scale":0.0002688994740738588,"dtype":"uint8"}},{"name":"generator_paprika/in05_1/beta","shape":[256],"dtype":"float32","quantization":{"min":-0.07410107164406309,"scale":0.0005181893121962454,"dtype":"uint8"}},{"name":"generator_paprika/conv05_1/kernel","shape":[3,3,256,256],"dtype":"float32","quantization":{"min":-0.09776516480773102,"scale":0.0007698044473049687,"dtype":"uint8"}},{"name":"generator_paprika/conv05_1/bias","shape":[256],"dtype":"float32","quantization":{"min":-1.34989614745488e-8,"scale":9.925706966580001e-11,"dtype":"uint8"}},{"name":"generator_paprika/in05_1/gamma","shape":[256],"dtype":"float32","quantization":{"min":0.061514049768447876,"scale":0.0036337486669129017,"dtype":"uint8"}},{"name":"generator_paprika/conv05_2/kernel","shape":[3,3,256,256],"dtype":"float32","quantization":{"min":-0.09471357464790345,"scale":0.0007959123919991886,"dtype":"uint8"}},{"name":"generator_paprika/conv05_2/bias","shape":[256],"dtype":"float32","quantization":{"min":-1.72784200124036e-8,"scale":1.371303175587587e-10,"dtype":"uint8"}},{"name":"generator_paprika/in05_2/gamma","shape":[256],"dtype":"float32","quantization":{"min":0.01317234430462122,"scale":0.0038046508990958626,"dtype":"uint8"}},{"name":"generator_paprika/in04_2/beta","shape":[256],"dtype":"float32","quantization":{"min":-0.026889956172774822,"scale":0.0002688995617277482,"dtype":"uint8"}},{"name":"generator_paprika/in04_1/beta","shape":[256],"dtype":"float32","quantization":{"min":-0.04951303513611064,"scale":0.00039296059631833844,"dtype":"uint8"}},{"name":"generator_paprika/conv04_1/kernel","shape":[3,3,256,256],"dtype":"float32","quantization":{"min":-0.10222800374031067,"scale":0.0007744545737902324,"dtype":"uint8"}},{"name":"generator_paprika/conv04_1/bias","shape":[256],"dtype":"float32","quantization":{"min":-1.224724068043101e-8,"scale":1.0467727077291463e-10,"dtype":"uint8"}},{"name":"generator_paprika/in04_1/gamma","shape":[256],"dtype":"float32","quantization":{"min":0.05341792479157448,"scale":0.0036815299561210706,"dtype":"uint8"}},{"name":"generator_paprika/conv04_2/kernel","shape":[3,3,256,256],"dtype":"float32","quantization":{"min":-0.10086541035596062,"scale":0.0007641318966360653,"dtype":"uint8"}},{"name":"generator_paprika/conv04_2/bias","shape":[256],"dtype":"float32","quantization":{"min":-2.1143839787515283e-8,"scale":1.4995631054975377e-10,"dtype":"uint8"}},{"name":"generator_paprika/in04_2/gamma","shape":[256],"dtype":"float32","quantization":{"min":0.024101773276925087,"scale":0.0037788111424329235,"dtype":"uint8"}},{"name":"generator_paprika/in03_1/beta","shape":[256],"dtype":"float32","quantization":{"min":-0.030405054489771526,"scale":0.00038006318112214407,"dtype":"uint8"}},{"name":"generator_paprika/in02_1/beta","shape":[128],"dtype":"float32","quantization":{"min":-0.03974225626272314,"scale":0.0004568075432496912,"dtype":"uint8"}},{"name":"generator_paprika/in01_1/beta","shape":[64],"dtype":"float32","quantization":{"min":-0.025936184005410062,"scale":0.0003015835349466286,"dtype":"uint8"}},{"name":"generator_paprika/conv01_1/kernel","shape":[7,7,3,64],"dtype":"float32","quantization":{"min":-0.07808964147287258,"scale":0.0006053460579292447,"dtype":"uint8"}},{"name":"generator_paprika/conv01_1/bias","shape":[64],"dtype":"float32","quantization":{"min":-1.7033772290714671e-7,"scale":1.3518866897392596e-9,"dtype":"uint8"}},{"name":"generator_paprika/in01_1/gamma","shape":[64],"dtype":"float32","quantization":{"min":0.05851174518465996,"scale":0.003614000435553345,"dtype":"uint8"}},{"name":"generator_paprika/conv02_1/kernel","shape":[3,3,64,128],"dtype":"float32","quantization":{"min":-0.09457444548606873,"scale":0.0007688979307810466,"dtype":"uint8"}},{"name":"generator_paprika/conv02_1/bias","shape":[128],"dtype":"float32","quantization":{"min":-4.5368767754392615e-7,"scale":3.360649463288342e-9,"dtype":"uint8"}},{"name":"generator_paprika/conv02_2/kernel","shape":[3,3,128,128],"dtype":"float32","quantization":{"min":-0.08974961819601994,"scale":0.0007066899070552751,"dtype":"uint8"}},{"name":"generator_paprika/conv02_2/bias","shape":[128],"dtype":"float32","quantization":{"min":-6.394067467043914e-8,"scale":5.034698792947964e-10,"dtype":"uint8"}},{"name":"generator_paprika/in02_1/gamma","shape":[128],"dtype":"float32","quantization":{"min":0.041892435401678085,"scale":0.0036751086951470843,"dtype":"uint8"}},{"name":"generator_paprika/conv03_1/kernel","shape":[3,3,128,256],"dtype":"float32","quantization":{"min":-0.08735218258465038,"scale":0.0007160014965954949,"dtype":"uint8"}},{"name":"generator_paprika/conv03_1/bias","shape":[256],"dtype":"float32","quantization":{"min":-4.173955877225429e-7,"scale":3.5075259472482598e-9,"dtype":"uint8"}},{"name":"generator_paprika/conv03_2/kernel","shape":[3,3,256,256],"dtype":"float32","quantization":{"min":-0.10304868755971684,"scale":0.0007521802011658164,"dtype":"uint8"}},{"name":"generator_paprika/conv03_2/bias","shape":[256],"dtype":"float32","quantization":{"min":-2.7583365447934313e-8,"scale":2.6269871855175535e-10,"dtype":"uint8"}},{"name":"generator_paprika/in03_1/gamma","shape":[256],"dtype":"float32","quantization":{"min":0.0590299516916275,"scale":0.003638799926813911,"dtype":"uint8"}},{"name":"generator_paprika/deconv01_1/bias","shape":[128],"dtype":"float32","quantization":{"min":-2.1138987031409829e-7,"scale":1.565850891215543e-9,"dtype":"uint8"}},{"name":"generator_paprika/deconv01_2/kernel","shape":[3,3,128,128],"dtype":"float32","quantization":{"min":-0.09812862919826133,"scale":0.0007666299156114167,"dtype":"uint8"}},{"name":"generator_paprika/deconv01_2/bias","shape":[128],"dtype":"float32","quantization":{"min":-2.0686989000249493e-8,"scale":1.4072781632822785e-10,"dtype":"uint8"}},{"name":"generator_paprika/in12_1/gamma","shape":[128],"dtype":"float32","quantization":{"min":0.05511060729622841,"scale":0.0035874377132630816,"dtype":"uint8"}},{"name":"generator_paprika/deconv01_1/strided_slice_3/stack","shape":[3],"dtype":"int32","quantization":{"min":0,"scale":0.00392156862745098,"dtype":"uint8"}},{"name":"generator_paprika/deconv01_1/strided_slice_3/stack_1","shape":[3],"dtype":"int32","quantization":{"min":0,"scale":1,"dtype":"uint8"}},{"name":"generator_paprika/deconv01_1/strided_slice_3/stack_2","shape":[3],"dtype":"int32","quantization":{"min":1,"scale":1,"dtype":"uint8"}},{"name":"generator_paprika/deconv02_1/bias","shape":[64],"dtype":"float32","quantization":{"min":-1.8667217028789808e-7,"scale":1.4359397714453698e-9,"dtype":"uint8"}},{"name":"generator_paprika/Pad_15/paddings","shape":[4,2],"dtype":"int32","quantization":{"min":0,"scale":0.00392156862745098,"dtype":"uint8"}},{"name":"generator_paprika/deconv02_2/kernel","shape":[3,3,64,64],"dtype":"float32","quantization":{"min":-0.08144832954687231,"scale":0.0006621815410314822,"dtype":"uint8"}},{"name":"generator_paprika/deconv02_2/bias","shape":[64],"dtype":"float32","quantization":{"min":-1.5036336237119707e-7,"scale":1.1566412490092083e-9,"dtype":"uint8"}},{"name":"generator_paprika/in11_1/moments/mean/reduction_indices","shape":[2],"dtype":"int32","quantization":{"min":1,"scale":0.00392156862745098,"dtype":"uint8"}},{"name":"generator_paprika/in11_1/instancenorm/add/y","shape":[],"dtype":"float32","quantization":{"min":9.999999717180685e-10,"scale":1,"dtype":"uint8"}},{"name":"generator_paprika/in13_1/gamma","shape":[64],"dtype":"float32","quantization":{"min":0.022388523444533348,"scale":0.0036994707131502674,"dtype":"uint8"}},{"name":"generator_paprika/Pad/paddings","shape":[4,2],"dtype":"int32","quantization":{"min":0,"scale":0.011764705882352941,"dtype":"uint8"}},{"name":"generator_paprika/deconv03_1/kernel","shape":[7,7,64,3],"dtype":"float32","quantization":{"min":-0.3436318341423484,"scale":0.002045427584180645,"dtype":"uint8"}},{"name":"generator_paprika/deconv03_1/bias","shape":[3],"dtype":"float32","quantization":{"min":-1.5624477782694156e-7,"scale":7.659057736614782e-10,"dtype":"uint8"}}]}]}