{"modelTopology":{"node":[{"input":[],"attr":{"value":{"tensor":{"floatVal":[],"doubleVal":[],"intVal":[],"stringVal":[],"scomplexVal":[],"int64Val":[],"boolVal":[],"uint32Val":[],"uint64Val":[],"dtype":1,"tensorShape":{"dim":[{"size":"64"}]}}},"dtype":{"type":1}},"name":"generator_shinkai/in13_1/beta","op":"Const"},{"input":[],"attr":{"value":{"tensor":{"floatVal":[],"doubleVal":[],"intVal":[],"stringVal":[],"scomplexVal":[],"int64Val":[],"boolVal":[],"uint32Val":[],"uint64Val":[],"dtype":3,"tensorShape":{"dim":[]}}},"dtype":{"type":3}},"name":"generator_shinkai/deconv02_1/conv2d_transpose/output_shape/3","op":"Const"},{"input":[],"attr":{"value":{"tensor":{"floatVal":[],"doubleVal":[],"intVal":[],"stringVal":[],"scomplexVal":[],"int64Val":[],"boolVal":[],"uint32Val":[],"uint64Val":[],"dtype":1,"tensorShape":{"dim":[{"size":"3"},{"size":"3"},{"size":"64"},{"size":"128"}]}}},"dtype":{"type":1}},"name":"generator_shinkai/deconv02_1/kernel","op":"Const"},{"input":[],"attr":{"value":{"tensor":{"floatVal":[],"doubleVal":[],"intVal":[],"stringVal":[],"scomplexVal":[],"int64Val":[],"boolVal":[],"uint32Val":[],"uint64Val":[],"dtype":1,"tensorShape":{"dim":[{"size":"128"}]}}},"dtype":{"type":1}},"name":"generator_shinkai/in12_1/beta","op":"Const"},{"input":[],"attr":{"value":{"tensor":{"floatVal":[],"doubleVal":[],"intVal":[],"stringVal":[],"scomplexVal":[],"int64Val":[],"boolVal":[],"uint32Val":[],"uint64Val":[],"dtype":3,"tensorShape":{"dim":[{"size":"1"}]}}},"dtype":{"type":3}},"name":"generator_shinkai/deconv02_1/strided_slice/stack","op":"Const"},{"input":[],"attr":{"value":{"tensor":{"floatVal":[],"doubleVal":[],"intVal":[],"stringVal":[],"scomplexVal":[],"int64Val":[],"boolVal":[],"uint32Val":[],"uint64Val":[],"dtype":3,"tensorShape":{"dim":[{"size":"1"}]}}},"dtype":{"type":3}},"name":"generator_shinkai/deconv02_1/strided_slice_1/stack_1","op":"Const"},{"input":[],"attr":{"value":{"tensor":{"floatVal":[],"doubleVal":[],"intVal":[],"stringVal":[],"scomplexVal":[],"int64Val":[],"boolVal":[],"uint32Val":[],"uint64Val":[],"dtype":3,"tensorShape":{"dim":[{"size":"1"}]}}},"dtype":{"type":3}},"name":"generator_shinkai/deconv02_1/strided_slice_2/stack_1","op":"Const"},{"input":[],"attr":{"value":{"tensor":{"floatVal":[],"doubleVal":[],"intVal":[],"stringVal":[],"scomplexVal":[],"int64Val":[],"boolVal":[],"uint32Val":[],"uint64Val":[],"dtype":3,"tensorShape":{"dim":[{"size":"1"}]}}},"dtype":{"type":3}},"name":"generator_shinkai/deconv02_1/strided_slice/stack_1","op":"Const"},{"input":[],"attr":{"value":{"tensor":{"floatVal":[],"doubleVal":[],"intVal":[],"stringVal":[],"scomplexVal":[],"int64Val":[],"boolVal":[],"uint32Val":[],"uint64Val":[],"dtype":3,"tensorShape":{"dim":[]}}},"dtype":{"type":3}},"name":"generator_shinkai/deconv02_1/mul/y","op":"Const"},{"input":[],"attr":{"value":{"tensor":{"floatVal":[],"doubleVal":[],"intVal":[],"stringVal":[],"scomplexVal":[],"int64Val":[],"boolVal":[],"uint32Val":[],"uint64Val":[],"dtype":3,"tensorShape":{"dim":[]}}},"dtype":{"type":3}},"name":"generator_shinkai/deconv02_1/add/y","op":"Const"},{"input":[],"attr":{"value":{"tensor":{"floatVal":[],"doubleVal":[],"intVal":[],"stringVal":[],"scomplexVal":[],"int64Val":[],"boolVal":[],"uint32Val":[],"uint64Val":[],"dtype":3,"tensorShape":{"dim":[]}}},"dtype":{"type":3}},"name":"generator_shinkai/deconv01_1/conv2d_transpose/output_shape/3","op":"Const"},{"input":[],"attr":{"value":{"tensor":{"floatVal":[],"doubleVal":[],"intVal":[],"stringVal":[],"scomplexVal":[],"int64Val":[],"boolVal":[],"uint32Val":[],"uint64Val":[],"dtype":1,"tensorShape":{"dim":[{"size":"3"},{"size":"3"},{"size":"128"},{"size":"256"}]}}},"dtype":{"type":1}},"name":"generator_shinkai/deconv01_1/kernel","op":"Const"},{"input":[],"attr":{"value":{"tensor":{"floatVal":[],"doubleVal":[],"intVal":[],"stringVal":[],"scomplexVal":[],"int64Val":[],"boolVal":[],"uint32Val":[],"uint64Val":[],"dtype":1,"tensorShape":{"dim":[{"size":"256"}]}}},"dtype":{"type":1}},"name":"generator_shinkai/in11_2/beta","op":"Const"},{"input":[],"attr":{"value":{"tensor":{"floatVal":[],"doubleVal":[],"intVal":[],"stringVal":[],"scomplexVal":[],"int64Val":[],"boolVal":[],"uint32Val":[],"uint64Val":[],"dtype":1,"tensorShape":{"dim":[{"size":"256"}]}}},"dtype":{"type":1}},"name":"generator_shinkai/in11_1/beta","op":"Const"},{"input":[],"attr":{"value":{"tensor":{"floatVal":[],"doubleVal":[],"intVal":[],"stringVal":[],"scomplexVal":[],"int64Val":[],"boolVal":[],"uint32Val":[],"uint64Val":[],"dtype":1,"tensorShape":{"dim":[{"size":"3"},{"size":"3"},{"size":"256"},{"size":"256"}]}}},"dtype":{"type":1}},"name":"generator_shinkai/conv11_1/kernel","op":"Const"},{"input":[],"attr":{"value":{"tensor":{"floatVal":[],"doubleVal":[],"intVal":[],"stringVal":[],"scomplexVal":[],"int64Val":[],"boolVal":[],"uint32Val":[],"uint64Val":[],"dtype":1,"tensorShape":{"dim":[{"size":"256"}]}}},"dtype":{"type":1}},"name":"generator_shinkai/conv11_1/bias","op":"Const"},{"input":[],"attr":{"value":{"tensor":{"floatVal":[],"doubleVal":[],"intVal":[],"stringVal":[],"scomplexVal":[],"int64Val":[],"boolVal":[],"uint32Val":[],"uint64Val":[],"dtype":1,"tensorShape":{"dim":[{"size":"256"}]}}},"dtype":{"type":1}},"name":"generator_shinkai/in11_1/gamma","op":"Const"},{"input":[],"attr":{"value":{"tensor":{"floatVal":[],"doubleVal":[],"intVal":[],"stringVal":[],"scomplexVal":[],"int64Val":[],"boolVal":[],"uint32Val":[],"uint64Val":[],"dtype":1,"tensorShape":{"dim":[{"size":"3"},{"size":"3"},{"size":"256"},{"size":"256"}]}}},"dtype":{"type":1}},"name":"generator_shinkai/conv11_2/kernel","op":"Const"},{"input":[],"attr":{"value":{"tensor":{"floatVal":[],"doubleVal":[],"intVal":[],"stringVal":[],"scomplexVal":[],"int64Val":[],"boolVal":[],"uint32Val":[],"uint64Val":[],"dtype":1,"tensorShape":{"dim":[{"size":"256"}]}}},"dtype":{"type":1}},"name":"generator_shinkai/conv11_2/bias","op":"Const"},{"input":[],"attr":{"value":{"tensor":{"floatVal":[],"doubleVal":[],"intVal":[],"stringVal":[],"scomplexVal":[],"int64Val":[],"boolVal":[],"uint32Val":[],"uint64Val":[],"dtype":1,"tensorShape":{"dim":[{"size":"256"}]}}},"dtype":{"type":1}},"name":"generator_shinkai/in11_2/gamma","op":"Const"},{"input":[],"attr":{"value":{"tensor":{"floatVal":[],"doubleVal":[],"intVal":[],"stringVal":[],"scomplexVal":[],"int64Val":[],"boolVal":[],"uint32Val":[],"uint64Val":[],"dtype":1,"tensorShape":{"dim":[{"size":"256"}]}}},"dtype":{"type":1}},"name":"generator_shinkai/in10_2/beta","op":"Const"},{"input":[],"attr":{"value":{"tensor":{"floatVal":[],"doubleVal":[],"intVal":[],"stringVal":[],"scomplexVal":[],"int64Val":[],"boolVal":[],"uint32Val":[],"uint64Val":[],"dtype":1,"tensorShape":{"dim":[{"size":"256"}]}}},"dtype":{"type":1}},"name":"generator_shinkai/in10_1/beta","op":"Const"},{"input":[],"attr":{"value":{"tensor":{"floatVal":[],"doubleVal":[],"intVal":[],"stringVal":[],"scomplexVal":[],"int64Val":[],"boolVal":[],"uint32Val":[],"uint64Val":[],"dtype":1,"tensorShape":{"dim":[{"size":"3"},{"size":"3"},{"size":"256"},{"size":"256"}]}}},"dtype":{"type":1}},"name":"generator_shinkai/conv10_1/kernel","op":"Const"},{"input":[],"attr":{"value":{"tensor":{"floatVal":[],"doubleVal":[],"intVal":[],"stringVal":[],"scomplexVal":[],"int64Val":[],"boolVal":[],"uint32Val":[],"uint64Val":[],"dtype":1,"tensorShape":{"dim":[{"size":"256"}]}}},"dtype":{"type":1}},"name":"generator_shinkai/conv10_1/bias","op":"Const"},{"input":[],"attr":{"value":{"tensor":{"floatVal":[],"doubleVal":[],"intVal":[],"stringVal":[],"scomplexVal":[],"int64Val":[],"boolVal":[],"uint32Val":[],"uint64Val":[],"dtype":1,"tensorShape":{"dim":[{"size":"256"}]}}},"dtype":{"type":1}},"name":"generator_shinkai/in10_1/gamma","op":"Const"},{"input":[],"attr":{"value":{"tensor":{"floatVal":[],"doubleVal":[],"intVal":[],"stringVal":[],"scomplexVal":[],"int64Val":[],"boolVal":[],"uint32Val":[],"uint64Val":[],"dtype":1,"tensorShape":{"dim":[{"size":"3"},{"size":"3"},{"size":"256"},{"size":"256"}]}}},"dtype":{"type":1}},"name":"generator_shinkai/conv10_2/kernel","op":"Const"},{"input":[],"attr":{"value":{"tensor":{"floatVal":[],"doubleVal":[],"intVal":[],"stringVal":[],"scomplexVal":[],"int64Val":[],"boolVal":[],"uint32Val":[],"uint64Val":[],"dtype":1,"tensorShape":{"dim":[{"size":"256"}]}}},"dtype":{"type":1}},"name":"generator_shinkai/conv10_2/bias","op":"Const"},{"input":[],"attr":{"value":{"tensor":{"floatVal":[],"doubleVal":[],"intVal":[],"stringVal":[],"scomplexVal":[],"int64Val":[],"boolVal":[],"uint32Val":[],"uint64Val":[],"dtype":1,"tensorShape":{"dim":[{"size":"256"}]}}},"dtype":{"type":1}},"name":"generator_shinkai/in10_2/gamma","op":"Const"},{"input":[],"attr":{"value":{"tensor":{"floatVal":[],"doubleVal":[],"intVal":[],"stringVal":[],"scomplexVal":[],"int64Val":[],"boolVal":[],"uint32Val":[],"uint64Val":[],"dtype":1,"tensorShape":{"dim":[{"size":"256"}]}}},"dtype":{"type":1}},"name":"generator_shinkai/in09_2/beta","op":"Const"},{"input":[],"attr":{"value":{"tensor":{"floatVal":[],"doubleVal":[],"intVal":[],"stringVal":[],"scomplexVal":[],"int64Val":[],"boolVal":[],"uint32Val":[],"uint64Val":[],"dtype":1,"tensorShape":{"dim":[{"size":"256"}]}}},"dtype":{"type":1}},"name":"generator_shinkai/in09_1/beta","op":"Const"},{"input":[],"attr":{"value":{"tensor":{"floatVal":[],"doubleVal":[],"intVal":[],"stringVal":[],"scomplexVal":[],"int64Val":[],"boolVal":[],"uint32Val":[],"uint64Val":[],"dtype":1,"tensorShape":{"dim":[{"size":"3"},{"size":"3"},{"size":"256"},{"size":"256"}]}}},"dtype":{"type":1}},"name":"generator_shinkai/conv09_1/kernel","op":"Const"},{"input":[],"attr":{"value":{"tensor":{"floatVal":[],"doubleVal":[],"intVal":[],"stringVal":[],"scomplexVal":[],"int64Val":[],"boolVal":[],"uint32Val":[],"uint64Val":[],"dtype":1,"tensorShape":{"dim":[{"size":"256"}]}}},"dtype":{"type":1}},"name":"generator_shinkai/conv09_1/bias","op":"Const"},{"input":[],"attr":{"value":{"tensor":{"floatVal":[],"doubleVal":[],"intVal":[],"stringVal":[],"scomplexVal":[],"int64Val":[],"boolVal":[],"uint32Val":[],"uint64Val":[],"dtype":1,"tensorShape":{"dim":[{"size":"256"}]}}},"dtype":{"type":1}},"name":"generator_shinkai/in09_1/gamma","op":"Const"},{"input":[],"attr":{"value":{"tensor":{"floatVal":[],"doubleVal":[],"intVal":[],"stringVal":[],"scomplexVal":[],"int64Val":[],"boolVal":[],"uint32Val":[],"uint64Val":[],"dtype":1,"tensorShape":{"dim":[{"size":"3"},{"size":"3"},{"size":"256"},{"size":"256"}]}}},"dtype":{"type":1}},"name":"generator_shinkai/conv09_2/kernel","op":"Const"},{"input":[],"attr":{"value":{"tensor":{"floatVal":[],"doubleVal":[],"intVal":[],"stringVal":[],"scomplexVal":[],"int64Val":[],"boolVal":[],"uint32Val":[],"uint64Val":[],"dtype":1,"tensorShape":{"dim":[{"size":"256"}]}}},"dtype":{"type":1}},"name":"generator_shinkai/conv09_2/bias","op":"Const"},{"input":[],"attr":{"value":{"tensor":{"floatVal":[],"doubleVal":[],"intVal":[],"stringVal":[],"scomplexVal":[],"int64Val":[],"boolVal":[],"uint32Val":[],"uint64Val":[],"dtype":1,"tensorShape":{"dim":[{"size":"256"}]}}},"dtype":{"type":1}},"name":"generator_shinkai/in09_2/gamma","op":"Const"},{"input":[],"attr":{"value":{"tensor":{"floatVal":[],"doubleVal":[],"intVal":[],"stringVal":[],"scomplexVal":[],"int64Val":[],"boolVal":[],"uint32Val":[],"uint64Val":[],"dtype":1,"tensorShape":{"dim":[{"size":"256"}]}}},"dtype":{"type":1}},"name":"generator_shinkai/in08_2/beta","op":"Const"},{"input":[],"attr":{"value":{"tensor":{"floatVal":[],"doubleVal":[],"intVal":[],"stringVal":[],"scomplexVal":[],"int64Val":[],"boolVal":[],"uint32Val":[],"uint64Val":[],"dtype":1,"tensorShape":{"dim":[{"size":"256"}]}}},"dtype":{"type":1}},"name":"generator_shinkai/in08_1/beta","op":"Const"},{"input":[],"attr":{"value":{"tensor":{"floatVal":[],"doubleVal":[],"intVal":[],"stringVal":[],"scomplexVal":[],"int64Val":[],"boolVal":[],"uint32Val":[],"uint64Val":[],"dtype":1,"tensorShape":{"dim":[{"size":"3"},{"size":"3"},{"size":"256"},{"size":"256"}]}}},"dtype":{"type":1}},"name":"generator_shinkai/conv08_1/kernel","op":"Const"},{"input":[],"attr":{"value":{"tensor":{"floatVal":[],"doubleVal":[],"intVal":[],"stringVal":[],"scomplexVal":[],"int64Val":[],"boolVal":[],"uint32Val":[],"uint64Val":[],"dtype":1,"tensorShape":{"dim":[{"size":"256"}]}}},"dtype":{"type":1}},"name":"generator_shinkai/conv08_1/bias","op":"Const"},{"input":[],"attr":{"value":{"tensor":{"floatVal":[],"doubleVal":[],"intVal":[],"stringVal":[],"scomplexVal":[],"int64Val":[],"boolVal":[],"uint32Val":[],"uint64Val":[],"dtype":1,"tensorShape":{"dim":[{"size":"256"}]}}},"dtype":{"type":1}},"name":"generator_shinkai/in08_1/gamma","op":"Const"},{"input":[],"attr":{"dtype":{"type":1},"value":{"tensor":{"floatVal":[],"doubleVal":[],"intVal":[],"stringVal":[],"scomplexVal":[],"int64Val":[],"boolVal":[],"uint32Val":[],"uint64Val":[],"dtype":1,"tensorShape":{"dim":[{"size":"3"},{"size":"3"},{"size":"256"},{"size":"256"}]}}}},"name":"generator_shinkai/conv08_2/kernel","op":"Const"},{"input":[],"attr":{"value":{"tensor":{"floatVal":[],"doubleVal":[],"intVal":[],"stringVal":[],"scomplexVal":[],"int64Val":[],"boolVal":[],"uint32Val":[],"uint64Val":[],"dtype":1,"tensorShape":{"dim":[{"size":"256"}]}}},"dtype":{"type":1}},"name":"generator_shinkai/conv08_2/bias","op":"Const"},{"input":[],"attr":{"value":{"tensor":{"floatVal":[],"doubleVal":[],"intVal":[],"stringVal":[],"scomplexVal":[],"int64Val":[],"boolVal":[],"uint32Val":[],"uint64Val":[],"dtype":1,"tensorShape":{"dim":[{"size":"256"}]}}},"dtype":{"type":1}},"name":"generator_shinkai/in08_2/gamma","op":"Const"},{"input":[],"attr":{"value":{"tensor":{"floatVal":[],"doubleVal":[],"intVal":[],"stringVal":[],"scomplexVal":[],"int64Val":[],"boolVal":[],"uint32Val":[],"uint64Val":[],"dtype":1,"tensorShape":{"dim":[{"size":"256"}]}}},"dtype":{"type":1}},"name":"generator_shinkai/in07_2/beta","op":"Const"},{"input":[],"attr":{"dtype":{"type":1},"value":{"tensor":{"floatVal":[],"doubleVal":[],"intVal":[],"stringVal":[],"scomplexVal":[],"int64Val":[],"boolVal":[],"uint32Val":[],"uint64Val":[],"dtype":1,"tensorShape":{"dim":[{"size":"256"}]}}}},"name":"generator_shinkai/in07_1/beta","op":"Const"},{"input":[],"attr":{"value":{"tensor":{"floatVal":[],"doubleVal":[],"intVal":[],"stringVal":[],"scomplexVal":[],"int64Val":[],"boolVal":[],"uint32Val":[],"uint64Val":[],"dtype":1,"tensorShape":{"dim":[{"size":"3"},{"size":"3"},{"size":"256"},{"size":"256"}]}}},"dtype":{"type":1}},"name":"generator_shinkai/conv07_1/kernel","op":"Const"},{"input":[],"attr":{"value":{"tensor":{"floatVal":[],"doubleVal":[],"intVal":[],"stringVal":[],"scomplexVal":[],"int64Val":[],"boolVal":[],"uint32Val":[],"uint64Val":[],"dtype":1,"tensorShape":{"dim":[{"size":"256"}]}}},"dtype":{"type":1}},"name":"generator_shinkai/conv07_1/bias","op":"Const"},{"input":[],"attr":{"value":{"tensor":{"floatVal":[],"doubleVal":[],"intVal":[],"stringVal":[],"scomplexVal":[],"int64Val":[],"boolVal":[],"uint32Val":[],"uint64Val":[],"dtype":1,"tensorShape":{"dim":[{"size":"256"}]}}},"dtype":{"type":1}},"name":"generator_shinkai/in07_1/gamma","op":"Const"},{"input":[],"attr":{"value":{"tensor":{"floatVal":[],"doubleVal":[],"intVal":[],"stringVal":[],"scomplexVal":[],"int64Val":[],"boolVal":[],"uint32Val":[],"uint64Val":[],"dtype":1,"tensorShape":{"dim":[{"size":"3"},{"size":"3"},{"size":"256"},{"size":"256"}]}}},"dtype":{"type":1}},"name":"generator_shinkai/conv07_2/kernel","op":"Const"},{"input":[],"attr":{"value":{"tensor":{"floatVal":[],"doubleVal":[],"intVal":[],"stringVal":[],"scomplexVal":[],"int64Val":[],"boolVal":[],"uint32Val":[],"uint64Val":[],"dtype":1,"tensorShape":{"dim":[{"size":"256"}]}}},"dtype":{"type":1}},"name":"generator_shinkai/conv07_2/bias","op":"Const"},{"input":[],"attr":{"value":{"tensor":{"floatVal":[],"doubleVal":[],"intVal":[],"stringVal":[],"scomplexVal":[],"int64Val":[],"boolVal":[],"uint32Val":[],"uint64Val":[],"dtype":1,"tensorShape":{"dim":[{"size":"256"}]}}},"dtype":{"type":1}},"name":"generator_shinkai/in07_2/gamma","op":"Const"},{"input":[],"attr":{"value":{"tensor":{"floatVal":[],"doubleVal":[],"intVal":[],"stringVal":[],"scomplexVal":[],"int64Val":[],"boolVal":[],"uint32Val":[],"uint64Val":[],"dtype":1,"tensorShape":{"dim":[{"size":"256"}]}}},"dtype":{"type":1}},"name":"generator_shinkai/in06_2/beta","op":"Const"},{"input":[],"attr":{"dtype":{"type":1},"value":{"tensor":{"floatVal":[],"doubleVal":[],"intVal":[],"stringVal":[],"scomplexVal":[],"int64Val":[],"boolVal":[],"uint32Val":[],"uint64Val":[],"dtype":1,"tensorShape":{"dim":[{"size":"256"}]}}}},"name":"generator_shinkai/in06_1/beta","op":"Const"},{"input":[],"attr":{"value":{"tensor":{"floatVal":[],"doubleVal":[],"intVal":[],"stringVal":[],"scomplexVal":[],"int64Val":[],"boolVal":[],"uint32Val":[],"uint64Val":[],"dtype":1,"tensorShape":{"dim":[{"size":"3"},{"size":"3"},{"size":"256"},{"size":"256"}]}}},"dtype":{"type":1}},"name":"generator_shinkai/conv06_1/kernel","op":"Const"},{"input":[],"attr":{"value":{"tensor":{"floatVal":[],"doubleVal":[],"intVal":[],"stringVal":[],"scomplexVal":[],"int64Val":[],"boolVal":[],"uint32Val":[],"uint64Val":[],"dtype":1,"tensorShape":{"dim":[{"size":"256"}]}}},"dtype":{"type":1}},"name":"generator_shinkai/conv06_1/bias","op":"Const"},{"input":[],"attr":{"value":{"tensor":{"floatVal":[],"doubleVal":[],"intVal":[],"stringVal":[],"scomplexVal":[],"int64Val":[],"boolVal":[],"uint32Val":[],"uint64Val":[],"dtype":1,"tensorShape":{"dim":[{"size":"256"}]}}},"dtype":{"type":1}},"name":"generator_shinkai/in06_1/gamma","op":"Const"},{"input":[],"attr":{"value":{"tensor":{"floatVal":[],"doubleVal":[],"intVal":[],"stringVal":[],"scomplexVal":[],"int64Val":[],"boolVal":[],"uint32Val":[],"uint64Val":[],"dtype":1,"tensorShape":{"dim":[{"size":"3"},{"size":"3"},{"size":"256"},{"size":"256"}]}}},"dtype":{"type":1}},"name":"generator_shinkai/conv06_2/kernel","op":"Const"},{"input":[],"attr":{"value":{"tensor":{"floatVal":[],"doubleVal":[],"intVal":[],"stringVal":[],"scomplexVal":[],"int64Val":[],"boolVal":[],"uint32Val":[],"uint64Val":[],"dtype":1,"tensorShape":{"dim":[{"size":"256"}]}}},"dtype":{"type":1}},"name":"generator_shinkai/conv06_2/bias","op":"Const"},{"input":[],"attr":{"value":{"tensor":{"floatVal":[],"doubleVal":[],"intVal":[],"stringVal":[],"scomplexVal":[],"int64Val":[],"boolVal":[],"uint32Val":[],"uint64Val":[],"dtype":1,"tensorShape":{"dim":[{"size":"256"}]}}},"dtype":{"type":1}},"name":"generator_shinkai/in06_2/gamma","op":"Const"},{"input":[],"attr":{"value":{"tensor":{"floatVal":[],"doubleVal":[],"intVal":[],"stringVal":[],"scomplexVal":[],"int64Val":[],"boolVal":[],"uint32Val":[],"uint64Val":[],"dtype":1,"tensorShape":{"dim":[{"size":"256"}]}}},"dtype":{"type":1}},"name":"generator_shinkai/in05_2/beta","op":"Const"},{"input":[],"attr":{"value":{"tensor":{"floatVal":[],"doubleVal":[],"intVal":[],"stringVal":[],"scomplexVal":[],"int64Val":[],"boolVal":[],"uint32Val":[],"uint64Val":[],"dtype":1,"tensorShape":{"dim":[{"size":"256"}]}}},"dtype":{"type":1}},"name":"generator_shinkai/in05_1/beta","op":"Const"},{"input":[],"attr":{"value":{"tensor":{"floatVal":[],"doubleVal":[],"intVal":[],"stringVal":[],"scomplexVal":[],"int64Val":[],"boolVal":[],"uint32Val":[],"uint64Val":[],"dtype":1,"tensorShape":{"dim":[{"size":"3"},{"size":"3"},{"size":"256"},{"size":"256"}]}}},"dtype":{"type":1}},"name":"generator_shinkai/conv05_1/kernel","op":"Const"},{"input":[],"attr":{"value":{"tensor":{"floatVal":[],"doubleVal":[],"intVal":[],"stringVal":[],"scomplexVal":[],"int64Val":[],"boolVal":[],"uint32Val":[],"uint64Val":[],"dtype":1,"tensorShape":{"dim":[{"size":"256"}]}}},"dtype":{"type":1}},"name":"generator_shinkai/conv05_1/bias","op":"Const"},{"input":[],"attr":{"value":{"tensor":{"floatVal":[],"doubleVal":[],"intVal":[],"stringVal":[],"scomplexVal":[],"int64Val":[],"boolVal":[],"uint32Val":[],"uint64Val":[],"dtype":1,"tensorShape":{"dim":[{"size":"256"}]}}},"dtype":{"type":1}},"name":"generator_shinkai/in05_1/gamma","op":"Const"},{"input":[],"attr":{"dtype":{"type":1},"value":{"tensor":{"floatVal":[],"doubleVal":[],"intVal":[],"stringVal":[],"scomplexVal":[],"int64Val":[],"boolVal":[],"uint32Val":[],"uint64Val":[],"dtype":1,"tensorShape":{"dim":[{"size":"3"},{"size":"3"},{"size":"256"},{"size":"256"}]}}}},"name":"generator_shinkai/conv05_2/kernel","op":"Const"},{"input":[],"attr":{"value":{"tensor":{"floatVal":[],"doubleVal":[],"intVal":[],"stringVal":[],"scomplexVal":[],"int64Val":[],"boolVal":[],"uint32Val":[],"uint64Val":[],"dtype":1,"tensorShape":{"dim":[{"size":"256"}]}}},"dtype":{"type":1}},"name":"generator_shinkai/conv05_2/bias","op":"Const"},{"input":[],"attr":{"value":{"tensor":{"floatVal":[],"doubleVal":[],"intVal":[],"stringVal":[],"scomplexVal":[],"int64Val":[],"boolVal":[],"uint32Val":[],"uint64Val":[],"dtype":1,"tensorShape":{"dim":[{"size":"256"}]}}},"dtype":{"type":1}},"name":"generator_shinkai/in05_2/gamma","op":"Const"},{"input":[],"attr":{"value":{"tensor":{"floatVal":[],"doubleVal":[],"intVal":[],"stringVal":[],"scomplexVal":[],"int64Val":[],"boolVal":[],"uint32Val":[],"uint64Val":[],"dtype":1,"tensorShape":{"dim":[{"size":"256"}]}}},"dtype":{"type":1}},"name":"generator_shinkai/in04_2/beta","op":"Const"},{"input":[],"attr":{"dtype":{"type":1},"value":{"tensor":{"floatVal":[],"doubleVal":[],"intVal":[],"stringVal":[],"scomplexVal":[],"int64Val":[],"boolVal":[],"uint32Val":[],"uint64Val":[],"dtype":1,"tensorShape":{"dim":[{"size":"256"}]}}}},"name":"generator_shinkai/in04_1/beta","op":"Const"},{"input":[],"attr":{"dtype":{"type":1},"value":{"tensor":{"floatVal":[],"doubleVal":[],"intVal":[],"stringVal":[],"scomplexVal":[],"int64Val":[],"boolVal":[],"uint32Val":[],"uint64Val":[],"dtype":1,"tensorShape":{"dim":[{"size":"3"},{"size":"3"},{"size":"256"},{"size":"256"}]}}}},"name":"generator_shinkai/conv04_1/kernel","op":"Const"},{"input":[],"attr":{"value":{"tensor":{"floatVal":[],"doubleVal":[],"intVal":[],"stringVal":[],"scomplexVal":[],"int64Val":[],"boolVal":[],"uint32Val":[],"uint64Val":[],"dtype":1,"tensorShape":{"dim":[{"size":"256"}]}}},"dtype":{"type":1}},"name":"generator_shinkai/conv04_1/bias","op":"Const"},{"input":[],"attr":{"value":{"tensor":{"floatVal":[],"doubleVal":[],"intVal":[],"stringVal":[],"scomplexVal":[],"int64Val":[],"boolVal":[],"uint32Val":[],"uint64Val":[],"dtype":1,"tensorShape":{"dim":[{"size":"256"}]}}},"dtype":{"type":1}},"name":"generator_shinkai/in04_1/gamma","op":"Const"},{"input":[],"attr":{"value":{"tensor":{"floatVal":[],"doubleVal":[],"intVal":[],"stringVal":[],"scomplexVal":[],"int64Val":[],"boolVal":[],"uint32Val":[],"uint64Val":[],"dtype":1,"tensorShape":{"dim":[{"size":"3"},{"size":"3"},{"size":"256"},{"size":"256"}]}}},"dtype":{"type":1}},"name":"generator_shinkai/conv04_2/kernel","op":"Const"},{"input":[],"attr":{"value":{"tensor":{"floatVal":[],"doubleVal":[],"intVal":[],"stringVal":[],"scomplexVal":[],"int64Val":[],"boolVal":[],"uint32Val":[],"uint64Val":[],"dtype":1,"tensorShape":{"dim":[{"size":"256"}]}}},"dtype":{"type":1}},"name":"generator_shinkai/conv04_2/bias","op":"Const"},{"input":[],"attr":{"value":{"tensor":{"floatVal":[],"doubleVal":[],"intVal":[],"stringVal":[],"scomplexVal":[],"int64Val":[],"boolVal":[],"uint32Val":[],"uint64Val":[],"dtype":1,"tensorShape":{"dim":[{"size":"256"}]}}},"dtype":{"type":1}},"name":"generator_shinkai/in04_2/gamma","op":"Const"},{"input":[],"attr":{"value":{"tensor":{"floatVal":[],"doubleVal":[],"intVal":[],"stringVal":[],"scomplexVal":[],"int64Val":[],"boolVal":[],"uint32Val":[],"uint64Val":[],"dtype":1,"tensorShape":{"dim":[{"size":"256"}]}}},"dtype":{"type":1}},"name":"generator_shinkai/in03_1/beta","op":"Const"},{"input":[],"attr":{"value":{"tensor":{"floatVal":[],"doubleVal":[],"intVal":[],"stringVal":[],"scomplexVal":[],"int64Val":[],"boolVal":[],"uint32Val":[],"uint64Val":[],"dtype":1,"tensorShape":{"dim":[{"size":"128"}]}}},"dtype":{"type":1}},"name":"generator_shinkai/in02_1/beta","op":"Const"},{"input":[],"attr":{"value":{"tensor":{"floatVal":[],"doubleVal":[],"intVal":[],"stringVal":[],"scomplexVal":[],"int64Val":[],"boolVal":[],"uint32Val":[],"uint64Val":[],"dtype":1,"tensorShape":{"dim":[{"size":"64"}]}}},"dtype":{"type":1}},"name":"generator_shinkai/in01_1/beta","op":"Const"},{"input":[],"attr":{"value":{"tensor":{"floatVal":[],"doubleVal":[],"intVal":[],"stringVal":[],"scomplexVal":[],"int64Val":[],"boolVal":[],"uint32Val":[],"uint64Val":[],"dtype":1,"tensorShape":{"dim":[{"size":"7"},{"size":"7"},{"size":"3"},{"size":"64"}]}}},"dtype":{"type":1}},"name":"generator_shinkai/conv01_1/kernel","op":"Const"},{"input":[],"attr":{"dtype":{"type":1},"value":{"tensor":{"floatVal":[],"doubleVal":[],"intVal":[],"stringVal":[],"scomplexVal":[],"int64Val":[],"boolVal":[],"uint32Val":[],"uint64Val":[],"dtype":1,"tensorShape":{"dim":[{"size":"64"}]}}}},"name":"generator_shinkai/conv01_1/bias","op":"Const"},{"input":[],"attr":{"value":{"tensor":{"floatVal":[],"doubleVal":[],"intVal":[],"stringVal":[],"scomplexVal":[],"int64Val":[],"boolVal":[],"uint32Val":[],"uint64Val":[],"dtype":1,"tensorShape":{"dim":[{"size":"64"}]}}},"dtype":{"type":1}},"name":"generator_shinkai/in01_1/gamma","op":"Const"},{"input":[],"attr":{"dtype":{"type":1},"value":{"tensor":{"floatVal":[],"doubleVal":[],"intVal":[],"stringVal":[],"scomplexVal":[],"int64Val":[],"boolVal":[],"uint32Val":[],"uint64Val":[],"dtype":1,"tensorShape":{"dim":[{"size":"3"},{"size":"3"},{"size":"64"},{"size":"128"}]}}}},"name":"generator_shinkai/conv02_1/kernel","op":"Const"},{"input":[],"attr":{"value":{"tensor":{"floatVal":[],"doubleVal":[],"intVal":[],"stringVal":[],"scomplexVal":[],"int64Val":[],"boolVal":[],"uint32Val":[],"uint64Val":[],"dtype":1,"tensorShape":{"dim":[{"size":"128"}]}}},"dtype":{"type":1}},"name":"generator_shinkai/conv02_1/bias","op":"Const"},{"input":[],"attr":{"value":{"tensor":{"floatVal":[],"doubleVal":[],"intVal":[],"stringVal":[],"scomplexVal":[],"int64Val":[],"boolVal":[],"uint32Val":[],"uint64Val":[],"dtype":1,"tensorShape":{"dim":[{"size":"3"},{"size":"3"},{"size":"128"},{"size":"128"}]}}},"dtype":{"type":1}},"name":"generator_shinkai/conv02_2/kernel","op":"Const"},{"input":[],"attr":{"value":{"tensor":{"floatVal":[],"doubleVal":[],"intVal":[],"stringVal":[],"scomplexVal":[],"int64Val":[],"boolVal":[],"uint32Val":[],"uint64Val":[],"dtype":1,"tensorShape":{"dim":[{"size":"128"}]}}},"dtype":{"type":1}},"name":"generator_shinkai/conv02_2/bias","op":"Const"},{"input":[],"attr":{"value":{"tensor":{"floatVal":[],"doubleVal":[],"intVal":[],"stringVal":[],"scomplexVal":[],"int64Val":[],"boolVal":[],"uint32Val":[],"uint64Val":[],"dtype":1,"tensorShape":{"dim":[{"size":"128"}]}}},"dtype":{"type":1}},"name":"generator_shinkai/in02_1/gamma","op":"Const"},{"input":[],"attr":{"value":{"tensor":{"floatVal":[],"doubleVal":[],"intVal":[],"stringVal":[],"scomplexVal":[],"int64Val":[],"boolVal":[],"uint32Val":[],"uint64Val":[],"dtype":1,"tensorShape":{"dim":[{"size":"3"},{"size":"3"},{"size":"128"},{"size":"256"}]}}},"dtype":{"type":1}},"name":"generator_shinkai/conv03_1/kernel","op":"Const"},{"input":[],"attr":{"value":{"tensor":{"floatVal":[],"doubleVal":[],"intVal":[],"stringVal":[],"scomplexVal":[],"int64Val":[],"boolVal":[],"uint32Val":[],"uint64Val":[],"dtype":1,"tensorShape":{"dim":[{"size":"256"}]}}},"dtype":{"type":1}},"name":"generator_shinkai/conv03_1/bias","op":"Const"},{"input":[],"attr":{"value":{"tensor":{"floatVal":[],"doubleVal":[],"intVal":[],"stringVal":[],"scomplexVal":[],"int64Val":[],"boolVal":[],"uint32Val":[],"uint64Val":[],"dtype":1,"tensorShape":{"dim":[{"size":"3"},{"size":"3"},{"size":"256"},{"size":"256"}]}}},"dtype":{"type":1}},"name":"generator_shinkai/conv03_2/kernel","op":"Const"},{"input":[],"attr":{"value":{"tensor":{"floatVal":[],"doubleVal":[],"intVal":[],"stringVal":[],"scomplexVal":[],"int64Val":[],"boolVal":[],"uint32Val":[],"uint64Val":[],"dtype":1,"tensorShape":{"dim":[{"size":"256"}]}}},"dtype":{"type":1}},"name":"generator_shinkai/conv03_2/bias","op":"Const"},{"input":[],"attr":{"value":{"tensor":{"floatVal":[],"doubleVal":[],"intVal":[],"stringVal":[],"scomplexVal":[],"int64Val":[],"boolVal":[],"uint32Val":[],"uint64Val":[],"dtype":1,"tensorShape":{"dim":[{"size":"256"}]}}},"dtype":{"type":1}},"name":"generator_shinkai/in03_1/gamma","op":"Const"},{"input":[],"attr":{"value":{"tensor":{"floatVal":[],"doubleVal":[],"intVal":[],"stringVal":[],"scomplexVal":[],"int64Val":[],"boolVal":[],"uint32Val":[],"uint64Val":[],"dtype":1,"tensorShape":{"dim":[{"size":"128"}]}}},"dtype":{"type":1}},"name":"generator_shinkai/deconv01_1/bias","op":"Const"},{"input":[],"attr":{"dtype":{"type":1},"value":{"tensor":{"floatVal":[],"doubleVal":[],"intVal":[],"stringVal":[],"scomplexVal":[],"int64Val":[],"boolVal":[],"uint32Val":[],"uint64Val":[],"dtype":1,"tensorShape":{"dim":[{"size":"3"},{"size":"3"},{"size":"128"},{"size":"128"}]}}}},"name":"generator_shinkai/deconv01_2/kernel","op":"Const"},{"input":[],"attr":{"value":{"tensor":{"floatVal":[],"doubleVal":[],"intVal":[],"stringVal":[],"scomplexVal":[],"int64Val":[],"boolVal":[],"uint32Val":[],"uint64Val":[],"dtype":1,"tensorShape":{"dim":[{"size":"128"}]}}},"dtype":{"type":1}},"name":"generator_shinkai/deconv01_2/bias","op":"Const"},{"input":[],"attr":{"dtype":{"type":1},"value":{"tensor":{"floatVal":[],"doubleVal":[],"intVal":[],"stringVal":[],"scomplexVal":[],"int64Val":[],"boolVal":[],"uint32Val":[],"uint64Val":[],"dtype":1,"tensorShape":{"dim":[{"size":"128"}]}}}},"name":"generator_shinkai/in12_1/gamma","op":"Const"},{"input":[],"attr":{"value":{"tensor":{"floatVal":[],"doubleVal":[],"intVal":[],"stringVal":[],"scomplexVal":[],"int64Val":[],"boolVal":[],"uint32Val":[],"uint64Val":[],"dtype":3,"tensorShape":{"dim":[{"size":"3"}]}}},"dtype":{"type":3}},"name":"generator_shinkai/deconv01_1/strided_slice_3/stack","op":"Const"},{"input":[],"attr":{"value":{"tensor":{"floatVal":[],"doubleVal":[],"intVal":[],"stringVal":[],"scomplexVal":[],"int64Val":[],"boolVal":[],"uint32Val":[],"uint64Val":[],"dtype":3,"tensorShape":{"dim":[{"size":"3"}]}}},"dtype":{"type":3}},"name":"generator_shinkai/deconv01_1/strided_slice_3/stack_1","op":"Const"},{"input":[],"attr":{"value":{"tensor":{"floatVal":[],"doubleVal":[],"intVal":[],"stringVal":[],"scomplexVal":[],"int64Val":[],"boolVal":[],"uint32Val":[],"uint64Val":[],"dtype":3,"tensorShape":{"dim":[{"size":"3"}]}}},"dtype":{"type":3}},"name":"generator_shinkai/deconv01_1/strided_slice_3/stack_2","op":"Const"},{"input":[],"attr":{"value":{"tensor":{"floatVal":[],"doubleVal":[],"intVal":[],"stringVal":[],"scomplexVal":[],"int64Val":[],"boolVal":[],"uint32Val":[],"uint64Val":[],"dtype":1,"tensorShape":{"dim":[{"size":"64"}]}}},"dtype":{"type":1}},"name":"generator_shinkai/deconv02_1/bias","op":"Const"},{"input":[],"attr":{"value":{"tensor":{"floatVal":[],"doubleVal":[],"intVal":[],"stringVal":[],"scomplexVal":[],"int64Val":[],"boolVal":[],"uint32Val":[],"uint64Val":[],"dtype":3,"tensorShape":{"dim":[{"size":"4"},{"size":"2"}]}}},"dtype":{"type":3}},"name":"generator_shinkai/Pad_15/paddings","op":"Const"},{"input":[],"attr":{"value":{"tensor":{"floatVal":[],"doubleVal":[],"intVal":[],"stringVal":[],"scomplexVal":[],"int64Val":[],"boolVal":[],"uint32Val":[],"uint64Val":[],"dtype":1,"tensorShape":{"dim":[{"size":"3"},{"size":"3"},{"size":"64"},{"size":"64"}]}}},"dtype":{"type":1}},"name":"generator_shinkai/deconv02_2/kernel","op":"Const"},{"input":[],"attr":{"value":{"tensor":{"floatVal":[],"doubleVal":[],"intVal":[],"stringVal":[],"scomplexVal":[],"int64Val":[],"boolVal":[],"uint32Val":[],"uint64Val":[],"dtype":1,"tensorShape":{"dim":[{"size":"64"}]}}},"dtype":{"type":1}},"name":"generator_shinkai/deconv02_2/bias","op":"Const"},{"input":[],"attr":{"value":{"tensor":{"floatVal":[],"doubleVal":[],"intVal":[],"stringVal":[],"scomplexVal":[],"int64Val":[],"boolVal":[],"uint32Val":[],"uint64Val":[],"dtype":3,"tensorShape":{"dim":[{"size":"2"}]}}},"dtype":{"type":3}},"name":"generator_shinkai/in11_1/moments/mean/reduction_indices","op":"Const"},{"input":[],"attr":{"value":{"tensor":{"floatVal":[],"doubleVal":[],"intVal":[],"stringVal":[],"scomplexVal":[],"int64Val":[],"boolVal":[],"uint32Val":[],"uint64Val":[],"dtype":1,"tensorShape":{"dim":[]}}},"dtype":{"type":1}},"name":"generator_shinkai/in11_1/instancenorm/add/y","op":"Const"},{"input":[],"attr":{"value":{"tensor":{"floatVal":[],"doubleVal":[],"intVal":[],"stringVal":[],"scomplexVal":[],"int64Val":[],"boolVal":[],"uint32Val":[],"uint64Val":[],"dtype":1,"tensorShape":{"dim":[{"size":"64"}]}}},"dtype":{"type":1}},"name":"generator_shinkai/in13_1/gamma","op":"Const"},{"input":[],"attr":{"dtype":{"type":3},"value":{"tensor":{"floatVal":[],"doubleVal":[],"intVal":[],"stringVal":[],"scomplexVal":[],"int64Val":[],"boolVal":[],"uint32Val":[],"uint64Val":[],"dtype":3,"tensorShape":{"dim":[{"size":"4"},{"size":"2"}]}}}},"name":"generator_shinkai/Pad/paddings","op":"Const"},{"input":[],"attr":{"dtype":{"type":1},"value":{"tensor":{"floatVal":[],"doubleVal":[],"intVal":[],"stringVal":[],"scomplexVal":[],"int64Val":[],"boolVal":[],"uint32Val":[],"uint64Val":[],"dtype":1,"tensorShape":{"dim":[{"size":"7"},{"size":"7"},{"size":"64"},{"size":"3"}]}}}},"name":"generator_shinkai/deconv03_1/kernel","op":"Const"},{"input":[],"attr":{"value":{"tensor":{"floatVal":[],"doubleVal":[],"intVal":[],"stringVal":[],"scomplexVal":[],"int64Val":[],"boolVal":[],"uint32Val":[],"uint64Val":[],"dtype":1,"tensorShape":{"dim":[{"size":"3"}]}}},"dtype":{"type":1}},"name":"generator_shinkai/deconv03_1/bias","op":"Const"},{"input":[],"attr":{"dtype":{"type":1},"shape":{"shape":{"dim":[{"size":"-1"},{"size":"-1"},{"size":"-1"},{"size":"3"}]}}},"name":"generator_shinkai/input","op":"Placeholder"},{"input":["generator_shinkai/input","generator_shinkai/Pad/paddings"],"attr":{"T":{"type":1},"Tpaddings":{"type":3}},"name":"generator_shinkai/Pad","op":"Pad"},{"input":["generator_shinkai/Pad","generator_shinkai/conv01_1/kernel"],"attr":{"dilations":{"list":{"s":[],"i":["1","1","1","1"],"f":[],"b":[],"type":[],"shape":[],"tensor":[],"func":[]}},"T":{"type":1},"strides":{"list":{"s":[],"i":["1","1","1","1"],"f":[],"b":[],"type":[],"shape":[],"tensor":[],"func":[]}},"data_format":{"s":[78,72,87,67]},"use_cudnn_on_gpu":{"b":true},"padding":{"s":[86,65,76,73,68]}},"name":"generator_shinkai/conv01_1/Conv2D","op":"Conv2D"},{"input":["generator_shinkai/conv01_1/Conv2D","generator_shinkai/conv01_1/bias"],"attr":{"T":{"type":1},"data_format":{"s":[78,72,87,67]}},"name":"generator_shinkai/conv01_1/BiasAdd","op":"BiasAdd"},{"input":["generator_shinkai/conv01_1/BiasAdd","generator_shinkai/in11_1/moments/mean/reduction_indices"],"attr":{"T":{"type":1},"Tidx":{"type":3},"keep_dims":{"b":true}},"name":"generator_shinkai/in01_1/moments/mean","op":"Mean"},{"input":["generator_shinkai/conv01_1/BiasAdd","generator_shinkai/in01_1/moments/mean"],"attr":{"T":{"type":1}},"name":"generator_shinkai/in01_1/moments/SquaredDifference","op":"SquaredDifference"},{"input":["generator_shinkai/in01_1/moments/SquaredDifference","generator_shinkai/in11_1/moments/mean/reduction_indices"],"attr":{"Tidx":{"type":3},"keep_dims":{"b":true},"T":{"type":1}},"name":"generator_shinkai/in01_1/moments/variance","op":"Mean"},{"input":["generator_shinkai/in01_1/moments/variance","generator_shinkai/in11_1/instancenorm/add/y"],"attr":{"T":{"type":1}},"name":"generator_shinkai/in01_1/instancenorm/add","op":"Add"},{"input":["generator_shinkai/in01_1/instancenorm/add"],"attr":{"T":{"type":1}},"name":"generator_shinkai/in01_1/instancenorm/Rsqrt","op":"Rsqrt"},{"input":["generator_shinkai/in01_1/instancenorm/Rsqrt","generator_shinkai/in01_1/gamma"],"attr":{"T":{"type":1}},"name":"generator_shinkai/in01_1/instancenorm/mul","op":"Mul"},{"input":["generator_shinkai/conv01_1/BiasAdd","generator_shinkai/in01_1/instancenorm/mul"],"attr":{"T":{"type":1}},"name":"generator_shinkai/in01_1/instancenorm/mul_1","op":"Mul"},{"input":["generator_shinkai/in01_1/moments/mean","generator_shinkai/in01_1/instancenorm/mul"],"attr":{"T":{"type":1}},"name":"generator_shinkai/in01_1/instancenorm/mul_2","op":"Mul"},{"input":["generator_shinkai/in01_1/beta","generator_shinkai/in01_1/instancenorm/mul_2"],"attr":{"T":{"type":1}},"name":"generator_shinkai/in01_1/instancenorm/sub","op":"Sub"},{"input":["generator_shinkai/in01_1/instancenorm/mul_1","generator_shinkai/in01_1/instancenorm/sub"],"attr":{"T":{"type":1}},"name":"generator_shinkai/in01_1/instancenorm/add_1","op":"Add"},{"input":["generator_shinkai/in01_1/instancenorm/add_1"],"attr":{"T":{"type":1}},"name":"generator_shinkai/Relu","op":"Relu"},{"input":["generator_shinkai/Relu","generator_shinkai/Pad_15/paddings"],"attr":{"T":{"type":1},"Tpaddings":{"type":3}},"name":"generator_shinkai/conv02_1/Pad","op":"Pad"},{"input":["generator_shinkai/conv02_1/Pad","generator_shinkai/conv02_1/kernel"],"attr":{"dilations":{"list":{"s":[],"i":["1","1","1","1"],"f":[],"b":[],"type":[],"shape":[],"tensor":[],"func":[]}},"T":{"type":1},"data_format":{"s":[78,72,87,67]},"strides":{"list":{"s":[],"i":["1","2","2","1"],"f":[],"b":[],"type":[],"shape":[],"tensor":[],"func":[]}},"use_cudnn_on_gpu":{"b":true},"padding":{"s":[86,65,76,73,68]}},"name":"generator_shinkai/conv02_1/Conv2D","op":"Conv2D"},{"input":["generator_shinkai/conv02_1/Conv2D","generator_shinkai/conv02_1/bias"],"attr":{"T":{"type":1},"data_format":{"s":[78,72,87,67]}},"name":"generator_shinkai/conv02_1/BiasAdd","op":"BiasAdd"},{"input":["generator_shinkai/conv02_1/BiasAdd","generator_shinkai/Pad_15/paddings"],"attr":{"T":{"type":1},"Tpaddings":{"type":3}},"name":"generator_shinkai/conv02_2/Pad","op":"Pad"},{"input":["generator_shinkai/conv02_2/Pad","generator_shinkai/conv02_2/kernel"],"attr":{"padding":{"s":[86,65,76,73,68]},"dilations":{"list":{"s":[],"i":["1","1","1","1"],"f":[],"b":[],"type":[],"shape":[],"tensor":[],"func":[]}},"T":{"type":1},"strides":{"list":{"s":[],"i":["1","1","1","1"],"f":[],"b":[],"type":[],"shape":[],"tensor":[],"func":[]}},"data_format":{"s":[78,72,87,67]},"use_cudnn_on_gpu":{"b":true}},"name":"generator_shinkai/conv02_2/Conv2D","op":"Conv2D"},{"input":["generator_shinkai/conv02_2/Conv2D","generator_shinkai/conv02_2/bias"],"attr":{"T":{"type":1},"data_format":{"s":[78,72,87,67]}},"name":"generator_shinkai/conv02_2/BiasAdd","op":"BiasAdd"},{"input":["generator_shinkai/conv02_2/BiasAdd","generator_shinkai/in11_1/moments/mean/reduction_indices"],"attr":{"Tidx":{"type":3},"keep_dims":{"b":true},"T":{"type":1}},"name":"generator_shinkai/in02_1/moments/mean","op":"Mean"},{"input":["generator_shinkai/conv02_2/BiasAdd","generator_shinkai/in02_1/moments/mean"],"attr":{"T":{"type":1}},"name":"generator_shinkai/in02_1/moments/SquaredDifference","op":"SquaredDifference"},{"input":["generator_shinkai/in02_1/moments/SquaredDifference","generator_shinkai/in11_1/moments/mean/reduction_indices"],"attr":{"T":{"type":1},"Tidx":{"type":3},"keep_dims":{"b":true}},"name":"generator_shinkai/in02_1/moments/variance","op":"Mean"},{"input":["generator_shinkai/in02_1/moments/variance","generator_shinkai/in11_1/instancenorm/add/y"],"attr":{"T":{"type":1}},"name":"generator_shinkai/in02_1/instancenorm/add","op":"Add"},{"input":["generator_shinkai/in02_1/instancenorm/add"],"attr":{"T":{"type":1}},"name":"generator_shinkai/in02_1/instancenorm/Rsqrt","op":"Rsqrt"},{"input":["generator_shinkai/in02_1/instancenorm/Rsqrt","generator_shinkai/in02_1/gamma"],"attr":{"T":{"type":1}},"name":"generator_shinkai/in02_1/instancenorm/mul","op":"Mul"},{"input":["generator_shinkai/conv02_2/BiasAdd","generator_shinkai/in02_1/instancenorm/mul"],"attr":{"T":{"type":1}},"name":"generator_shinkai/in02_1/instancenorm/mul_1","op":"Mul"},{"input":["generator_shinkai/in02_1/moments/mean","generator_shinkai/in02_1/instancenorm/mul"],"attr":{"T":{"type":1}},"name":"generator_shinkai/in02_1/instancenorm/mul_2","op":"Mul"},{"input":["generator_shinkai/in02_1/beta","generator_shinkai/in02_1/instancenorm/mul_2"],"attr":{"T":{"type":1}},"name":"generator_shinkai/in02_1/instancenorm/sub","op":"Sub"},{"input":["generator_shinkai/in02_1/instancenorm/mul_1","generator_shinkai/in02_1/instancenorm/sub"],"attr":{"T":{"type":1}},"name":"generator_shinkai/in02_1/instancenorm/add_1","op":"Add"},{"input":["generator_shinkai/in02_1/instancenorm/add_1"],"attr":{"T":{"type":1}},"name":"generator_shinkai/Relu_1","op":"Relu"},{"input":["generator_shinkai/Relu_1","generator_shinkai/Pad_15/paddings"],"attr":{"T":{"type":1},"Tpaddings":{"type":3}},"name":"generator_shinkai/conv03_1/Pad","op":"Pad"},{"input":["generator_shinkai/conv03_1/Pad","generator_shinkai/conv03_1/kernel"],"attr":{"dilations":{"list":{"s":[],"i":["1","1","1","1"],"f":[],"b":[],"type":[],"shape":[],"tensor":[],"func":[]}},"T":{"type":1},"strides":{"list":{"s":[],"i":["1","2","2","1"],"f":[],"b":[],"type":[],"shape":[],"tensor":[],"func":[]}},"data_format":{"s":[78,72,87,67]},"use_cudnn_on_gpu":{"b":true},"padding":{"s":[86,65,76,73,68]}},"name":"generator_shinkai/conv03_1/Conv2D","op":"Conv2D"},{"input":["generator_shinkai/conv03_1/Conv2D","generator_shinkai/conv03_1/bias"],"attr":{"T":{"type":1},"data_format":{"s":[78,72,87,67]}},"name":"generator_shinkai/conv03_1/BiasAdd","op":"BiasAdd"},{"input":["generator_shinkai/conv03_1/BiasAdd","generator_shinkai/Pad_15/paddings"],"attr":{"T":{"type":1},"Tpaddings":{"type":3}},"name":"generator_shinkai/conv03_2/Pad","op":"Pad"},{"input":["generator_shinkai/conv03_2/Pad","generator_shinkai/conv03_2/kernel"],"attr":{"dilations":{"list":{"s":[],"i":["1","1","1","1"],"f":[],"b":[],"type":[],"shape":[],"tensor":[],"func":[]}},"T":{"type":1},"data_format":{"s":[78,72,87,67]},"strides":{"list":{"s":[],"i":["1","1","1","1"],"f":[],"b":[],"type":[],"shape":[],"tensor":[],"func":[]}},"use_cudnn_on_gpu":{"b":true},"padding":{"s":[86,65,76,73,68]}},"name":"generator_shinkai/conv03_2/Conv2D","op":"Conv2D"},{"input":["generator_shinkai/conv03_2/Conv2D","generator_shinkai/conv03_2/bias"],"attr":{"data_format":{"s":[78,72,87,67]},"T":{"type":1}},"name":"generator_shinkai/conv03_2/BiasAdd","op":"BiasAdd"},{"input":["generator_shinkai/conv03_2/BiasAdd","generator_shinkai/in11_1/moments/mean/reduction_indices"],"attr":{"T":{"type":1},"Tidx":{"type":3},"keep_dims":{"b":true}},"name":"generator_shinkai/in03_1/moments/mean","op":"Mean"},{"input":["generator_shinkai/conv03_2/BiasAdd","generator_shinkai/in03_1/moments/mean"],"attr":{"T":{"type":1}},"name":"generator_shinkai/in03_1/moments/SquaredDifference","op":"SquaredDifference"},{"input":["generator_shinkai/in03_1/moments/SquaredDifference","generator_shinkai/in11_1/moments/mean/reduction_indices"],"attr":{"Tidx":{"type":3},"keep_dims":{"b":true},"T":{"type":1}},"name":"generator_shinkai/in03_1/moments/variance","op":"Mean"},{"input":["generator_shinkai/in03_1/moments/variance","generator_shinkai/in11_1/instancenorm/add/y"],"attr":{"T":{"type":1}},"name":"generator_shinkai/in03_1/instancenorm/add","op":"Add"},{"input":["generator_shinkai/in03_1/instancenorm/add"],"attr":{"T":{"type":1}},"name":"generator_shinkai/in03_1/instancenorm/Rsqrt","op":"Rsqrt"},{"input":["generator_shinkai/in03_1/instancenorm/Rsqrt","generator_shinkai/in03_1/gamma"],"attr":{"T":{"type":1}},"name":"generator_shinkai/in03_1/instancenorm/mul","op":"Mul"},{"input":["generator_shinkai/conv03_2/BiasAdd","generator_shinkai/in03_1/instancenorm/mul"],"attr":{"T":{"type":1}},"name":"generator_shinkai/in03_1/instancenorm/mul_1","op":"Mul"},{"input":["generator_shinkai/in03_1/moments/mean","generator_shinkai/in03_1/instancenorm/mul"],"attr":{"T":{"type":1}},"name":"generator_shinkai/in03_1/instancenorm/mul_2","op":"Mul"},{"input":["generator_shinkai/in03_1/beta","generator_shinkai/in03_1/instancenorm/mul_2"],"attr":{"T":{"type":1}},"name":"generator_shinkai/in03_1/instancenorm/sub","op":"Sub"},{"input":["generator_shinkai/in03_1/instancenorm/mul_1","generator_shinkai/in03_1/instancenorm/sub"],"attr":{"T":{"type":1}},"name":"generator_shinkai/in03_1/instancenorm/add_1","op":"Add"},{"input":["generator_shinkai/in03_1/instancenorm/add_1"],"attr":{"T":{"type":1}},"name":"generator_shinkai/Relu_2","op":"Relu"},{"input":["generator_shinkai/Relu_2","generator_shinkai/Pad_15/paddings"],"attr":{"T":{"type":1},"Tpaddings":{"type":3}},"name":"generator_shinkai/Pad_1","op":"Pad"},{"input":["generator_shinkai/Pad_1","generator_shinkai/conv04_1/kernel"],"attr":{"padding":{"s":[86,65,76,73,68]},"dilations":{"list":{"s":[],"i":["1","1","1","1"],"f":[],"b":[],"type":[],"shape":[],"tensor":[],"func":[]}},"T":{"type":1},"strides":{"list":{"s":[],"i":["1","1","1","1"],"f":[],"b":[],"type":[],"shape":[],"tensor":[],"func":[]}},"data_format":{"s":[78,72,87,67]},"use_cudnn_on_gpu":{"b":true}},"name":"generator_shinkai/conv04_1/Conv2D","op":"Conv2D"},{"input":["generator_shinkai/conv04_1/Conv2D","generator_shinkai/conv04_1/bias"],"attr":{"T":{"type":1},"data_format":{"s":[78,72,87,67]}},"name":"generator_shinkai/conv04_1/BiasAdd","op":"BiasAdd"},{"input":["generator_shinkai/conv04_1/BiasAdd","generator_shinkai/in11_1/moments/mean/reduction_indices"],"attr":{"Tidx":{"type":3},"keep_dims":{"b":true},"T":{"type":1}},"name":"generator_shinkai/in04_1/moments/mean","op":"Mean"},{"input":["generator_shinkai/conv04_1/BiasAdd","generator_shinkai/in04_1/moments/mean"],"attr":{"T":{"type":1}},"name":"generator_shinkai/in04_1/moments/SquaredDifference","op":"SquaredDifference"},{"input":["generator_shinkai/in04_1/moments/SquaredDifference","generator_shinkai/in11_1/moments/mean/reduction_indices"],"attr":{"Tidx":{"type":3},"keep_dims":{"b":true},"T":{"type":1}},"name":"generator_shinkai/in04_1/moments/variance","op":"Mean"},{"input":["generator_shinkai/in04_1/moments/variance","generator_shinkai/in11_1/instancenorm/add/y"],"attr":{"T":{"type":1}},"name":"generator_shinkai/in04_1/instancenorm/add","op":"Add"},{"input":["generator_shinkai/in04_1/instancenorm/add"],"attr":{"T":{"type":1}},"name":"generator_shinkai/in04_1/instancenorm/Rsqrt","op":"Rsqrt"},{"input":["generator_shinkai/in04_1/instancenorm/Rsqrt","generator_shinkai/in04_1/gamma"],"attr":{"T":{"type":1}},"name":"generator_shinkai/in04_1/instancenorm/mul","op":"Mul"},{"input":["generator_shinkai/conv04_1/BiasAdd","generator_shinkai/in04_1/instancenorm/mul"],"attr":{"T":{"type":1}},"name":"generator_shinkai/in04_1/instancenorm/mul_1","op":"Mul"},{"input":["generator_shinkai/in04_1/moments/mean","generator_shinkai/in04_1/instancenorm/mul"],"attr":{"T":{"type":1}},"name":"generator_shinkai/in04_1/instancenorm/mul_2","op":"Mul"},{"input":["generator_shinkai/in04_1/beta","generator_shinkai/in04_1/instancenorm/mul_2"],"attr":{"T":{"type":1}},"name":"generator_shinkai/in04_1/instancenorm/sub","op":"Sub"},{"input":["generator_shinkai/in04_1/instancenorm/mul_1","generator_shinkai/in04_1/instancenorm/sub"],"attr":{"T":{"type":1}},"name":"generator_shinkai/in04_1/instancenorm/add_1","op":"Add"},{"input":["generator_shinkai/in04_1/instancenorm/add_1"],"attr":{"T":{"type":1}},"name":"generator_shinkai/Relu_3","op":"Relu"},{"input":["generator_shinkai/Relu_3","generator_shinkai/Pad_15/paddings"],"attr":{"T":{"type":1},"Tpaddings":{"type":3}},"name":"generator_shinkai/Pad_2","op":"Pad"},{"input":["generator_shinkai/Pad_2","generator_shinkai/conv04_2/kernel"],"attr":{"dilations":{"list":{"s":[],"i":["1","1","1","1"],"f":[],"b":[],"type":[],"shape":[],"tensor":[],"func":[]}},"T":{"type":1},"data_format":{"s":[78,72,87,67]},"strides":{"list":{"s":[],"i":["1","1","1","1"],"f":[],"b":[],"type":[],"shape":[],"tensor":[],"func":[]}},"use_cudnn_on_gpu":{"b":true},"padding":{"s":[86,65,76,73,68]}},"name":"generator_shinkai/conv04_2/Conv2D","op":"Conv2D"},{"input":["generator_shinkai/conv04_2/Conv2D","generator_shinkai/conv04_2/bias"],"attr":{"T":{"type":1},"data_format":{"s":[78,72,87,67]}},"name":"generator_shinkai/conv04_2/BiasAdd","op":"BiasAdd"},{"input":["generator_shinkai/conv04_2/BiasAdd","generator_shinkai/in11_1/moments/mean/reduction_indices"],"attr":{"T":{"type":1},"Tidx":{"type":3},"keep_dims":{"b":true}},"name":"generator_shinkai/in04_2/moments/mean","op":"Mean"},{"input":["generator_shinkai/conv04_2/BiasAdd","generator_shinkai/in04_2/moments/mean"],"attr":{"T":{"type":1}},"name":"generator_shinkai/in04_2/moments/SquaredDifference","op":"SquaredDifference"},{"input":["generator_shinkai/in04_2/moments/SquaredDifference","generator_shinkai/in11_1/moments/mean/reduction_indices"],"attr":{"T":{"type":1},"Tidx":{"type":3},"keep_dims":{"b":true}},"name":"generator_shinkai/in04_2/moments/variance","op":"Mean"},{"input":["generator_shinkai/in04_2/moments/variance","generator_shinkai/in11_1/instancenorm/add/y"],"attr":{"T":{"type":1}},"name":"generator_shinkai/in04_2/instancenorm/add","op":"Add"},{"input":["generator_shinkai/in04_2/instancenorm/add"],"attr":{"T":{"type":1}},"name":"generator_shinkai/in04_2/instancenorm/Rsqrt","op":"Rsqrt"},{"input":["generator_shinkai/in04_2/instancenorm/Rsqrt","generator_shinkai/in04_2/gamma"],"attr":{"T":{"type":1}},"name":"generator_shinkai/in04_2/instancenorm/mul","op":"Mul"},{"input":["generator_shinkai/conv04_2/BiasAdd","generator_shinkai/in04_2/instancenorm/mul"],"attr":{"T":{"type":1}},"name":"generator_shinkai/in04_2/instancenorm/mul_1","op":"Mul"},{"input":["generator_shinkai/in04_2/moments/mean","generator_shinkai/in04_2/instancenorm/mul"],"attr":{"T":{"type":1}},"name":"generator_shinkai/in04_2/instancenorm/mul_2","op":"Mul"},{"input":["generator_shinkai/in04_2/beta","generator_shinkai/in04_2/instancenorm/mul_2"],"attr":{"T":{"type":1}},"name":"generator_shinkai/in04_2/instancenorm/sub","op":"Sub"},{"input":["generator_shinkai/in04_2/instancenorm/mul_1","generator_shinkai/in04_2/instancenorm/sub"],"attr":{"T":{"type":1}},"name":"generator_shinkai/in04_2/instancenorm/add_1","op":"Add"},{"input":["generator_shinkai/in04_2/instancenorm/add_1","generator_shinkai/Relu_2"],"attr":{"T":{"type":1}},"name":"generator_shinkai/add","op":"Add"},{"input":["generator_shinkai/add","generator_shinkai/Pad_15/paddings"],"attr":{"Tpaddings":{"type":3},"T":{"type":1}},"name":"generator_shinkai/Pad_3","op":"Pad"},{"input":["generator_shinkai/Pad_3","generator_shinkai/conv05_1/kernel"],"attr":{"dilations":{"list":{"s":[],"i":["1","1","1","1"],"f":[],"b":[],"type":[],"shape":[],"tensor":[],"func":[]}},"T":{"type":1},"data_format":{"s":[78,72,87,67]},"strides":{"list":{"s":[],"i":["1","1","1","1"],"f":[],"b":[],"type":[],"shape":[],"tensor":[],"func":[]}},"use_cudnn_on_gpu":{"b":true},"padding":{"s":[86,65,76,73,68]}},"name":"generator_shinkai/conv05_1/Conv2D","op":"Conv2D"},{"input":["generator_shinkai/conv05_1/Conv2D","generator_shinkai/conv05_1/bias"],"attr":{"data_format":{"s":[78,72,87,67]},"T":{"type":1}},"name":"generator_shinkai/conv05_1/BiasAdd","op":"BiasAdd"},{"input":["generator_shinkai/conv05_1/BiasAdd","generator_shinkai/in11_1/moments/mean/reduction_indices"],"attr":{"T":{"type":1},"Tidx":{"type":3},"keep_dims":{"b":true}},"name":"generator_shinkai/in05_1/moments/mean","op":"Mean"},{"input":["generator_shinkai/conv05_1/BiasAdd","generator_shinkai/in05_1/moments/mean"],"attr":{"T":{"type":1}},"name":"generator_shinkai/in05_1/moments/SquaredDifference","op":"SquaredDifference"},{"input":["generator_shinkai/in05_1/moments/SquaredDifference","generator_shinkai/in11_1/moments/mean/reduction_indices"],"attr":{"Tidx":{"type":3},"keep_dims":{"b":true},"T":{"type":1}},"name":"generator_shinkai/in05_1/moments/variance","op":"Mean"},{"input":["generator_shinkai/in05_1/moments/variance","generator_shinkai/in11_1/instancenorm/add/y"],"attr":{"T":{"type":1}},"name":"generator_shinkai/in05_1/instancenorm/add","op":"Add"},{"input":["generator_shinkai/in05_1/instancenorm/add"],"attr":{"T":{"type":1}},"name":"generator_shinkai/in05_1/instancenorm/Rsqrt","op":"Rsqrt"},{"input":["generator_shinkai/in05_1/instancenorm/Rsqrt","generator_shinkai/in05_1/gamma"],"attr":{"T":{"type":1}},"name":"generator_shinkai/in05_1/instancenorm/mul","op":"Mul"},{"input":["generator_shinkai/conv05_1/BiasAdd","generator_shinkai/in05_1/instancenorm/mul"],"attr":{"T":{"type":1}},"name":"generator_shinkai/in05_1/instancenorm/mul_1","op":"Mul"},{"input":["generator_shinkai/in05_1/moments/mean","generator_shinkai/in05_1/instancenorm/mul"],"attr":{"T":{"type":1}},"name":"generator_shinkai/in05_1/instancenorm/mul_2","op":"Mul"},{"input":["generator_shinkai/in05_1/beta","generator_shinkai/in05_1/instancenorm/mul_2"],"attr":{"T":{"type":1}},"name":"generator_shinkai/in05_1/instancenorm/sub","op":"Sub"},{"input":["generator_shinkai/in05_1/instancenorm/mul_1","generator_shinkai/in05_1/instancenorm/sub"],"attr":{"T":{"type":1}},"name":"generator_shinkai/in05_1/instancenorm/add_1","op":"Add"},{"input":["generator_shinkai/in05_1/instancenorm/add_1"],"attr":{"T":{"type":1}},"name":"generator_shinkai/Relu_4","op":"Relu"},{"input":["generator_shinkai/Relu_4","generator_shinkai/Pad_15/paddings"],"attr":{"T":{"type":1},"Tpaddings":{"type":3}},"name":"generator_shinkai/Pad_4","op":"Pad"},{"input":["generator_shinkai/Pad_4","generator_shinkai/conv05_2/kernel"],"attr":{"padding":{"s":[86,65,76,73,68]},"dilations":{"list":{"s":[],"i":["1","1","1","1"],"f":[],"b":[],"type":[],"shape":[],"tensor":[],"func":[]}},"T":{"type":1},"data_format":{"s":[78,72,87,67]},"strides":{"list":{"s":[],"i":["1","1","1","1"],"f":[],"b":[],"type":[],"shape":[],"tensor":[],"func":[]}},"use_cudnn_on_gpu":{"b":true}},"name":"generator_shinkai/conv05_2/Conv2D","op":"Conv2D"},{"input":["generator_shinkai/conv05_2/Conv2D","generator_shinkai/conv05_2/bias"],"attr":{"data_format":{"s":[78,72,87,67]},"T":{"type":1}},"name":"generator_shinkai/conv05_2/BiasAdd","op":"BiasAdd"},{"input":["generator_shinkai/conv05_2/BiasAdd","generator_shinkai/in11_1/moments/mean/reduction_indices"],"attr":{"T":{"type":1},"Tidx":{"type":3},"keep_dims":{"b":true}},"name":"generator_shinkai/in05_2/moments/mean","op":"Mean"},{"input":["generator_shinkai/conv05_2/BiasAdd","generator_shinkai/in05_2/moments/mean"],"attr":{"T":{"type":1}},"name":"generator_shinkai/in05_2/moments/SquaredDifference","op":"SquaredDifference"},{"input":["generator_shinkai/in05_2/moments/SquaredDifference","generator_shinkai/in11_1/moments/mean/reduction_indices"],"attr":{"Tidx":{"type":3},"keep_dims":{"b":true},"T":{"type":1}},"name":"generator_shinkai/in05_2/moments/variance","op":"Mean"},{"input":["generator_shinkai/in05_2/moments/variance","generator_shinkai/in11_1/instancenorm/add/y"],"attr":{"T":{"type":1}},"name":"generator_shinkai/in05_2/instancenorm/add","op":"Add"},{"input":["generator_shinkai/in05_2/instancenorm/add"],"attr":{"T":{"type":1}},"name":"generator_shinkai/in05_2/instancenorm/Rsqrt","op":"Rsqrt"},{"input":["generator_shinkai/in05_2/instancenorm/Rsqrt","generator_shinkai/in05_2/gamma"],"attr":{"T":{"type":1}},"name":"generator_shinkai/in05_2/instancenorm/mul","op":"Mul"},{"input":["generator_shinkai/conv05_2/BiasAdd","generator_shinkai/in05_2/instancenorm/mul"],"attr":{"T":{"type":1}},"name":"generator_shinkai/in05_2/instancenorm/mul_1","op":"Mul"},{"input":["generator_shinkai/in05_2/moments/mean","generator_shinkai/in05_2/instancenorm/mul"],"attr":{"T":{"type":1}},"name":"generator_shinkai/in05_2/instancenorm/mul_2","op":"Mul"},{"input":["generator_shinkai/in05_2/beta","generator_shinkai/in05_2/instancenorm/mul_2"],"attr":{"T":{"type":1}},"name":"generator_shinkai/in05_2/instancenorm/sub","op":"Sub"},{"input":["generator_shinkai/in05_2/instancenorm/mul_1","generator_shinkai/in05_2/instancenorm/sub"],"attr":{"T":{"type":1}},"name":"generator_shinkai/in05_2/instancenorm/add_1","op":"Add"},{"input":["generator_shinkai/in05_2/instancenorm/add_1","generator_shinkai/add"],"attr":{"T":{"type":1}},"name":"generator_shinkai/add_1","op":"Add"},{"input":["generator_shinkai/add_1","generator_shinkai/Pad_15/paddings"],"attr":{"Tpaddings":{"type":3},"T":{"type":1}},"name":"generator_shinkai/Pad_5","op":"Pad"},{"input":["generator_shinkai/Pad_5","generator_shinkai/conv06_1/kernel"],"attr":{"T":{"type":1},"strides":{"list":{"s":[],"i":["1","1","1","1"],"f":[],"b":[],"type":[],"shape":[],"tensor":[],"func":[]}},"data_format":{"s":[78,72,87,67]},"use_cudnn_on_gpu":{"b":true},"padding":{"s":[86,65,76,73,68]},"dilations":{"list":{"s":[],"i":["1","1","1","1"],"f":[],"b":[],"type":[],"shape":[],"tensor":[],"func":[]}}},"name":"generator_shinkai/conv06_1/Conv2D","op":"Conv2D"},{"input":["generator_shinkai/conv06_1/Conv2D","generator_shinkai/conv06_1/bias"],"attr":{"T":{"type":1},"data_format":{"s":[78,72,87,67]}},"name":"generator_shinkai/conv06_1/BiasAdd","op":"BiasAdd"},{"input":["generator_shinkai/conv06_1/BiasAdd","generator_shinkai/in11_1/moments/mean/reduction_indices"],"attr":{"Tidx":{"type":3},"keep_dims":{"b":true},"T":{"type":1}},"name":"generator_shinkai/in06_1/moments/mean","op":"Mean"},{"input":["generator_shinkai/conv06_1/BiasAdd","generator_shinkai/in06_1/moments/mean"],"attr":{"T":{"type":1}},"name":"generator_shinkai/in06_1/moments/SquaredDifference","op":"SquaredDifference"},{"input":["generator_shinkai/in06_1/moments/SquaredDifference","generator_shinkai/in11_1/moments/mean/reduction_indices"],"attr":{"Tidx":{"type":3},"keep_dims":{"b":true},"T":{"type":1}},"name":"generator_shinkai/in06_1/moments/variance","op":"Mean"},{"input":["generator_shinkai/in06_1/moments/variance","generator_shinkai/in11_1/instancenorm/add/y"],"attr":{"T":{"type":1}},"name":"generator_shinkai/in06_1/instancenorm/add","op":"Add"},{"input":["generator_shinkai/in06_1/instancenorm/add"],"attr":{"T":{"type":1}},"name":"generator_shinkai/in06_1/instancenorm/Rsqrt","op":"Rsqrt"},{"input":["generator_shinkai/in06_1/instancenorm/Rsqrt","generator_shinkai/in06_1/gamma"],"attr":{"T":{"type":1}},"name":"generator_shinkai/in06_1/instancenorm/mul","op":"Mul"},{"input":["generator_shinkai/conv06_1/BiasAdd","generator_shinkai/in06_1/instancenorm/mul"],"attr":{"T":{"type":1}},"name":"generator_shinkai/in06_1/instancenorm/mul_1","op":"Mul"},{"input":["generator_shinkai/in06_1/moments/mean","generator_shinkai/in06_1/instancenorm/mul"],"attr":{"T":{"type":1}},"name":"generator_shinkai/in06_1/instancenorm/mul_2","op":"Mul"},{"input":["generator_shinkai/in06_1/beta","generator_shinkai/in06_1/instancenorm/mul_2"],"attr":{"T":{"type":1}},"name":"generator_shinkai/in06_1/instancenorm/sub","op":"Sub"},{"input":["generator_shinkai/in06_1/instancenorm/mul_1","generator_shinkai/in06_1/instancenorm/sub"],"attr":{"T":{"type":1}},"name":"generator_shinkai/in06_1/instancenorm/add_1","op":"Add"},{"input":["generator_shinkai/in06_1/instancenorm/add_1"],"attr":{"T":{"type":1}},"name":"generator_shinkai/Relu_5","op":"Relu"},{"input":["generator_shinkai/Relu_5","generator_shinkai/Pad_15/paddings"],"attr":{"T":{"type":1},"Tpaddings":{"type":3}},"name":"generator_shinkai/Pad_6","op":"Pad"},{"input":["generator_shinkai/Pad_6","generator_shinkai/conv06_2/kernel"],"attr":{"dilations":{"list":{"s":[],"i":["1","1","1","1"],"f":[],"b":[],"type":[],"shape":[],"tensor":[],"func":[]}},"T":{"type":1},"data_format":{"s":[78,72,87,67]},"strides":{"list":{"s":[],"i":["1","1","1","1"],"f":[],"b":[],"type":[],"shape":[],"tensor":[],"func":[]}},"use_cudnn_on_gpu":{"b":true},"padding":{"s":[86,65,76,73,68]}},"name":"generator_shinkai/conv06_2/Conv2D","op":"Conv2D"},{"input":["generator_shinkai/conv06_2/Conv2D","generator_shinkai/conv06_2/bias"],"attr":{"T":{"type":1},"data_format":{"s":[78,72,87,67]}},"name":"generator_shinkai/conv06_2/BiasAdd","op":"BiasAdd"},{"input":["generator_shinkai/conv06_2/BiasAdd","generator_shinkai/in11_1/moments/mean/reduction_indices"],"attr":{"T":{"type":1},"Tidx":{"type":3},"keep_dims":{"b":true}},"name":"generator_shinkai/in06_2/moments/mean","op":"Mean"},{"input":["generator_shinkai/conv06_2/BiasAdd","generator_shinkai/in06_2/moments/mean"],"attr":{"T":{"type":1}},"name":"generator_shinkai/in06_2/moments/SquaredDifference","op":"SquaredDifference"},{"input":["generator_shinkai/in06_2/moments/SquaredDifference","generator_shinkai/in11_1/moments/mean/reduction_indices"],"attr":{"Tidx":{"type":3},"keep_dims":{"b":true},"T":{"type":1}},"name":"generator_shinkai/in06_2/moments/variance","op":"Mean"},{"input":["generator_shinkai/in06_2/moments/variance","generator_shinkai/in11_1/instancenorm/add/y"],"attr":{"T":{"type":1}},"name":"generator_shinkai/in06_2/instancenorm/add","op":"Add"},{"input":["generator_shinkai/in06_2/instancenorm/add"],"attr":{"T":{"type":1}},"name":"generator_shinkai/in06_2/instancenorm/Rsqrt","op":"Rsqrt"},{"input":["generator_shinkai/in06_2/instancenorm/Rsqrt","generator_shinkai/in06_2/gamma"],"attr":{"T":{"type":1}},"name":"generator_shinkai/in06_2/instancenorm/mul","op":"Mul"},{"input":["generator_shinkai/conv06_2/BiasAdd","generator_shinkai/in06_2/instancenorm/mul"],"attr":{"T":{"type":1}},"name":"generator_shinkai/in06_2/instancenorm/mul_1","op":"Mul"},{"input":["generator_shinkai/in06_2/moments/mean","generator_shinkai/in06_2/instancenorm/mul"],"attr":{"T":{"type":1}},"name":"generator_shinkai/in06_2/instancenorm/mul_2","op":"Mul"},{"input":["generator_shinkai/in06_2/beta","generator_shinkai/in06_2/instancenorm/mul_2"],"attr":{"T":{"type":1}},"name":"generator_shinkai/in06_2/instancenorm/sub","op":"Sub"},{"input":["generator_shinkai/in06_2/instancenorm/mul_1","generator_shinkai/in06_2/instancenorm/sub"],"attr":{"T":{"type":1}},"name":"generator_shinkai/in06_2/instancenorm/add_1","op":"Add"},{"input":["generator_shinkai/in06_2/instancenorm/add_1","generator_shinkai/add_1"],"attr":{"T":{"type":1}},"name":"generator_shinkai/add_2","op":"Add"},{"input":["generator_shinkai/add_2","generator_shinkai/Pad_15/paddings"],"attr":{"T":{"type":1},"Tpaddings":{"type":3}},"name":"generator_shinkai/Pad_7","op":"Pad"},{"input":["generator_shinkai/Pad_7","generator_shinkai/conv07_1/kernel"],"attr":{"dilations":{"list":{"s":[],"i":["1","1","1","1"],"f":[],"b":[],"type":[],"shape":[],"tensor":[],"func":[]}},"T":{"type":1},"strides":{"list":{"s":[],"i":["1","1","1","1"],"f":[],"b":[],"type":[],"shape":[],"tensor":[],"func":[]}},"data_format":{"s":[78,72,87,67]},"use_cudnn_on_gpu":{"b":true},"padding":{"s":[86,65,76,73,68]}},"name":"generator_shinkai/conv07_1/Conv2D","op":"Conv2D"},{"input":["generator_shinkai/conv07_1/Conv2D","generator_shinkai/conv07_1/bias"],"attr":{"data_format":{"s":[78,72,87,67]},"T":{"type":1}},"name":"generator_shinkai/conv07_1/BiasAdd","op":"BiasAdd"},{"input":["generator_shinkai/conv07_1/BiasAdd","generator_shinkai/in11_1/moments/mean/reduction_indices"],"attr":{"T":{"type":1},"Tidx":{"type":3},"keep_dims":{"b":true}},"name":"generator_shinkai/in07_1/moments/mean","op":"Mean"},{"input":["generator_shinkai/conv07_1/BiasAdd","generator_shinkai/in07_1/moments/mean"],"attr":{"T":{"type":1}},"name":"generator_shinkai/in07_1/moments/SquaredDifference","op":"SquaredDifference"},{"input":["generator_shinkai/in07_1/moments/SquaredDifference","generator_shinkai/in11_1/moments/mean/reduction_indices"],"attr":{"T":{"type":1},"Tidx":{"type":3},"keep_dims":{"b":true}},"name":"generator_shinkai/in07_1/moments/variance","op":"Mean"},{"input":["generator_shinkai/in07_1/moments/variance","generator_shinkai/in11_1/instancenorm/add/y"],"attr":{"T":{"type":1}},"name":"generator_shinkai/in07_1/instancenorm/add","op":"Add"},{"input":["generator_shinkai/in07_1/instancenorm/add"],"attr":{"T":{"type":1}},"name":"generator_shinkai/in07_1/instancenorm/Rsqrt","op":"Rsqrt"},{"input":["generator_shinkai/in07_1/instancenorm/Rsqrt","generator_shinkai/in07_1/gamma"],"attr":{"T":{"type":1}},"name":"generator_shinkai/in07_1/instancenorm/mul","op":"Mul"},{"input":["generator_shinkai/conv07_1/BiasAdd","generator_shinkai/in07_1/instancenorm/mul"],"attr":{"T":{"type":1}},"name":"generator_shinkai/in07_1/instancenorm/mul_1","op":"Mul"},{"input":["generator_shinkai/in07_1/moments/mean","generator_shinkai/in07_1/instancenorm/mul"],"attr":{"T":{"type":1}},"name":"generator_shinkai/in07_1/instancenorm/mul_2","op":"Mul"},{"input":["generator_shinkai/in07_1/beta","generator_shinkai/in07_1/instancenorm/mul_2"],"attr":{"T":{"type":1}},"name":"generator_shinkai/in07_1/instancenorm/sub","op":"Sub"},{"input":["generator_shinkai/in07_1/instancenorm/mul_1","generator_shinkai/in07_1/instancenorm/sub"],"attr":{"T":{"type":1}},"name":"generator_shinkai/in07_1/instancenorm/add_1","op":"Add"},{"input":["generator_shinkai/in07_1/instancenorm/add_1"],"attr":{"T":{"type":1}},"name":"generator_shinkai/Relu_6","op":"Relu"},{"input":["generator_shinkai/Relu_6","generator_shinkai/Pad_15/paddings"],"attr":{"T":{"type":1},"Tpaddings":{"type":3}},"name":"generator_shinkai/Pad_8","op":"Pad"},{"input":["generator_shinkai/Pad_8","generator_shinkai/conv07_2/kernel"],"attr":{"dilations":{"list":{"s":[],"i":["1","1","1","1"],"f":[],"b":[],"type":[],"shape":[],"tensor":[],"func":[]}},"T":{"type":1},"strides":{"list":{"s":[],"i":["1","1","1","1"],"f":[],"b":[],"type":[],"shape":[],"tensor":[],"func":[]}},"data_format":{"s":[78,72,87,67]},"use_cudnn_on_gpu":{"b":true},"padding":{"s":[86,65,76,73,68]}},"name":"generator_shinkai/conv07_2/Conv2D","op":"Conv2D"},{"input":["generator_shinkai/conv07_2/Conv2D","generator_shinkai/conv07_2/bias"],"attr":{"data_format":{"s":[78,72,87,67]},"T":{"type":1}},"name":"generator_shinkai/conv07_2/BiasAdd","op":"BiasAdd"},{"input":["generator_shinkai/conv07_2/BiasAdd","generator_shinkai/in11_1/moments/mean/reduction_indices"],"attr":{"Tidx":{"type":3},"keep_dims":{"b":true},"T":{"type":1}},"name":"generator_shinkai/in07_2/moments/mean","op":"Mean"},{"input":["generator_shinkai/conv07_2/BiasAdd","generator_shinkai/in07_2/moments/mean"],"attr":{"T":{"type":1}},"name":"generator_shinkai/in07_2/moments/SquaredDifference","op":"SquaredDifference"},{"input":["generator_shinkai/in07_2/moments/SquaredDifference","generator_shinkai/in11_1/moments/mean/reduction_indices"],"attr":{"T":{"type":1},"Tidx":{"type":3},"keep_dims":{"b":true}},"name":"generator_shinkai/in07_2/moments/variance","op":"Mean"},{"input":["generator_shinkai/in07_2/moments/variance","generator_shinkai/in11_1/instancenorm/add/y"],"attr":{"T":{"type":1}},"name":"generator_shinkai/in07_2/instancenorm/add","op":"Add"},{"input":["generator_shinkai/in07_2/instancenorm/add"],"attr":{"T":{"type":1}},"name":"generator_shinkai/in07_2/instancenorm/Rsqrt","op":"Rsqrt"},{"input":["generator_shinkai/in07_2/instancenorm/Rsqrt","generator_shinkai/in07_2/gamma"],"attr":{"T":{"type":1}},"name":"generator_shinkai/in07_2/instancenorm/mul","op":"Mul"},{"input":["generator_shinkai/conv07_2/BiasAdd","generator_shinkai/in07_2/instancenorm/mul"],"attr":{"T":{"type":1}},"name":"generator_shinkai/in07_2/instancenorm/mul_1","op":"Mul"},{"input":["generator_shinkai/in07_2/moments/mean","generator_shinkai/in07_2/instancenorm/mul"],"attr":{"T":{"type":1}},"name":"generator_shinkai/in07_2/instancenorm/mul_2","op":"Mul"},{"input":["generator_shinkai/in07_2/beta","generator_shinkai/in07_2/instancenorm/mul_2"],"attr":{"T":{"type":1}},"name":"generator_shinkai/in07_2/instancenorm/sub","op":"Sub"},{"input":["generator_shinkai/in07_2/instancenorm/mul_1","generator_shinkai/in07_2/instancenorm/sub"],"attr":{"T":{"type":1}},"name":"generator_shinkai/in07_2/instancenorm/add_1","op":"Add"},{"input":["generator_shinkai/in07_2/instancenorm/add_1","generator_shinkai/add_2"],"attr":{"T":{"type":1}},"name":"generator_shinkai/add_3","op":"Add"},{"input":["generator_shinkai/add_3","generator_shinkai/Pad_15/paddings"],"attr":{"T":{"type":1},"Tpaddings":{"type":3}},"name":"generator_shinkai/Pad_9","op":"Pad"},{"input":["generator_shinkai/Pad_9","generator_shinkai/conv08_1/kernel"],"attr":{"dilations":{"list":{"s":[],"i":["1","1","1","1"],"f":[],"b":[],"type":[],"shape":[],"tensor":[],"func":[]}},"T":{"type":1},"strides":{"list":{"s":[],"i":["1","1","1","1"],"f":[],"b":[],"type":[],"shape":[],"tensor":[],"func":[]}},"data_format":{"s":[78,72,87,67]},"use_cudnn_on_gpu":{"b":true},"padding":{"s":[86,65,76,73,68]}},"name":"generator_shinkai/conv08_1/Conv2D","op":"Conv2D"},{"input":["generator_shinkai/conv08_1/Conv2D","generator_shinkai/conv08_1/bias"],"attr":{"T":{"type":1},"data_format":{"s":[78,72,87,67]}},"name":"generator_shinkai/conv08_1/BiasAdd","op":"BiasAdd"},{"input":["generator_shinkai/conv08_1/BiasAdd","generator_shinkai/in11_1/moments/mean/reduction_indices"],"attr":{"Tidx":{"type":3},"keep_dims":{"b":true},"T":{"type":1}},"name":"generator_shinkai/in08_1/moments/mean","op":"Mean"},{"input":["generator_shinkai/conv08_1/BiasAdd","generator_shinkai/in08_1/moments/mean"],"attr":{"T":{"type":1}},"name":"generator_shinkai/in08_1/moments/SquaredDifference","op":"SquaredDifference"},{"input":["generator_shinkai/in08_1/moments/SquaredDifference","generator_shinkai/in11_1/moments/mean/reduction_indices"],"attr":{"Tidx":{"type":3},"keep_dims":{"b":true},"T":{"type":1}},"name":"generator_shinkai/in08_1/moments/variance","op":"Mean"},{"input":["generator_shinkai/in08_1/moments/variance","generator_shinkai/in11_1/instancenorm/add/y"],"attr":{"T":{"type":1}},"name":"generator_shinkai/in08_1/instancenorm/add","op":"Add"},{"input":["generator_shinkai/in08_1/instancenorm/add"],"attr":{"T":{"type":1}},"name":"generator_shinkai/in08_1/instancenorm/Rsqrt","op":"Rsqrt"},{"input":["generator_shinkai/in08_1/instancenorm/Rsqrt","generator_shinkai/in08_1/gamma"],"attr":{"T":{"type":1}},"name":"generator_shinkai/in08_1/instancenorm/mul","op":"Mul"},{"input":["generator_shinkai/conv08_1/BiasAdd","generator_shinkai/in08_1/instancenorm/mul"],"attr":{"T":{"type":1}},"name":"generator_shinkai/in08_1/instancenorm/mul_1","op":"Mul"},{"input":["generator_shinkai/in08_1/moments/mean","generator_shinkai/in08_1/instancenorm/mul"],"attr":{"T":{"type":1}},"name":"generator_shinkai/in08_1/instancenorm/mul_2","op":"Mul"},{"input":["generator_shinkai/in08_1/beta","generator_shinkai/in08_1/instancenorm/mul_2"],"attr":{"T":{"type":1}},"name":"generator_shinkai/in08_1/instancenorm/sub","op":"Sub"},{"input":["generator_shinkai/in08_1/instancenorm/mul_1","generator_shinkai/in08_1/instancenorm/sub"],"attr":{"T":{"type":1}},"name":"generator_shinkai/in08_1/instancenorm/add_1","op":"Add"},{"input":["generator_shinkai/in08_1/instancenorm/add_1"],"attr":{"T":{"type":1}},"name":"generator_shinkai/Relu_7","op":"Relu"},{"input":["generator_shinkai/Relu_7","generator_shinkai/Pad_15/paddings"],"attr":{"T":{"type":1},"Tpaddings":{"type":3}},"name":"generator_shinkai/Pad_10","op":"Pad"},{"input":["generator_shinkai/Pad_10","generator_shinkai/conv08_2/kernel"],"attr":{"use_cudnn_on_gpu":{"b":true},"padding":{"s":[86,65,76,73,68]},"dilations":{"list":{"s":[],"i":["1","1","1","1"],"f":[],"b":[],"type":[],"shape":[],"tensor":[],"func":[]}},"T":{"type":1},"data_format":{"s":[78,72,87,67]},"strides":{"list":{"s":[],"i":["1","1","1","1"],"f":[],"b":[],"type":[],"shape":[],"tensor":[],"func":[]}}},"name":"generator_shinkai/conv08_2/Conv2D","op":"Conv2D"},{"input":["generator_shinkai/conv08_2/Conv2D","generator_shinkai/conv08_2/bias"],"attr":{"T":{"type":1},"data_format":{"s":[78,72,87,67]}},"name":"generator_shinkai/conv08_2/BiasAdd","op":"BiasAdd"},{"input":["generator_shinkai/conv08_2/BiasAdd","generator_shinkai/in11_1/moments/mean/reduction_indices"],"attr":{"T":{"type":1},"Tidx":{"type":3},"keep_dims":{"b":true}},"name":"generator_shinkai/in08_2/moments/mean","op":"Mean"},{"input":["generator_shinkai/conv08_2/BiasAdd","generator_shinkai/in08_2/moments/mean"],"attr":{"T":{"type":1}},"name":"generator_shinkai/in08_2/moments/SquaredDifference","op":"SquaredDifference"},{"input":["generator_shinkai/in08_2/moments/SquaredDifference","generator_shinkai/in11_1/moments/mean/reduction_indices"],"attr":{"Tidx":{"type":3},"keep_dims":{"b":true},"T":{"type":1}},"name":"generator_shinkai/in08_2/moments/variance","op":"Mean"},{"input":["generator_shinkai/in08_2/moments/variance","generator_shinkai/in11_1/instancenorm/add/y"],"attr":{"T":{"type":1}},"name":"generator_shinkai/in08_2/instancenorm/add","op":"Add"},{"input":["generator_shinkai/in08_2/instancenorm/add"],"attr":{"T":{"type":1}},"name":"generator_shinkai/in08_2/instancenorm/Rsqrt","op":"Rsqrt"},{"input":["generator_shinkai/in08_2/instancenorm/Rsqrt","generator_shinkai/in08_2/gamma"],"attr":{"T":{"type":1}},"name":"generator_shinkai/in08_2/instancenorm/mul","op":"Mul"},{"input":["generator_shinkai/conv08_2/BiasAdd","generator_shinkai/in08_2/instancenorm/mul"],"attr":{"T":{"type":1}},"name":"generator_shinkai/in08_2/instancenorm/mul_1","op":"Mul"},{"input":["generator_shinkai/in08_2/moments/mean","generator_shinkai/in08_2/instancenorm/mul"],"attr":{"T":{"type":1}},"name":"generator_shinkai/in08_2/instancenorm/mul_2","op":"Mul"},{"input":["generator_shinkai/in08_2/beta","generator_shinkai/in08_2/instancenorm/mul_2"],"attr":{"T":{"type":1}},"name":"generator_shinkai/in08_2/instancenorm/sub","op":"Sub"},{"input":["generator_shinkai/in08_2/instancenorm/mul_1","generator_shinkai/in08_2/instancenorm/sub"],"attr":{"T":{"type":1}},"name":"generator_shinkai/in08_2/instancenorm/add_1","op":"Add"},{"input":["generator_shinkai/in08_2/instancenorm/add_1","generator_shinkai/add_3"],"attr":{"T":{"type":1}},"name":"generator_shinkai/add_4","op":"Add"},{"input":["generator_shinkai/add_4","generator_shinkai/Pad_15/paddings"],"attr":{"T":{"type":1},"Tpaddings":{"type":3}},"name":"generator_shinkai/Pad_11","op":"Pad"},{"input":["generator_shinkai/Pad_11","generator_shinkai/conv09_1/kernel"],"attr":{"dilations":{"list":{"s":[],"i":["1","1","1","1"],"f":[],"b":[],"type":[],"shape":[],"tensor":[],"func":[]}},"T":{"type":1},"data_format":{"s":[78,72,87,67]},"strides":{"list":{"s":[],"i":["1","1","1","1"],"f":[],"b":[],"type":[],"shape":[],"tensor":[],"func":[]}},"use_cudnn_on_gpu":{"b":true},"padding":{"s":[86,65,76,73,68]}},"name":"generator_shinkai/conv09_1/Conv2D","op":"Conv2D"},{"input":["generator_shinkai/conv09_1/Conv2D","generator_shinkai/conv09_1/bias"],"attr":{"T":{"type":1},"data_format":{"s":[78,72,87,67]}},"name":"generator_shinkai/conv09_1/BiasAdd","op":"BiasAdd"},{"input":["generator_shinkai/conv09_1/BiasAdd","generator_shinkai/in11_1/moments/mean/reduction_indices"],"attr":{"T":{"type":1},"Tidx":{"type":3},"keep_dims":{"b":true}},"name":"generator_shinkai/in09_1/moments/mean","op":"Mean"},{"input":["generator_shinkai/conv09_1/BiasAdd","generator_shinkai/in09_1/moments/mean"],"attr":{"T":{"type":1}},"name":"generator_shinkai/in09_1/moments/SquaredDifference","op":"SquaredDifference"},{"input":["generator_shinkai/in09_1/moments/SquaredDifference","generator_shinkai/in11_1/moments/mean/reduction_indices"],"attr":{"T":{"type":1},"Tidx":{"type":3},"keep_dims":{"b":true}},"name":"generator_shinkai/in09_1/moments/variance","op":"Mean"},{"input":["generator_shinkai/in09_1/moments/variance","generator_shinkai/in11_1/instancenorm/add/y"],"attr":{"T":{"type":1}},"name":"generator_shinkai/in09_1/instancenorm/add","op":"Add"},{"input":["generator_shinkai/in09_1/instancenorm/add"],"attr":{"T":{"type":1}},"name":"generator_shinkai/in09_1/instancenorm/Rsqrt","op":"Rsqrt"},{"input":["generator_shinkai/in09_1/instancenorm/Rsqrt","generator_shinkai/in09_1/gamma"],"attr":{"T":{"type":1}},"name":"generator_shinkai/in09_1/instancenorm/mul","op":"Mul"},{"input":["generator_shinkai/conv09_1/BiasAdd","generator_shinkai/in09_1/instancenorm/mul"],"attr":{"T":{"type":1}},"name":"generator_shinkai/in09_1/instancenorm/mul_1","op":"Mul"},{"input":["generator_shinkai/in09_1/moments/mean","generator_shinkai/in09_1/instancenorm/mul"],"attr":{"T":{"type":1}},"name":"generator_shinkai/in09_1/instancenorm/mul_2","op":"Mul"},{"input":["generator_shinkai/in09_1/beta","generator_shinkai/in09_1/instancenorm/mul_2"],"attr":{"T":{"type":1}},"name":"generator_shinkai/in09_1/instancenorm/sub","op":"Sub"},{"input":["generator_shinkai/in09_1/instancenorm/mul_1","generator_shinkai/in09_1/instancenorm/sub"],"attr":{"T":{"type":1}},"name":"generator_shinkai/in09_1/instancenorm/add_1","op":"Add"},{"input":["generator_shinkai/in09_1/instancenorm/add_1"],"attr":{"T":{"type":1}},"name":"generator_shinkai/Relu_8","op":"Relu"},{"input":["generator_shinkai/Relu_8","generator_shinkai/Pad_15/paddings"],"attr":{"T":{"type":1},"Tpaddings":{"type":3}},"name":"generator_shinkai/Pad_12","op":"Pad"},{"input":["generator_shinkai/Pad_12","generator_shinkai/conv09_2/kernel"],"attr":{"dilations":{"list":{"s":[],"i":["1","1","1","1"],"f":[],"b":[],"type":[],"shape":[],"tensor":[],"func":[]}},"T":{"type":1},"strides":{"list":{"s":[],"i":["1","1","1","1"],"f":[],"b":[],"type":[],"shape":[],"tensor":[],"func":[]}},"data_format":{"s":[78,72,87,67]},"use_cudnn_on_gpu":{"b":true},"padding":{"s":[86,65,76,73,68]}},"name":"generator_shinkai/conv09_2/Conv2D","op":"Conv2D"},{"input":["generator_shinkai/conv09_2/Conv2D","generator_shinkai/conv09_2/bias"],"attr":{"data_format":{"s":[78,72,87,67]},"T":{"type":1}},"name":"generator_shinkai/conv09_2/BiasAdd","op":"BiasAdd"},{"input":["generator_shinkai/conv09_2/BiasAdd","generator_shinkai/in11_1/moments/mean/reduction_indices"],"attr":{"T":{"type":1},"Tidx":{"type":3},"keep_dims":{"b":true}},"name":"generator_shinkai/in09_2/moments/mean","op":"Mean"},{"input":["generator_shinkai/conv09_2/BiasAdd","generator_shinkai/in09_2/moments/mean"],"attr":{"T":{"type":1}},"name":"generator_shinkai/in09_2/moments/SquaredDifference","op":"SquaredDifference"},{"input":["generator_shinkai/in09_2/moments/SquaredDifference","generator_shinkai/in11_1/moments/mean/reduction_indices"],"attr":{"Tidx":{"type":3},"keep_dims":{"b":true},"T":{"type":1}},"name":"generator_shinkai/in09_2/moments/variance","op":"Mean"},{"input":["generator_shinkai/in09_2/moments/variance","generator_shinkai/in11_1/instancenorm/add/y"],"attr":{"T":{"type":1}},"name":"generator_shinkai/in09_2/instancenorm/add","op":"Add"},{"input":["generator_shinkai/in09_2/instancenorm/add"],"attr":{"T":{"type":1}},"name":"generator_shinkai/in09_2/instancenorm/Rsqrt","op":"Rsqrt"},{"input":["generator_shinkai/in09_2/instancenorm/Rsqrt","generator_shinkai/in09_2/gamma"],"attr":{"T":{"type":1}},"name":"generator_shinkai/in09_2/instancenorm/mul","op":"Mul"},{"input":["generator_shinkai/conv09_2/BiasAdd","generator_shinkai/in09_2/instancenorm/mul"],"attr":{"T":{"type":1}},"name":"generator_shinkai/in09_2/instancenorm/mul_1","op":"Mul"},{"input":["generator_shinkai/in09_2/moments/mean","generator_shinkai/in09_2/instancenorm/mul"],"attr":{"T":{"type":1}},"name":"generator_shinkai/in09_2/instancenorm/mul_2","op":"Mul"},{"input":["generator_shinkai/in09_2/beta","generator_shinkai/in09_2/instancenorm/mul_2"],"attr":{"T":{"type":1}},"name":"generator_shinkai/in09_2/instancenorm/sub","op":"Sub"},{"input":["generator_shinkai/in09_2/instancenorm/mul_1","generator_shinkai/in09_2/instancenorm/sub"],"attr":{"T":{"type":1}},"name":"generator_shinkai/in09_2/instancenorm/add_1","op":"Add"},{"input":["generator_shinkai/in09_2/instancenorm/add_1","generator_shinkai/add_4"],"attr":{"T":{"type":1}},"name":"generator_shinkai/add_5","op":"Add"},{"input":["generator_shinkai/add_5","generator_shinkai/Pad_15/paddings"],"attr":{"T":{"type":1},"Tpaddings":{"type":3}},"name":"generator_shinkai/Pad_13","op":"Pad"},{"input":["generator_shinkai/Pad_13","generator_shinkai/conv10_1/kernel"],"attr":{"use_cudnn_on_gpu":{"b":true},"padding":{"s":[86,65,76,73,68]},"dilations":{"list":{"s":[],"i":["1","1","1","1"],"f":[],"b":[],"type":[],"shape":[],"tensor":[],"func":[]}},"T":{"type":1},"strides":{"list":{"s":[],"i":["1","1","1","1"],"f":[],"b":[],"type":[],"shape":[],"tensor":[],"func":[]}},"data_format":{"s":[78,72,87,67]}},"name":"generator_shinkai/conv10_1/Conv2D","op":"Conv2D"},{"input":["generator_shinkai/conv10_1/Conv2D","generator_shinkai/conv10_1/bias"],"attr":{"T":{"type":1},"data_format":{"s":[78,72,87,67]}},"name":"generator_shinkai/conv10_1/BiasAdd","op":"BiasAdd"},{"input":["generator_shinkai/conv10_1/BiasAdd","generator_shinkai/in11_1/moments/mean/reduction_indices"],"attr":{"T":{"type":1},"Tidx":{"type":3},"keep_dims":{"b":true}},"name":"generator_shinkai/in10_1/moments/mean","op":"Mean"},{"input":["generator_shinkai/conv10_1/BiasAdd","generator_shinkai/in10_1/moments/mean"],"attr":{"T":{"type":1}},"name":"generator_shinkai/in10_1/moments/SquaredDifference","op":"SquaredDifference"},{"input":["generator_shinkai/in10_1/moments/SquaredDifference","generator_shinkai/in11_1/moments/mean/reduction_indices"],"attr":{"Tidx":{"type":3},"keep_dims":{"b":true},"T":{"type":1}},"name":"generator_shinkai/in10_1/moments/variance","op":"Mean"},{"input":["generator_shinkai/in10_1/moments/variance","generator_shinkai/in11_1/instancenorm/add/y"],"attr":{"T":{"type":1}},"name":"generator_shinkai/in10_1/instancenorm/add","op":"Add"},{"input":["generator_shinkai/in10_1/instancenorm/add"],"attr":{"T":{"type":1}},"name":"generator_shinkai/in10_1/instancenorm/Rsqrt","op":"Rsqrt"},{"input":["generator_shinkai/in10_1/instancenorm/Rsqrt","generator_shinkai/in10_1/gamma"],"attr":{"T":{"type":1}},"name":"generator_shinkai/in10_1/instancenorm/mul","op":"Mul"},{"input":["generator_shinkai/conv10_1/BiasAdd","generator_shinkai/in10_1/instancenorm/mul"],"attr":{"T":{"type":1}},"name":"generator_shinkai/in10_1/instancenorm/mul_1","op":"Mul"},{"input":["generator_shinkai/in10_1/moments/mean","generator_shinkai/in10_1/instancenorm/mul"],"attr":{"T":{"type":1}},"name":"generator_shinkai/in10_1/instancenorm/mul_2","op":"Mul"},{"input":["generator_shinkai/in10_1/beta","generator_shinkai/in10_1/instancenorm/mul_2"],"attr":{"T":{"type":1}},"name":"generator_shinkai/in10_1/instancenorm/sub","op":"Sub"},{"input":["generator_shinkai/in10_1/instancenorm/mul_1","generator_shinkai/in10_1/instancenorm/sub"],"attr":{"T":{"type":1}},"name":"generator_shinkai/in10_1/instancenorm/add_1","op":"Add"},{"input":["generator_shinkai/in10_1/instancenorm/add_1"],"attr":{"T":{"type":1}},"name":"generator_shinkai/Relu_9","op":"Relu"},{"input":["generator_shinkai/Relu_9","generator_shinkai/Pad_15/paddings"],"attr":{"Tpaddings":{"type":3},"T":{"type":1}},"name":"generator_shinkai/Pad_14","op":"Pad"},{"input":["generator_shinkai/Pad_14","generator_shinkai/conv10_2/kernel"],"attr":{"dilations":{"list":{"s":[],"i":["1","1","1","1"],"f":[],"b":[],"type":[],"shape":[],"tensor":[],"func":[]}},"T":{"type":1},"data_format":{"s":[78,72,87,67]},"strides":{"list":{"s":[],"i":["1","1","1","1"],"f":[],"b":[],"type":[],"shape":[],"tensor":[],"func":[]}},"use_cudnn_on_gpu":{"b":true},"padding":{"s":[86,65,76,73,68]}},"name":"generator_shinkai/conv10_2/Conv2D","op":"Conv2D"},{"input":["generator_shinkai/conv10_2/Conv2D","generator_shinkai/conv10_2/bias"],"attr":{"data_format":{"s":[78,72,87,67]},"T":{"type":1}},"name":"generator_shinkai/conv10_2/BiasAdd","op":"BiasAdd"},{"input":["generator_shinkai/conv10_2/BiasAdd","generator_shinkai/in11_1/moments/mean/reduction_indices"],"attr":{"Tidx":{"type":3},"keep_dims":{"b":true},"T":{"type":1}},"name":"generator_shinkai/in10_2/moments/mean","op":"Mean"},{"input":["generator_shinkai/conv10_2/BiasAdd","generator_shinkai/in10_2/moments/mean"],"attr":{"T":{"type":1}},"name":"generator_shinkai/in10_2/moments/SquaredDifference","op":"SquaredDifference"},{"input":["generator_shinkai/in10_2/moments/SquaredDifference","generator_shinkai/in11_1/moments/mean/reduction_indices"],"attr":{"Tidx":{"type":3},"keep_dims":{"b":true},"T":{"type":1}},"name":"generator_shinkai/in10_2/moments/variance","op":"Mean"},{"input":["generator_shinkai/in10_2/moments/variance","generator_shinkai/in11_1/instancenorm/add/y"],"attr":{"T":{"type":1}},"name":"generator_shinkai/in10_2/instancenorm/add","op":"Add"},{"input":["generator_shinkai/in10_2/instancenorm/add"],"attr":{"T":{"type":1}},"name":"generator_shinkai/in10_2/instancenorm/Rsqrt","op":"Rsqrt"},{"input":["generator_shinkai/in10_2/instancenorm/Rsqrt","generator_shinkai/in10_2/gamma"],"attr":{"T":{"type":1}},"name":"generator_shinkai/in10_2/instancenorm/mul","op":"Mul"},{"input":["generator_shinkai/conv10_2/BiasAdd","generator_shinkai/in10_2/instancenorm/mul"],"attr":{"T":{"type":1}},"name":"generator_shinkai/in10_2/instancenorm/mul_1","op":"Mul"},{"input":["generator_shinkai/in10_2/moments/mean","generator_shinkai/in10_2/instancenorm/mul"],"attr":{"T":{"type":1}},"name":"generator_shinkai/in10_2/instancenorm/mul_2","op":"Mul"},{"input":["generator_shinkai/in10_2/beta","generator_shinkai/in10_2/instancenorm/mul_2"],"attr":{"T":{"type":1}},"name":"generator_shinkai/in10_2/instancenorm/sub","op":"Sub"},{"input":["generator_shinkai/in10_2/instancenorm/mul_1","generator_shinkai/in10_2/instancenorm/sub"],"attr":{"T":{"type":1}},"name":"generator_shinkai/in10_2/instancenorm/add_1","op":"Add"},{"input":["generator_shinkai/in10_2/instancenorm/add_1","generator_shinkai/add_5"],"attr":{"T":{"type":1}},"name":"generator_shinkai/add_6","op":"Add"},{"input":["generator_shinkai/add_6","generator_shinkai/Pad_15/paddings"],"attr":{"Tpaddings":{"type":3},"T":{"type":1}},"name":"generator_shinkai/Pad_15","op":"Pad"},{"input":["generator_shinkai/Pad_15","generator_shinkai/conv11_1/kernel"],"attr":{"dilations":{"list":{"s":[],"i":["1","1","1","1"],"f":[],"b":[],"type":[],"shape":[],"tensor":[],"func":[]}},"T":{"type":1},"data_format":{"s":[78,72,87,67]},"strides":{"list":{"s":[],"i":["1","1","1","1"],"f":[],"b":[],"type":[],"shape":[],"tensor":[],"func":[]}},"use_cudnn_on_gpu":{"b":true},"padding":{"s":[86,65,76,73,68]}},"name":"generator_shinkai/conv11_1/Conv2D","op":"Conv2D"},{"input":["generator_shinkai/conv11_1/Conv2D","generator_shinkai/conv11_1/bias"],"attr":{"data_format":{"s":[78,72,87,67]},"T":{"type":1}},"name":"generator_shinkai/conv11_1/BiasAdd","op":"BiasAdd"},{"input":["generator_shinkai/conv11_1/BiasAdd","generator_shinkai/in11_1/moments/mean/reduction_indices"],"attr":{"T":{"type":1},"Tidx":{"type":3},"keep_dims":{"b":true}},"name":"generator_shinkai/in11_1/moments/mean","op":"Mean"},{"input":["generator_shinkai/conv11_1/BiasAdd","generator_shinkai/in11_1/moments/mean"],"attr":{"T":{"type":1}},"name":"generator_shinkai/in11_1/moments/SquaredDifference","op":"SquaredDifference"},{"input":["generator_shinkai/in11_1/moments/SquaredDifference","generator_shinkai/in11_1/moments/mean/reduction_indices"],"attr":{"T":{"type":1},"Tidx":{"type":3},"keep_dims":{"b":true}},"name":"generator_shinkai/in11_1/moments/variance","op":"Mean"},{"input":["generator_shinkai/in11_1/moments/variance","generator_shinkai/in11_1/instancenorm/add/y"],"attr":{"T":{"type":1}},"name":"generator_shinkai/in11_1/instancenorm/add","op":"Add"},{"input":["generator_shinkai/in11_1/instancenorm/add"],"attr":{"T":{"type":1}},"name":"generator_shinkai/in11_1/instancenorm/Rsqrt","op":"Rsqrt"},{"input":["generator_shinkai/in11_1/instancenorm/Rsqrt","generator_shinkai/in11_1/gamma"],"attr":{"T":{"type":1}},"name":"generator_shinkai/in11_1/instancenorm/mul","op":"Mul"},{"input":["generator_shinkai/conv11_1/BiasAdd","generator_shinkai/in11_1/instancenorm/mul"],"attr":{"T":{"type":1}},"name":"generator_shinkai/in11_1/instancenorm/mul_1","op":"Mul"},{"input":["generator_shinkai/in11_1/moments/mean","generator_shinkai/in11_1/instancenorm/mul"],"attr":{"T":{"type":1}},"name":"generator_shinkai/in11_1/instancenorm/mul_2","op":"Mul"},{"input":["generator_shinkai/in11_1/beta","generator_shinkai/in11_1/instancenorm/mul_2"],"attr":{"T":{"type":1}},"name":"generator_shinkai/in11_1/instancenorm/sub","op":"Sub"},{"input":["generator_shinkai/in11_1/instancenorm/mul_1","generator_shinkai/in11_1/instancenorm/sub"],"attr":{"T":{"type":1}},"name":"generator_shinkai/in11_1/instancenorm/add_1","op":"Add"},{"input":["generator_shinkai/in11_1/instancenorm/add_1"],"attr":{"T":{"type":1}},"name":"generator_shinkai/Relu_10","op":"Relu"},{"input":["generator_shinkai/Relu_10","generator_shinkai/Pad_15/paddings"],"attr":{"T":{"type":1},"Tpaddings":{"type":3}},"name":"generator_shinkai/Pad_16","op":"Pad"},{"input":["generator_shinkai/Pad_16","generator_shinkai/conv11_2/kernel"],"attr":{"dilations":{"list":{"s":[],"i":["1","1","1","1"],"f":[],"b":[],"type":[],"shape":[],"tensor":[],"func":[]}},"T":{"type":1},"strides":{"list":{"s":[],"i":["1","1","1","1"],"f":[],"b":[],"type":[],"shape":[],"tensor":[],"func":[]}},"data_format":{"s":[78,72,87,67]},"use_cudnn_on_gpu":{"b":true},"padding":{"s":[86,65,76,73,68]}},"name":"generator_shinkai/conv11_2/Conv2D","op":"Conv2D"},{"input":["generator_shinkai/conv11_2/Conv2D","generator_shinkai/conv11_2/bias"],"attr":{"T":{"type":1},"data_format":{"s":[78,72,87,67]}},"name":"generator_shinkai/conv11_2/BiasAdd","op":"BiasAdd"},{"input":["generator_shinkai/conv11_2/BiasAdd","generator_shinkai/in11_1/moments/mean/reduction_indices"],"attr":{"Tidx":{"type":3},"keep_dims":{"b":true},"T":{"type":1}},"name":"generator_shinkai/in11_2/moments/mean","op":"Mean"},{"input":["generator_shinkai/conv11_2/BiasAdd","generator_shinkai/in11_2/moments/mean"],"attr":{"T":{"type":1}},"name":"generator_shinkai/in11_2/moments/SquaredDifference","op":"SquaredDifference"},{"input":["generator_shinkai/in11_2/moments/SquaredDifference","generator_shinkai/in11_1/moments/mean/reduction_indices"],"attr":{"T":{"type":1},"Tidx":{"type":3},"keep_dims":{"b":true}},"name":"generator_shinkai/in11_2/moments/variance","op":"Mean"},{"input":["generator_shinkai/in11_2/moments/variance","generator_shinkai/in11_1/instancenorm/add/y"],"attr":{"T":{"type":1}},"name":"generator_shinkai/in11_2/instancenorm/add","op":"Add"},{"input":["generator_shinkai/in11_2/instancenorm/add"],"attr":{"T":{"type":1}},"name":"generator_shinkai/in11_2/instancenorm/Rsqrt","op":"Rsqrt"},{"input":["generator_shinkai/in11_2/instancenorm/Rsqrt","generator_shinkai/in11_2/gamma"],"attr":{"T":{"type":1}},"name":"generator_shinkai/in11_2/instancenorm/mul","op":"Mul"},{"input":["generator_shinkai/conv11_2/BiasAdd","generator_shinkai/in11_2/instancenorm/mul"],"attr":{"T":{"type":1}},"name":"generator_shinkai/in11_2/instancenorm/mul_1","op":"Mul"},{"input":["generator_shinkai/in11_2/moments/mean","generator_shinkai/in11_2/instancenorm/mul"],"attr":{"T":{"type":1}},"name":"generator_shinkai/in11_2/instancenorm/mul_2","op":"Mul"},{"input":["generator_shinkai/in11_2/beta","generator_shinkai/in11_2/instancenorm/mul_2"],"attr":{"T":{"type":1}},"name":"generator_shinkai/in11_2/instancenorm/sub","op":"Sub"},{"input":["generator_shinkai/in11_2/instancenorm/mul_1","generator_shinkai/in11_2/instancenorm/sub"],"attr":{"T":{"type":1}},"name":"generator_shinkai/in11_2/instancenorm/add_1","op":"Add"},{"input":["generator_shinkai/in11_2/instancenorm/add_1","generator_shinkai/add_6"],"attr":{"T":{"type":1}},"name":"generator_shinkai/add_7","op":"Add"},{"input":["generator_shinkai/add_7"],"attr":{"T":{"type":1},"out_type":{"type":3}},"name":"generator_shinkai/deconv01_1/Shape","op":"Shape"},{"input":["generator_shinkai/deconv01_1/Shape","generator_shinkai/deconv02_1/strided_slice/stack","generator_shinkai/deconv02_1/strided_slice/stack_1","generator_shinkai/deconv02_1/strided_slice/stack_1"],"attr":{"shrink_axis_mask":{"i":"1"},"begin_mask":{"i":"0"},"ellipsis_mask":{"i":"0"},"new_axis_mask":{"i":"0"},"end_mask":{"i":"0"},"Index":{"type":3},"T":{"type":3}},"name":"generator_shinkai/deconv01_1/strided_slice","op":"StridedSlice"},{"input":["generator_shinkai/deconv01_1/Shape","generator_shinkai/deconv02_1/strided_slice/stack_1","generator_shinkai/deconv02_1/strided_slice_1/stack_1","generator_shinkai/deconv02_1/strided_slice/stack_1"],"attr":{"Index":{"type":3},"T":{"type":3},"shrink_axis_mask":{"i":"1"},"begin_mask":{"i":"0"},"ellipsis_mask":{"i":"0"},"new_axis_mask":{"i":"0"},"end_mask":{"i":"0"}},"name":"generator_shinkai/deconv01_1/strided_slice_1","op":"StridedSlice"},{"input":["generator_shinkai/deconv01_1/Shape","generator_shinkai/deconv02_1/strided_slice_1/stack_1","generator_shinkai/deconv02_1/strided_slice_2/stack_1","generator_shinkai/deconv02_1/strided_slice/stack_1"],"attr":{"shrink_axis_mask":{"i":"1"},"begin_mask":{"i":"0"},"ellipsis_mask":{"i":"0"},"new_axis_mask":{"i":"0"},"end_mask":{"i":"0"},"Index":{"type":3},"T":{"type":3}},"name":"generator_shinkai/deconv01_1/strided_slice_2","op":"StridedSlice"},{"input":["generator_shinkai/deconv01_1/strided_slice_1","generator_shinkai/deconv02_1/mul/y"],"attr":{"T":{"type":3}},"name":"generator_shinkai/deconv01_1/mul","op":"Mul"},{"input":["generator_shinkai/deconv01_1/strided_slice_2","generator_shinkai/deconv02_1/mul/y"],"attr":{"T":{"type":3}},"name":"generator_shinkai/deconv01_1/mul_1","op":"Mul"},{"input":["generator_shinkai/deconv01_1/mul","generator_shinkai/deconv02_1/add/y"],"attr":{"T":{"type":3}},"name":"generator_shinkai/deconv01_1/add","op":"Add"},{"input":["generator_shinkai/deconv01_1/mul_1","generator_shinkai/deconv02_1/add/y"],"attr":{"T":{"type":3}},"name":"generator_shinkai/deconv01_1/add_1","op":"Add"},{"input":["generator_shinkai/deconv01_1/strided_slice","generator_shinkai/deconv01_1/add","generator_shinkai/deconv01_1/add_1","generator_shinkai/deconv01_1/conv2d_transpose/output_shape/3"],"attr":{"T":{"type":3},"axis":{"i":"0"},"N":{"i":"4"}},"name":"generator_shinkai/deconv01_1/conv2d_transpose/output_shape","op":"Pack"},{"input":["generator_shinkai/deconv01_1/conv2d_transpose/output_shape","generator_shinkai/deconv01_1/kernel","generator_shinkai/add_7"],"attr":{"dilations":{"list":{"s":[],"i":["1","1","1","1"],"f":[],"b":[],"type":[],"shape":[],"tensor":[],"func":[]}},"T":{"type":1},"strides":{"list":{"s":[],"i":["1","2","2","1"],"f":[],"b":[],"type":[],"shape":[],"tensor":[],"func":[]}},"data_format":{"s":[78,72,87,67]},"use_cudnn_on_gpu":{"b":true},"padding":{"s":[86,65,76,73,68]}},"name":"generator_shinkai/deconv01_1/conv2d_transpose","op":"Conv2DBackpropInput"},{"input":["generator_shinkai/deconv01_1/conv2d_transpose","generator_shinkai/deconv01_1/strided_slice_3/stack","generator_shinkai/deconv01_1/strided_slice_3/stack_1","generator_shinkai/deconv01_1/strided_slice_3/stack_2"],"attr":{"T":{"type":1},"Index":{"type":3},"shrink_axis_mask":{"i":"0"},"ellipsis_mask":{"i":"0"},"begin_mask":{"i":"1"},"new_axis_mask":{"i":"0"},"end_mask":{"i":"7"}},"name":"generator_shinkai/deconv01_1/strided_slice_3","op":"StridedSlice"},{"input":["generator_shinkai/deconv01_1/strided_slice_3","generator_shinkai/deconv01_1/bias"],"attr":{"data_format":{"s":[78,72,87,67]},"T":{"type":1}},"name":"generator_shinkai/deconv01_1/BiasAdd","op":"BiasAdd"},{"input":["generator_shinkai/deconv01_1/BiasAdd","generator_shinkai/Pad_15/paddings"],"attr":{"T":{"type":1},"Tpaddings":{"type":3}},"name":"generator_shinkai/deconv01_2/Pad","op":"Pad"},{"input":["generator_shinkai/deconv01_2/Pad","generator_shinkai/deconv01_2/kernel"],"attr":{"padding":{"s":[86,65,76,73,68]},"dilations":{"list":{"s":[],"i":["1","1","1","1"],"f":[],"b":[],"type":[],"shape":[],"tensor":[],"func":[]}},"T":{"type":1},"data_format":{"s":[78,72,87,67]},"strides":{"list":{"s":[],"i":["1","1","1","1"],"f":[],"b":[],"type":[],"shape":[],"tensor":[],"func":[]}},"use_cudnn_on_gpu":{"b":true}},"name":"generator_shinkai/deconv01_2/Conv2D","op":"Conv2D"},{"input":["generator_shinkai/deconv01_2/Conv2D","generator_shinkai/deconv01_2/bias"],"attr":{"T":{"type":1},"data_format":{"s":[78,72,87,67]}},"name":"generator_shinkai/deconv01_2/BiasAdd","op":"BiasAdd"},{"input":["generator_shinkai/deconv01_2/BiasAdd","generator_shinkai/in11_1/moments/mean/reduction_indices"],"attr":{"T":{"type":1},"Tidx":{"type":3},"keep_dims":{"b":true}},"name":"generator_shinkai/in12_1/moments/mean","op":"Mean"},{"input":["generator_shinkai/deconv01_2/BiasAdd","generator_shinkai/in12_1/moments/mean"],"attr":{"T":{"type":1}},"name":"generator_shinkai/in12_1/moments/SquaredDifference","op":"SquaredDifference"},{"input":["generator_shinkai/in12_1/moments/SquaredDifference","generator_shinkai/in11_1/moments/mean/reduction_indices"],"attr":{"Tidx":{"type":3},"keep_dims":{"b":true},"T":{"type":1}},"name":"generator_shinkai/in12_1/moments/variance","op":"Mean"},{"input":["generator_shinkai/in12_1/moments/variance","generator_shinkai/in11_1/instancenorm/add/y"],"attr":{"T":{"type":1}},"name":"generator_shinkai/in12_1/instancenorm/add","op":"Add"},{"input":["generator_shinkai/in12_1/instancenorm/add"],"attr":{"T":{"type":1}},"name":"generator_shinkai/in12_1/instancenorm/Rsqrt","op":"Rsqrt"},{"input":["generator_shinkai/in12_1/instancenorm/Rsqrt","generator_shinkai/in12_1/gamma"],"attr":{"T":{"type":1}},"name":"generator_shinkai/in12_1/instancenorm/mul","op":"Mul"},{"input":["generator_shinkai/deconv01_2/BiasAdd","generator_shinkai/in12_1/instancenorm/mul"],"attr":{"T":{"type":1}},"name":"generator_shinkai/in12_1/instancenorm/mul_1","op":"Mul"},{"input":["generator_shinkai/in12_1/moments/mean","generator_shinkai/in12_1/instancenorm/mul"],"attr":{"T":{"type":1}},"name":"generator_shinkai/in12_1/instancenorm/mul_2","op":"Mul"},{"input":["generator_shinkai/in12_1/beta","generator_shinkai/in12_1/instancenorm/mul_2"],"attr":{"T":{"type":1}},"name":"generator_shinkai/in12_1/instancenorm/sub","op":"Sub"},{"input":["generator_shinkai/in12_1/instancenorm/mul_1","generator_shinkai/in12_1/instancenorm/sub"],"attr":{"T":{"type":1}},"name":"generator_shinkai/in12_1/instancenorm/add_1","op":"Add"},{"input":["generator_shinkai/in12_1/instancenorm/add_1"],"attr":{"T":{"type":1}},"name":"generator_shinkai/Relu_11","op":"Relu"},{"input":["generator_shinkai/Relu_11"],"attr":{"T":{"type":1},"out_type":{"type":3}},"name":"generator_shinkai/deconv02_1/Shape","op":"Shape"},{"input":["generator_shinkai/deconv02_1/Shape","generator_shinkai/deconv02_1/strided_slice/stack","generator_shinkai/deconv02_1/strided_slice/stack_1","generator_shinkai/deconv02_1/strided_slice/stack_1"],"attr":{"begin_mask":{"i":"0"},"ellipsis_mask":{"i":"0"},"new_axis_mask":{"i":"0"},"end_mask":{"i":"0"},"T":{"type":3},"Index":{"type":3},"shrink_axis_mask":{"i":"1"}},"name":"generator_shinkai/deconv02_1/strided_slice","op":"StridedSlice"},{"input":["generator_shinkai/deconv02_1/Shape","generator_shinkai/deconv02_1/strided_slice/stack_1","generator_shinkai/deconv02_1/strided_slice_1/stack_1","generator_shinkai/deconv02_1/strided_slice/stack_1"],"attr":{"Index":{"type":3},"T":{"type":3},"shrink_axis_mask":{"i":"1"},"begin_mask":{"i":"0"},"ellipsis_mask":{"i":"0"},"new_axis_mask":{"i":"0"},"end_mask":{"i":"0"}},"name":"generator_shinkai/deconv02_1/strided_slice_1","op":"StridedSlice"},{"input":["generator_shinkai/deconv02_1/Shape","generator_shinkai/deconv02_1/strided_slice_1/stack_1","generator_shinkai/deconv02_1/strided_slice_2/stack_1","generator_shinkai/deconv02_1/strided_slice/stack_1"],"attr":{"T":{"type":3},"Index":{"type":3},"shrink_axis_mask":{"i":"1"},"begin_mask":{"i":"0"},"ellipsis_mask":{"i":"0"},"new_axis_mask":{"i":"0"},"end_mask":{"i":"0"}},"name":"generator_shinkai/deconv02_1/strided_slice_2","op":"StridedSlice"},{"input":["generator_shinkai/deconv02_1/strided_slice_1","generator_shinkai/deconv02_1/mul/y"],"attr":{"T":{"type":3}},"name":"generator_shinkai/deconv02_1/mul","op":"Mul"},{"input":["generator_shinkai/deconv02_1/strided_slice_2","generator_shinkai/deconv02_1/mul/y"],"attr":{"T":{"type":3}},"name":"generator_shinkai/deconv02_1/mul_1","op":"Mul"},{"input":["generator_shinkai/deconv02_1/mul","generator_shinkai/deconv02_1/add/y"],"attr":{"T":{"type":3}},"name":"generator_shinkai/deconv02_1/add","op":"Add"},{"input":["generator_shinkai/deconv02_1/mul_1","generator_shinkai/deconv02_1/add/y"],"attr":{"T":{"type":3}},"name":"generator_shinkai/deconv02_1/add_1","op":"Add"},{"input":["generator_shinkai/deconv02_1/strided_slice","generator_shinkai/deconv02_1/add","generator_shinkai/deconv02_1/add_1","generator_shinkai/deconv02_1/conv2d_transpose/output_shape/3"],"attr":{"T":{"type":3},"axis":{"i":"0"},"N":{"i":"4"}},"name":"generator_shinkai/deconv02_1/conv2d_transpose/output_shape","op":"Pack"},{"input":["generator_shinkai/deconv02_1/conv2d_transpose/output_shape","generator_shinkai/deconv02_1/kernel","generator_shinkai/Relu_11"],"attr":{"dilations":{"list":{"s":[],"i":["1","1","1","1"],"f":[],"b":[],"type":[],"shape":[],"tensor":[],"func":[]}},"T":{"type":1},"strides":{"list":{"s":[],"i":["1","2","2","1"],"f":[],"b":[],"type":[],"shape":[],"tensor":[],"func":[]}},"data_format":{"s":[78,72,87,67]},"use_cudnn_on_gpu":{"b":true},"padding":{"s":[86,65,76,73,68]}},"name":"generator_shinkai/deconv02_1/conv2d_transpose","op":"Conv2DBackpropInput"},{"input":["generator_shinkai/deconv02_1/conv2d_transpose","generator_shinkai/deconv01_1/strided_slice_3/stack","generator_shinkai/deconv01_1/strided_slice_3/stack_1","generator_shinkai/deconv01_1/strided_slice_3/stack_2"],"attr":{"shrink_axis_mask":{"i":"0"},"ellipsis_mask":{"i":"0"},"begin_mask":{"i":"1"},"new_axis_mask":{"i":"0"},"end_mask":{"i":"7"},"T":{"type":1},"Index":{"type":3}},"name":"generator_shinkai/deconv02_1/strided_slice_3","op":"StridedSlice"},{"input":["generator_shinkai/deconv02_1/strided_slice_3","generator_shinkai/deconv02_1/bias"],"attr":{"T":{"type":1},"data_format":{"s":[78,72,87,67]}},"name":"generator_shinkai/deconv02_1/BiasAdd","op":"BiasAdd"},{"input":["generator_shinkai/deconv02_1/BiasAdd","generator_shinkai/Pad_15/paddings"],"attr":{"T":{"type":1},"Tpaddings":{"type":3}},"name":"generator_shinkai/deconv02_2/Pad","op":"Pad"},{"input":["generator_shinkai/deconv02_2/Pad","generator_shinkai/deconv02_2/kernel"],"attr":{"dilations":{"list":{"s":[],"i":["1","1","1","1"],"f":[],"b":[],"type":[],"shape":[],"tensor":[],"func":[]}},"T":{"type":1},"data_format":{"s":[78,72,87,67]},"strides":{"list":{"s":[],"i":["1","1","1","1"],"f":[],"b":[],"type":[],"shape":[],"tensor":[],"func":[]}},"use_cudnn_on_gpu":{"b":true},"padding":{"s":[86,65,76,73,68]}},"name":"generator_shinkai/deconv02_2/Conv2D","op":"Conv2D"},{"input":["generator_shinkai/deconv02_2/Conv2D","generator_shinkai/deconv02_2/bias"],"attr":{"T":{"type":1},"data_format":{"s":[78,72,87,67]}},"name":"generator_shinkai/deconv02_2/BiasAdd","op":"BiasAdd"},{"input":["generator_shinkai/deconv02_2/BiasAdd","generator_shinkai/in11_1/moments/mean/reduction_indices"],"attr":{"Tidx":{"type":3},"keep_dims":{"b":true},"T":{"type":1}},"name":"generator_shinkai/in13_1/moments/mean","op":"Mean"},{"input":["generator_shinkai/deconv02_2/BiasAdd","generator_shinkai/in13_1/moments/mean"],"attr":{"T":{"type":1}},"name":"generator_shinkai/in13_1/moments/SquaredDifference","op":"SquaredDifference"},{"input":["generator_shinkai/in13_1/moments/SquaredDifference","generator_shinkai/in11_1/moments/mean/reduction_indices"],"attr":{"T":{"type":1},"Tidx":{"type":3},"keep_dims":{"b":true}},"name":"generator_shinkai/in13_1/moments/variance","op":"Mean"},{"input":["generator_shinkai/in13_1/moments/variance","generator_shinkai/in11_1/instancenorm/add/y"],"attr":{"T":{"type":1}},"name":"generator_shinkai/in13_1/instancenorm/add","op":"Add"},{"input":["generator_shinkai/in13_1/instancenorm/add"],"attr":{"T":{"type":1}},"name":"generator_shinkai/in13_1/instancenorm/Rsqrt","op":"Rsqrt"},{"input":["generator_shinkai/in13_1/instancenorm/Rsqrt","generator_shinkai/in13_1/gamma"],"attr":{"T":{"type":1}},"name":"generator_shinkai/in13_1/instancenorm/mul","op":"Mul"},{"input":["generator_shinkai/deconv02_2/BiasAdd","generator_shinkai/in13_1/instancenorm/mul"],"attr":{"T":{"type":1}},"name":"generator_shinkai/in13_1/instancenorm/mul_1","op":"Mul"},{"input":["generator_shinkai/in13_1/moments/mean","generator_shinkai/in13_1/instancenorm/mul"],"attr":{"T":{"type":1}},"name":"generator_shinkai/in13_1/instancenorm/mul_2","op":"Mul"},{"input":["generator_shinkai/in13_1/beta","generator_shinkai/in13_1/instancenorm/mul_2"],"attr":{"T":{"type":1}},"name":"generator_shinkai/in13_1/instancenorm/sub","op":"Sub"},{"input":["generator_shinkai/in13_1/instancenorm/mul_1","generator_shinkai/in13_1/instancenorm/sub"],"attr":{"T":{"type":1}},"name":"generator_shinkai/in13_1/instancenorm/add_1","op":"Add"},{"input":["generator_shinkai/in13_1/instancenorm/add_1"],"attr":{"T":{"type":1}},"name":"generator_shinkai/Relu_12","op":"Relu"},{"input":["generator_shinkai/Relu_12","generator_shinkai/Pad/paddings"],"attr":{"T":{"type":1},"Tpaddings":{"type":3}},"name":"generator_shinkai/Pad_17","op":"Pad"},{"input":["generator_shinkai/Pad_17","generator_shinkai/deconv03_1/kernel"],"attr":{"strides":{"list":{"s":[],"i":["1","1","1","1"],"f":[],"b":[],"type":[],"shape":[],"tensor":[],"func":[]}},"data_format":{"s":[78,72,87,67]},"use_cudnn_on_gpu":{"b":true},"padding":{"s":[86,65,76,73,68]},"dilations":{"list":{"s":[],"i":["1","1","1","1"],"f":[],"b":[],"type":[],"shape":[],"tensor":[],"func":[]}},"T":{"type":1}},"name":"generator_shinkai/deconv03_1/Conv2D","op":"Conv2D"},{"input":["generator_shinkai/deconv03_1/Conv2D","generator_shinkai/deconv03_1/bias"],"attr":{"T":{"type":1},"data_format":{"s":[78,72,87,67]}},"name":"generator_shinkai/deconv03_1/BiasAdd","op":"BiasAdd"},{"input":["generator_shinkai/deconv03_1/BiasAdd"],"attr":{"T":{"type":1}},"name":"generator_shinkai/Tanh","op":"Tanh"}],"library":{"function":[],"gradient":[]},"versions":{"badConsumers":[]}},"weightsManifest":[{"paths":["group1-shard1of3","group1-shard2of3","group1-shard3of3"],"weights":[{"name":"generator_shinkai/in13_1/beta","shape":[64],"dtype":"float32","quantization":{"min":-0.2059907991110402,"scale":0.0008174238059961913,"dtype":"uint8"}},{"name":"generator_shinkai/deconv02_1/conv2d_transpose/output_shape/3","shape":[],"dtype":"int32","quantization":{"min":64,"scale":1,"dtype":"uint8"}},{"name":"generator_shinkai/deconv02_1/kernel","shape":[3,3,64,128],"dtype":"float32","quantization":{"min":-0.13333499256302328,"scale":0.0009876666115779503,"dtype":"uint8"}},{"name":"generator_shinkai/in12_1/beta","shape":[128],"dtype":"float32","quantization":{"min":-0.13608207921771442,"scale":0.0008348593817037695,"dtype":"uint8"}},{"name":"generator_shinkai/deconv02_1/strided_slice/stack","shape":[1],"dtype":"int32","quantization":{"min":0,"scale":1,"dtype":"uint8"}},{"name":"generator_shinkai/deconv02_1/strided_slice_1/stack_1","shape":[1],"dtype":"int32","quantization":{"min":2,"scale":1,"dtype":"uint8"}},{"name":"generator_shinkai/deconv02_1/strided_slice_2/stack_1","shape":[1],"dtype":"int32","quantization":{"min":3,"scale":1,"dtype":"uint8"}},{"name":"generator_shinkai/deconv02_1/strided_slice/stack_1","shape":[1],"dtype":"int32","quantization":{"min":1,"scale":1,"dtype":"uint8"}},{"name":"generator_shinkai/deconv02_1/mul/y","shape":[],"dtype":"int32","quantization":{"min":2,"scale":1,"dtype":"uint8"}},{"name":"generator_shinkai/deconv02_1/add/y","shape":[],"dtype":"int32","quantization":{"min":1,"scale":1,"dtype":"uint8"}},{"name":"generator_shinkai/deconv01_1/conv2d_transpose/output_shape/3","shape":[],"dtype":"int32","quantization":{"min":128,"scale":1,"dtype":"uint8"}},{"name":"generator_shinkai/deconv01_1/kernel","shape":[3,3,128,256],"dtype":"float32","quantization":{"min":-0.100987307639683,"scale":0.0007828473460440542,"dtype":"uint8"}},{"name":"generator_shinkai/in11_2/beta","shape":[256],"dtype":"float32","quantization":{"min":-0.03489978085545933,"scale":0.0003877753428384369,"dtype":"uint8"}},{"name":"generator_shinkai/in11_1/beta","shape":[256],"dtype":"float32","quantization":{"min":-0.11456015542441723,"scale":0.0007438971131455665,"dtype":"uint8"}},{"name":"generator_shinkai/conv11_1/kernel","shape":[3,3,256,256],"dtype":"float32","quantization":{"min":-0.10019563226138845,"scale":0.000834963602178237,"dtype":"uint8"}},{"name":"generator_shinkai/conv11_1/bias","shape":[256],"dtype":"float32","quantization":{"min":-8.450082953620812e-10,"scale":6.550451902031637e-12,"dtype":"uint8"}},{"name":"generator_shinkai/in11_1/gamma","shape":[256],"dtype":"float32","quantization":{"min":0.061946701258420944,"scale":0.003589445659342934,"dtype":"uint8"}},{"name":"generator_shinkai/conv11_2/kernel","shape":[3,3,256,256],"dtype":"float32","quantization":{"min":-0.1008098415299958,"scale":0.0008263101764753754,"dtype":"uint8"}},{"name":"generator_shinkai/conv11_2/bias","shape":[256],"dtype":"float32","quantization":{"min":-5.8853937183440106e-9,"scale":3.821684232690916e-11,"dtype":"uint8"}},{"name":"generator_shinkai/in11_2/gamma","shape":[256],"dtype":"float32","quantization":{"min":0.05345681309700012,"scale":0.0037506237918255377,"dtype":"uint8"}},{"name":"generator_shinkai/in10_2/beta","shape":[256],"dtype":"float32","quantization":{"min":-0.03489976902218426,"scale":0.0003877752113576029,"dtype":"uint8"}},{"name":"generator_shinkai/in10_1/beta","shape":[256],"dtype":"float32","quantization":{"min":-0.11225123358707802,"scale":0.0008568796457028856,"dtype":"uint8"}},{"name":"generator_shinkai/conv10_1/kernel","shape":[3,3,256,256],"dtype":"float32","quantization":{"min":-0.09925479398054235,"scale":0.0007940383518443388,"dtype":"uint8"}},{"name":"generator_shinkai/conv10_1/bias","shape":[256],"dtype":"float32","quantization":{"min":-1.183764354513695e-9,"scale":9.176467864447248e-12,"dtype":"uint8"}},{"name":"generator_shinkai/in10_1/gamma","shape":[256],"dtype":"float32","quantization":{"min":0.061988264322280884,"scale":0.003566672404607137,"dtype":"uint8"}},{"name":"generator_shinkai/conv10_2/kernel","shape":[3,3,256,256],"dtype":"float32","quantization":{"min":-0.12221815130289863,"scale":0.0009053196392807306,"dtype":"uint8"}},{"name":"generator_shinkai/conv10_2/bias","shape":[256],"dtype":"float32","quantization":{"min":-4.438773378486379e-9,"scale":4.529360590292223e-11,"dtype":"uint8"}},{"name":"generator_shinkai/in10_2/gamma","shape":[256],"dtype":"float32","quantization":{"min":-0.06708311239878337,"scale":0.0041926945249239605,"dtype":"uint8"}},{"name":"generator_shinkai/in09_2/beta","shape":[256],"dtype":"float32","quantization":{"min":-0.034899759818525874,"scale":0.0003877751090947319,"dtype":"uint8"}},{"name":"generator_shinkai/in09_1/beta","shape":[256],"dtype":"float32","quantization":{"min":-0.07567820759380565,"scale":0.0005690090796526741,"dtype":"uint8"}},{"name":"generator_shinkai/conv09_1/kernel","shape":[3,3,256,256],"dtype":"float32","quantization":{"min":-0.10621114417034037,"scale":0.0008107720929033616,"dtype":"uint8"}},{"name":"generator_shinkai/conv09_1/bias","shape":[256],"dtype":"float32","quantization":{"min":-1.1774567190539976e-9,"scale":9.127571465534866e-12,"dtype":"uint8"}},{"name":"generator_shinkai/in09_1/gamma","shape":[256],"dtype":"float32","quantization":{"min":0.07597916573286057,"scale":0.00356476099467745,"dtype":"uint8"}},{"name":"generator_shinkai/conv09_2/kernel","shape":[3,3,256,256],"dtype":"float32","quantization":{"min":-0.10047013677802741,"scale":0.0007728472059848262,"dtype":"uint8"}},{"name":"generator_shinkai/conv09_2/bias","shape":[256],"dtype":"float32","quantization":{"min":-4.883199740864559e-9,"scale":4.1035291940038315e-11,"dtype":"uint8"}},{"name":"generator_shinkai/in09_2/gamma","shape":[256],"dtype":"float32","quantization":{"min":0.03563884273171425,"scale":0.0037317798272067425,"dtype":"uint8"}},{"name":"generator_shinkai/in08_2/beta","shape":[256],"dtype":"float32","quantization":{"min":-0.03489976244814256,"scale":0.0003877751383126951,"dtype":"uint8"}},{"name":"generator_shinkai/in08_1/beta","shape":[256],"dtype":"float32","quantization":{"min":-0.08123714438840454,"scale":0.0006201308731939278,"dtype":"uint8"}},{"name":"generator_shinkai/conv08_1/kernel","shape":[3,3,256,256],"dtype":"float32","quantization":{"min":-0.10612609193605535,"scale":0.0008226828832252353,"dtype":"uint8"}},{"name":"generator_shinkai/conv08_1/bias","shape":[256],"dtype":"float32","quantization":{"min":-1.594586363169535e-9,"scale":1.1989371151650638e-11,"dtype":"uint8"}},{"name":"generator_shinkai/in08_1/gamma","shape":[256],"dtype":"float32","quantization":{"min":0.06505625694990158,"scale":0.003603055693355261,"dtype":"uint8"}},{"name":"generator_shinkai/conv08_2/kernel","shape":[3,3,256,256],"dtype":"float32","quantization":{"min":-0.1008812759436813,"scale":0.0008268957044564041,"dtype":"uint8"}},{"name":"generator_shinkai/conv08_2/bias","shape":[256],"dtype":"float32","quantization":{"min":-5.082210034076667e-9,"scale":4.0657680272613336e-11,"dtype":"uint8"}},{"name":"generator_shinkai/in08_2/gamma","shape":[256],"dtype":"float32","quantization":{"min":-0.0453170715739914,"scale":0.004119733779453764,"dtype":"uint8"}},{"name":"generator_shinkai/in07_2/beta","shape":[256],"dtype":"float32","quantization":{"min":-0.03489976113333421,"scale":0.0003877751237037135,"dtype":"uint8"}},{"name":"generator_shinkai/in07_1/beta","shape":[256],"dtype":"float32","quantization":{"min":-0.07525597740622127,"scale":0.0005226109542098699,"dtype":"uint8"}},{"name":"generator_shinkai/conv07_1/kernel","shape":[3,3,256,256],"dtype":"float32","quantization":{"min":-0.10051702462575016,"scale":0.0007914726348484264,"dtype":"uint8"}},{"name":"generator_shinkai/conv07_1/bias","shape":[256],"dtype":"float32","quantization":{"min":-1.4503836284490593e-9,"scale":1.1331122097258275e-11,"dtype":"uint8"}},{"name":"generator_shinkai/in07_1/gamma","shape":[256],"dtype":"float32","quantization":{"min":0.07281623780727386,"scale":0.0035805088047887765,"dtype":"uint8"}},{"name":"generator_shinkai/conv07_2/kernel","shape":[3,3,256,256],"dtype":"float32","quantization":{"min":-0.09686509695123224,"scale":0.0007749207756098579,"dtype":"uint8"}},{"name":"generator_shinkai/conv07_2/bias","shape":[256],"dtype":"float32","quantization":{"min":-4.8080553081403566e-9,"scale":3.941028941098653e-11,"dtype":"uint8"}},{"name":"generator_shinkai/in07_2/gamma","shape":[256],"dtype":"float32","quantization":{"min":0.038074009120464325,"scale":0.0036989899534805148,"dtype":"uint8"}},{"name":"generator_shinkai/in06_2/beta","shape":[256],"dtype":"float32","quantization":{"min":-0.03489977822584264,"scale":0.0003877753136204738,"dtype":"uint8"}},{"name":"generator_shinkai/in06_1/beta","shape":[256],"dtype":"float32","quantization":{"min":-0.08102180897897364,"scale":0.0005437705300602258,"dtype":"uint8"}},{"name":"generator_shinkai/conv06_1/kernel","shape":[3,3,256,256],"dtype":"float32","quantization":{"min":-0.10022959966285556,"scale":0.0008640482729556514,"dtype":"uint8"}},{"name":"generator_shinkai/conv06_1/bias","shape":[256],"dtype":"float32","quantization":{"min":-1.3211026743153345e-9,"scale":1.0241106002444453e-11,"dtype":"uint8"}},{"name":"generator_shinkai/in06_1/gamma","shape":[256],"dtype":"float32","quantization":{"min":0.058133743703365326,"scale":0.003596255504617504,"dtype":"uint8"}},{"name":"generator_shinkai/conv06_2/kernel","shape":[3,3,256,256],"dtype":"float32","quantization":{"min":-0.1101181824709855,"scale":0.0008670723029211456,"dtype":"uint8"}},{"name":"generator_shinkai/conv06_2/bias","shape":[256],"dtype":"float32","quantization":{"min":-5.45437711728462e-9,"scale":4.228199315724512e-11,"dtype":"uint8"}},{"name":"generator_shinkai/in06_2/gamma","shape":[256],"dtype":"float32","quantization":{"min":0.03197920694947243,"scale":0.003752369258333655,"dtype":"uint8"}},{"name":"generator_shinkai/in05_2/beta","shape":[256],"dtype":"float32","quantization":{"min":-0.03489976770737592,"scale":0.00038777519674862134,"dtype":"uint8"}},{"name":"generator_shinkai/in05_1/beta","shape":[256],"dtype":"float32","quantization":{"min":-0.08121156861969069,"scale":0.0005842558893502927,"dtype":"uint8"}},{"name":"generator_shinkai/conv05_1/kernel","shape":[3,3,256,256],"dtype":"float32","quantization":{"min":-0.09563800114042618,"scale":0.0007590317550827475,"dtype":"uint8"}},{"name":"generator_shinkai/conv05_1/bias","shape":[256],"dtype":"float32","quantization":{"min":-2.137753159677421e-9,"scale":1.4743125239154627e-11,"dtype":"uint8"}},{"name":"generator_shinkai/in05_1/gamma","shape":[256],"dtype":"float32","quantization":{"min":0.06823325902223587,"scale":0.003608900863750308,"dtype":"uint8"}},{"name":"generator_shinkai/conv05_2/kernel","shape":[3,3,256,256],"dtype":"float32","quantization":{"min":-0.10418369901530883,"scale":0.0008470219432138929,"dtype":"uint8"}},{"name":"generator_shinkai/conv05_2/bias","shape":[256],"dtype":"float32","quantization":{"min":-3.746681929412181e-9,"scale":3.0964313466216374e-11,"dtype":"uint8"}},{"name":"generator_shinkai/in05_2/gamma","shape":[256],"dtype":"float32","quantization":{"min":0.03219536319375038,"scale":0.003730604563857995,"dtype":"uint8"}},{"name":"generator_shinkai/in04_2/beta","shape":[256],"dtype":"float32","quantization":{"min":-0.03489977822584264,"scale":0.0003877753136204738,"dtype":"uint8"}},{"name":"generator_shinkai/in04_1/beta","shape":[256],"dtype":"float32","quantization":{"min":-0.06156563478357652,"scale":0.00048098152174669154,"dtype":"uint8"}},{"name":"generator_shinkai/conv04_1/kernel","shape":[3,3,256,256],"dtype":"float32","quantization":{"min":-0.09890361962949529,"scale":0.0007912289570359622,"dtype":"uint8"}},{"name":"generator_shinkai/conv04_1/bias","shape":[256],"dtype":"float32","quantization":{"min":-4.694768835127447e-9,"scale":3.3296232873244304e-11,"dtype":"uint8"}},{"name":"generator_shinkai/in04_1/gamma","shape":[256],"dtype":"float32","quantization":{"min":0.06500696390867233,"scale":0.0035994911018539877,"dtype":"uint8"}},{"name":"generator_shinkai/conv04_2/kernel","shape":[3,3,256,256],"dtype":"float32","quantization":{"min":-0.10146602929807176,"scale":0.0007927033538911856,"dtype":"uint8"}},{"name":"generator_shinkai/conv04_2/bias","shape":[256],"dtype":"float32","quantization":{"min":-5.329376735996969e-9,"scale":4.555022851279461e-11,"dtype":"uint8"}},{"name":"generator_shinkai/in04_2/gamma","shape":[256],"dtype":"float32","quantization":{"min":0.0319366380572319,"scale":0.003746611727219002,"dtype":"uint8"}},{"name":"generator_shinkai/in03_1/beta","shape":[256],"dtype":"float32","quantization":{"min":-0.03211327908085842,"scale":0.0005017699856384128,"dtype":"uint8"}},{"name":"generator_shinkai/in02_1/beta","shape":[128],"dtype":"float32","quantization":{"min":-0.06380310996490367,"scale":0.0006194476695621715,"dtype":"uint8"}},{"name":"generator_shinkai/in01_1/beta","shape":[64],"dtype":"float32","quantization":{"min":-0.01717833603421847,"scale":0.0005052451774770139,"dtype":"uint8"}},{"name":"generator_shinkai/conv01_1/kernel","shape":[7,7,3,64],"dtype":"float32","quantization":{"min":-0.08005942924349915,"scale":0.0006254642909648371,"dtype":"uint8"}},{"name":"generator_shinkai/conv01_1/bias","shape":[64],"dtype":"float32","quantization":{"min":-7.191017541081952e-8,"scale":6.420551375966028e-10,"dtype":"uint8"}},{"name":"generator_shinkai/in01_1/gamma","shape":[64],"dtype":"float32","quantization":{"min":0.08350633829832077,"scale":0.0035041807036773833,"dtype":"uint8"}},{"name":"generator_shinkai/conv02_1/kernel","shape":[3,3,64,128],"dtype":"float32","quantization":{"min":-0.08965713580449422,"scale":0.0007729063431421916,"dtype":"uint8"}},{"name":"generator_shinkai/conv02_1/bias","shape":[128],"dtype":"float32","quantization":{"min":-9.444672892133145e-8,"scale":8.994926563936329e-10,"dtype":"uint8"}},{"name":"generator_shinkai/conv02_2/kernel","shape":[3,3,128,128],"dtype":"float32","quantization":{"min":-0.0924140396363595,"scale":0.0007163879041578255,"dtype":"uint8"}},{"name":"generator_shinkai/conv02_2/bias","shape":[128],"dtype":"float32","quantization":{"min":-2.0720548268032494e-8,"scale":1.6845974201652435e-10,"dtype":"uint8"}},{"name":"generator_shinkai/in02_1/gamma","shape":[128],"dtype":"float32","quantization":{"min":0.04677296429872513,"scale":0.0036780366418408413,"dtype":"uint8"}},{"name":"generator_shinkai/conv03_1/kernel","shape":[3,3,128,256],"dtype":"float32","quantization":{"min":-0.1023690148895862,"scale":0.0007696918412750843,"dtype":"uint8"}},{"name":"generator_shinkai/conv03_1/bias","shape":[256],"dtype":"float32","quantization":{"min":-1.0403003251863707e-7,"scale":8.322402601490965e-10,"dtype":"uint8"}},{"name":"generator_shinkai/conv03_2/kernel","shape":[3,3,256,256],"dtype":"float32","quantization":{"min":-0.10271794682039934,"scale":0.0007962631536465065,"dtype":"uint8"}},{"name":"generator_shinkai/conv03_2/bias","shape":[256],"dtype":"float32","quantization":{"min":-9.303122943029117e-9,"scale":5.814451839393198e-11,"dtype":"uint8"}},{"name":"generator_shinkai/in03_1/gamma","shape":[256],"dtype":"float32","quantization":{"min":0.0643719881772995,"scale":0.0036582061473061055,"dtype":"uint8"}},{"name":"generator_shinkai/deconv01_1/bias","shape":[128],"dtype":"float32","quantization":{"min":-1.4002292973555977e-7,"scale":9.860769699687308e-10,"dtype":"uint8"}},{"name":"generator_shinkai/deconv01_2/kernel","shape":[3,3,128,128],"dtype":"float32","quantization":{"min":-0.09519970957555024,"scale":0.0007615976766044019,"dtype":"uint8"}},{"name":"generator_shinkai/deconv01_2/bias","shape":[128],"dtype":"float32","quantization":{"min":-3.9602427376655e-9,"scale":4.000245189561111e-11,"dtype":"uint8"}},{"name":"generator_shinkai/in12_1/gamma","shape":[128],"dtype":"float32","quantization":{"min":0.06420999020338058,"scale":0.003512687805820914,"dtype":"uint8"}},{"name":"generator_shinkai/deconv01_1/strided_slice_3/stack","shape":[3],"dtype":"int32","quantization":{"min":0,"scale":0.00392156862745098,"dtype":"uint8"}},{"name":"generator_shinkai/deconv01_1/strided_slice_3/stack_1","shape":[3],"dtype":"int32","quantization":{"min":0,"scale":1,"dtype":"uint8"}},{"name":"generator_shinkai/deconv01_1/strided_slice_3/stack_2","shape":[3],"dtype":"int32","quantization":{"min":1,"scale":1,"dtype":"uint8"}},{"name":"generator_shinkai/deconv02_1/bias","shape":[64],"dtype":"float32","quantization":{"min":-1.3414916584982467e-7,"scale":1.0731933267985975e-9,"dtype":"uint8"}},{"name":"generator_shinkai/Pad_15/paddings","shape":[4,2],"dtype":"int32","quantization":{"min":0,"scale":0.00392156862745098,"dtype":"uint8"}},{"name":"generator_shinkai/deconv02_2/kernel","shape":[3,3,64,64],"dtype":"float32","quantization":{"min":-0.12517177664181764,"scale":0.0008632536320125355,"dtype":"uint8"}},{"name":"generator_shinkai/deconv02_2/bias","shape":[64],"dtype":"float32","quantization":{"min":-5.696467219846169e-8,"scale":4.3484482594245563e-10,"dtype":"uint8"}},{"name":"generator_shinkai/in11_1/moments/mean/reduction_indices","shape":[2],"dtype":"int32","quantization":{"min":1,"scale":0.00392156862745098,"dtype":"uint8"}},{"name":"generator_shinkai/in11_1/instancenorm/add/y","shape":[],"dtype":"float32","quantization":{"min":9.999999717180685e-10,"scale":1,"dtype":"uint8"}},{"name":"generator_shinkai/in13_1/gamma","shape":[64],"dtype":"float32","quantization":{"min":0.037479788064956665,"scale":0.0036526795695809755,"dtype":"uint8"}},{"name":"generator_shinkai/Pad/paddings","shape":[4,2],"dtype":"int32","quantization":{"min":0,"scale":0.011764705882352941,"dtype":"uint8"}},{"name":"generator_shinkai/deconv03_1/kernel","shape":[7,7,64,3],"dtype":"float32","quantization":{"min":-0.23984488143640406,"scale":0.0018449606264338773,"dtype":"uint8"}},{"name":"generator_shinkai/deconv03_1/bias","shape":[3],"dtype":"float32","quantization":{"min":-1.928176202059104e-8,"scale":1.8020338337000973e-10,"dtype":"uint8"}}]}]}